model_window2_dim4.pt (torch_old, 864997 bytes, 11 tensors)

lstm.weight_ih_l0 f4 [512, 1]
00000000: cd35 87bd 4682 c13d d66a 7abe e5df 2cbe
00000010: 2f4f 8a3d 16a2 323e 2009 d2bc 4f01 8dbe
00000020: b396 37be 5317 11be c93a 81be 2081 a0be
00000030: 88d8 5bbe 3710 06be 3b42 99be fac2 98bd
00000040: d760 35be fbaf 96be 45ab 5abe 187c a6bd
00000050: 1748 33be 54ab 8dbe e7aa 54be 1853 0abe
00000060: 008d 80be d52f e4bb 04bb 88bc 4a96 cb3d
00000070: aff5 0ebe afde 12bc ab23 57bd aa43 2dbd
00000080: 3394 89bd 7c2f aebc 325b 5dbd 435b 01be
00000090: 6905 2abe 2131 64bd fe1c 28be 66fa fabc
000000a0: ad71 7cbd 7dda dcbd 94c2 48be aa12 b7bd
000000b0: dc33 8bbe 25ae d6bd 2468 833d b0e0 5bbd
000000c0: ac6b 97bd d872 01be bb73 48be c49a e8bd
000000d0: 2cea 64be b855 8ebe 9072 eebd e8ba 2c3e
000000e0: 6f39 52be 86f9 73bd 6a4d f13d b621 2fbd
000000f0: 5dad 40be cda9 d6bd 77d1 83bd db74 d7bd
00000100: 380d 6abe 3e84 29be 3cea 39be 7c54 2ebd
00000110: 0e0b f8bc 26da fabd 19c7 0abe d920 be3d
00000120: 3f49 35be ef48 21be bac5 2abe 56c2 52be
00000130: 6421 10be 8bba 67bd d1d9 59be d0eb 7bbe
00000140: 7339 a8bc 2faa 4bbe cd51 71be 0f08 25be
00000150: 860f 5cbe b143 46be e8b3 28be 17d2 193d
00000160: 8022 06be 3b92 a6be af6d 6dbe 75ef 75be
00000170: e391 db3d 7e94 f7bd 1445 0abe 1629 15bd
00000180: 164d 47be a7ae a2bd 7c5e 12be eff2 d0bd
00000190: c0ea 80be 7920 34be e5e6 05be 0f3c 24be
000001a0: 5478 0b3d b185 9f3d d437 71be d1f8 b8bd
000001b0: b1fa f8bc 74ac 03be 1266 aabc f5e0 28be
000001c0: 4725 05be aede 88bd 2d9f cebc d1de 3cbe
000001d0: 78ba 48be 0695 a2bc 0028 26be d72b 153e
000001e0: 7a3c 6bbe a77b 4ebd 52c3 8f3d 6089 46be
000001f0: dccc 08be ed5d b9be 507a c1bd 901b 91bd
00000200: 5d84 f73d 205d 8f3d d69a 36be 308f 1c3b
00000210: 54f5 56bc 643a 773e 28aa 043d 4f9b 9abe
00000220: a477 06be 84ba 42be c9d5 36be 65ba dcbd
00000230: 8a7d 41be 95ee 36be b9a8 4bbe 91ac dbbd
00000240: a1f6 58be 2a6c 6cbe e5e2 d2bd 0fa3 debd
00000250: eed0 a2bd dc06 81be 364b e9bd ef9b 8fbd
00000260: ee9f 09be 0051 003c 57ab 26bd aeee b83d
00000270: 98c0 ae3c 450e 093e e956 8a3d f4f1 3fbd
00000280: e7b3 813d 0180 8d3c 230f 003e 2156 43be
00000290: 35ea 20be c0e0 67bd 3b65 59be b8c9 b5bd
000002a0: fd38 2abd 89c4 e5bd f16a ffbd e4eb 9cbc
000002b0: 49ce 9bbe 6ab7 f1bd 51c7 88bd e830 053e
000002c0: eca6 0abd 155c 06bd 8385 10be ea12 1fbe
000002d0: c890 edbd f728 c2bc 196d 48be 5965 703e
000002e0: 6b6e 9abd 668a aabc 302f 1c3e 75ef 373e
000002f0: 36bf d9bd 0113 07bc cac3 a1bd e1e9 1f3d
00000300: e7f5 6ebe dccc 41be 1321 3ebe 5804 b53d
00000310: 4efe 52bd 2e6d 58be e833 17be 21c6 463e
00000320: 6b3d 42be ce9a e4bd d85b 32be ea21 99be
00000330: 5c63 e2bd 402a 09bd 76da 5bbe 0098 28be
00000340: b0a6 08be 0389 e2bd 7bee 5abd b908 a4bc
00000350: df0f f4bd 6eac 43be d624 1cbe e424 a5bd
00000360: f969 79be d550 a7be 4ef0 0b3e 387c 52be
00000370: 2a9e 063d 0e2a 81be 523f a53d c6d9 633d
00000380: e02f 45be 733f 6fbd c2d5 c2bd d577 103e
00000390: a0bc 91be b494 27be 2ebb 2cbe ec0b 02bc
000003a0: a633 2dbd 0073 273e f1a8 82be c93d a5bc
000003b0: 373b 0c3d c85d 62be f42d cfbd 67e1 21be
000003c0: d160 903d f225 bfbb cf72 783d 15bd 783d
000003d0: 23cd 3dbe b3df a6bd 0f0d 66be e437 293e
000003e0: ad24 40be 8903 eebd 80f4 5c3e db36 8bbe
000003f0: d34d 65bd 1599 42be 101d bb3d 96f2 64bd
-0.066020586 0.09448676 -0.24454817 -0.16882284 0.06753384 0.17444643 -0.025639117 -0.2754006
-0.17928581 -0.14169054 -0.25240162 -0.31348515 -0.21469319 -0.13092123 -0.29933342 -0.07459064
-0.17712723 -0.29431137 -0.21354397 -0.08129138 -0.17507969 -0.27669775 -0.20768319 -0.1350826
-0.25107574 -0.00696371 -0.016690738 0.09940775 -0.13960908 -0.008964225 -0.05252425 -0.042300858
-0.0671772 -0.021262877 -0.05404205 -0.1263247 -0.16603626 -0.055710915 -0.1641731 -0.030636977
-0.061631847 -0.10783861 -0.19605476 -0.08939107 -0.27188003 -0.10482434 0.064163476 -0.053681076
-0.07393584 -0.12641466 -0.19575398 -0.11357644 -0.22354954 -0.27799773 -0.11642945 0.16868174
-0.20529722 -0.059564136 0.11782344 -0.04275676 -0.18816133 -0.10481606 -0.064364366 -0.10520335
-0.22856605 -0.16554353 -0.1815576 -0.04256104 -0.030278709 -0.1224864 -0.13552512 0.09283609
-0.17703722 -0.15750478 -0.16676989 -0.20581946 -0.14075238 -0.056574386 -0.21274497 -0.24601674
-0.020535206 -0.19889139 -0.23566361 -0.16116355 -0.21490297 -0.1936176 -0.16474879 0.037553873
-0.13099098 -0.3253344 -0.23186372 -0.24017127 0.10721185 -0.120888695 -0.13502914 -0.036416136
-0.19463 -0.079434685 -0.14293855 -0.10202586 -0.251791 -0.17590512 -0.1307636 -0.16038536
0.0340503 0.077891715 -0.23556453 -0.09031833 -0.030392976 -0.12858754 -0.020800624 -0.16492064
-0.13002501 -0.06683098 -0.025222385 -0.18444373 -0.19602382 -0.01984645 -0.16226196 0.14567505
-0.22972289 -0.050410893 0.07019676 -0.19388342 -0.13359398 -0.36204472 -0.094471574 -0.07085335
0.12085793 0.07000184 -0.17832503 0.0023889057 -0.013120014 0.24143368 0.032388836 -0.30196616
-0.13131577 -0.19016463 -0.1785499 -0.107777394 -0.18895546 -0.1786445 -0.19888581 -0.10726274
-0.21187831 -0.23088136 -0.10297183 -0.10870945 -0.079500064 -0.25200546 -0.113912985 -0.07012164
-0.13439915 0.007831812 -0.040690746 0.090298995 0.02133207 0.1338435 0.06754858 -0.046861604
0.06333142 0.017272951 0.12505774 -0.19075824 -0.15714343 -0.056610823 -0.21230023 -0.088763654
-0.041558255 -0.11219127 -0.12471569 -0.01915545 -0.3043082 -0.118025616 -0.066786416 0.13006938
-0.033850595 -0.03280266 -0.1411343 -0.15534559 -0.115998805 -0.023701174 -0.19572867 0.23476161
-0.07540592 -0.020817947 0.15252376 0.1796244 -0.10632174 -0.008244277 -0.07898672 0.039041404
-0.23335992 -0.18925804 -0.18567304 0.08838719 -0.051512055 -0.21135399 -0.14765894 0.19411518
-0.18968742 -0.11162339 -0.17417848 -0.29908687 -0.110541075 -0.03348756 -0.21470055 -0.16464233
-0.13344836 -0.11061289 -0.05345009 -0.02002369 -0.1191709 -0.19108745 -0.15248427 -0.08063677
-0.24356832 -0.32678857 0.13665888 -0.20555198 0.03286568 -0.25227398 0.08068718 0.055627607
-0.19256544 -0.05841012 -0.09513427 0.14108212 -0.28464222 -0.1636532 -0.16868278 -0.007937413
-0.042285584 0.16352463 -0.25519517 -0.020171063 0.03423616 -0.22106087 -0.10116187 -0.1580864
0.07049716 -0.005833381 0.060656365 0.060727198 -0.18535285 -0.08148136 -0.22465919 0.16525227
-0.1876399 -0.11621768 0.21577644 -0.2719029 -0.055982422 -0.19003709 0.091364026 -0.05589541

lstm.weight_hh_l0 f4 [512, 128]
00000000: 7f12 723d 0e6e 02bd 95a7 2d3e eae8 053c
00000010: f7de 8dbc b6f6 4a3d 5e87 27bd 2383 843e
00000020: f85b 703e 4c02 1abe 2e29 e8bb 5cee 363e
00000030: dc20 babd 2c85 81bc 81ca 853e 76d3 18be
00000040: f3a7 3bbe 41ea f03d e937 f6bc d9ec c8bd
00000050: b1ef 633e 0816 053d fef5 87bd 32e8 d8bd
00000060: 0e58 a1bd 61cb fd3d 5aec 2b3e 53ad e0bc
00000070: 2c42 28be a395 c43c 1855 813c 83a6 0a3e
00000080: 1d38 453c d6dc e43c 2f98 583d dc43 58bd
00000090: c23e 253d acbf 16be cebc 9f3d e369 4a3c
000000a0: 680d b5bc 0553 0ebe 1de2 c2bd da45 2fbd
000000b0: 2f75 abbe 60b7 5a3e b335 8cbb b79b 7c3d
000000c0: 5a82 eb3d f4f0 1a3c c48f 1ebe 9d52 613e
000000d0: 1a8d 28bc 60f3 e23c 825f 90be 1abf 103d
000000e0: ff18 46bd 1786 15bc 2843 3a3c 3c2f c3bd
000000f0: 8ffd a9bd 8a80 c43d ae28 053d 15ef 63bc
00000100: d63a 06be 1e85 0f3e 70a3 acbd eeb7 d23d
00000110: 18a4 c43d d904 50bc c185 57bd 9c52 213d
00000120: f12f 513e a2cd b7bc 37f5 b5bd b2ec 10be
00000130: b874 2bbe ac48 6dbe 3ce1 a23d 0125 8a3e
00000140: 9eee 8ebd 2850 99bb 6abb 25be 33c4 35be
00000150: aea8 033e 94f1 093e a090 2dbe 7293 96bd
00000160: bb52 773e ebea 9dbe 3b7f 82bc 1358 9a3e
00000170: 2b75 b6bd f70a b83e e401 3d3c 5122 aebc
00000180: 29a3 8ebd e6da 593e 9b3a bcbd a37c 3fbd
00000190: 1985 853e dc8b c7bd d170 e6bd 6489 27bd
000001a0: 46f7 093e 07d7 01bd 8149 4d3c 86b8 a4bd
000001b0: 6d23 253d f060 6bbe bf3a 073e ea93 453e
000001c0: 3dae b2bd 48d8 3e3e 2895 853d 4ded afbc
000001d0: ef4a 613e 33bc ddbc 0bef 3ebd 6970 a13a
000001e0: 1c2f 5dbe 7750 d5bd ba9b 9b3b 8389 1fbe
000001f0: 1e5e 36be c53d 7cbe 96c8 b93c 9f93 cb3d
00000200: 2009 16bd 5782 243d 72d6 c53d 3342 223d
00000210: d1df cf3c 4877 903b 708d e43d 207c 01bc
00000220: 6fdb bcbc bf2c f2bc 39de d33b d127 98bb
00000230: c26c 34bc cdb2 dd3c a0b8 773d 51dc ad3d
00000240: 6758 c43d fd7b ef3a de4f a4bd 0691 a23c
00000250: 200b 73bd c93f b13c ad32 e53c 5341 aa3d
00000260: cb6f 0ebd b698 593d 1f49 113c 7bae 853d
00000270: 2983 c4bd c9ad 2f3d 4719 28bd 6427 1cba
00000280: 47fb 963d fe23 513d fdf6 90bc 911f 833c
00000290: b737 c53d c9f8 d93c d453 abbd 23c4 c2bc
000002a0: 9143 4dbd f1c7 6f3d 268b 6ebd 37db 733d
000002b0: 4aca cabd f0e7 e33c 4761 2a3c ee4d bbbd
000002c0: 204c 66bd dcbc 203d 8cc6 06bd 0b54 c0b7
000002d0: 2df2 8fbb 01a2 23bd e626 963d aacf b43c
000002e0: 545f 44bd 1c4e 553d c912 253d ddb2 b13c
000002f0: 7881 ee3c 1692 8ebd 3601 3d3d 281b cdbd
00000300: 05db 463d 60af 1a3d 0321 693c b4e0 e1bc
00000310: 3a9c e1bd 03b0 0a3e e821 1e3d 4a40 7fbd
00000320: 2448 2bbd 91c5 503b c70b ad3c 1c95 82bc
00000330: fcb6 623d 331c edbc b4a5 a53d 1d59 043d
00000340: 0e86 fe3c b9fb 48bd bc07 3c3d 1a0b cf3b
00000350: 288b 193d 906c 32ba 1da3 88bd 7d18 84bd
00000360: c7fd 653b 2b07 43bd 3762 6dbb ce60 b53d
00000370: f252 e63c bd2e 963d 1e9e 8bbd ecbc ac3d
00000380: 7536 233d e309 05bd 42c4 bf3d 25e2 f83c
00000390: c2ce c2bc 7ea6 87bd ae97 7d3d 1068 3d3d
000003a0: 576d 08bc 6322 af3d 8f84 c03d 433d 313d
000003b0: 6d36 6a3c 53f6 71bd f7c0 183d 7f63 4b3d
000003c0: ab00 aebd b24f c9bd 8733 ebbd dd19 0ebd
000003d0: 62bf 233d e563 2abd be10 143d 6968 f3bd
000003e0: fd7d c9bd f685 833d ff32 46bd ed3e 5d3d
000003f0: f623 5b3d 1124 c13c ceab adbd 2505 5e3d
0.05909967 -0.031843238 0.16958459 0.008173207 -0.017318232 0.049551688 -0.04090058 0.258813
0.23472583 -0.15039939 -0.007084987 0.17864364 -0.09088299 -0.015810572 0.2613106 -0.14924416
-0.18325786 0.117634304 -0.030055957 -0.098108 0.22259404 0.032491714 -0.06638716 -0.10591163
-0.07878123 0.12392307 0.1678938 -0.027426397 -0.16431493 0.023997134 0.015787646 0.13540082
0.012037304 0.027937334 0.05287951 -0.05279909 0.040343054 -0.14721555 0.077996835 0.012354347
-0.02210112 -0.13898857 -0.09515784 -0.042791225 -0.3348784 0.21359015 -0.0042788624 0.06167194
0.11499472 0.009456862 -0.1548453 0.2200417 -0.0102875475 0.02770394 -0.28197867 0.0353385
-0.048363682 -0.009126208 0.01136855 -0.095304936 -0.083003156 0.095948294 0.0325095 -0.013911982
-0.13108382 0.14015624 -0.08429611 0.10288988 0.09601611 -0.012696468 -0.052617792 0.039385423
0.20428444 -0.02243692 -0.08884662 -0.14152792 -0.16743743 -0.23172253 0.07953116 0.26981357
-0.06979106 -0.004678745 -0.16184774 -0.17750625 0.12857315 0.13471061 -0.16949701 -0.07352342
0.24152653 -0.3084329 -0.015929809 0.3014532 -0.08909067 0.35945866 0.011536095 -0.021256598
-0.06964714 0.2127491 -0.091908656 -0.046749722 0.26078108 -0.09743473 -0.11251987 -0.04090251
0.13473234 -0.031699207 0.012529732 -0.080430076 0.040316988 -0.22986197 0.13206004 0.19294706
-0.087246396 0.18637192 0.0652259 -0.021475459 0.22001241 -0.02706728 -0.046614688 0.0012316826
-0.21600002 -0.10415738 0.0047487887 -0.155798 -0.1780934 -0.24632938 0.022678655 0.09940266
-0.036629796 0.040163364 0.09660043 0.039613914 0.025375279 0.0044087507 0.111597896 -0.007903129
-0.023053853 -0.029562352 0.0064657 -0.0046434184 -0.011012258 0.027062798 0.060478806 0.08489288
0.09587174 0.0018271204 -0.08023046 0.019844543 -0.05933678 0.02163686 0.027978266 0.08313241
-0.034774583 0.053124152 0.008867531 0.0652742 -0.09595329 0.042890344 -0.04103973 -0.00059567974
0.07372146 0.051059715 -0.017695898 0.016006263 0.096297674 0.026607888 -0.08365598 -0.023775166
-0.050113264 0.05854029 -0.05823817 0.05953523 -0.09901865 0.027820557 0.010399169 -0.09145723
-0.056224942 0.03924261 -0.032904193 -2.292732e-05 -0.0043928833 -0.03994942 0.07331638 0.022071678
-0.047942474 0.052076444 0.040301118 0.021691734 0.02911447 -0.069614574 0.046143733 -0.10014945
0.048548717 0.037764907 0.014229062 -0.027572967 -0.11016126 0.13543706 0.038606554 -0.06231717
-0.041816846 0.003185604 0.02112378 -0.015940242 0.05535029 -0.02894411 0.08088246 0.032311548
0.031069782 -0.049068186 0.045905814 0.006318462 0.037486225 -0.0006806338 -0.066717364 -0.06449983
0.003509389 -0.047614258 -0.003622187 0.08856355 0.028115723 0.07333133 -0.06817268 0.084344715
0.039846856 -0.03248013 0.09363605 0.030381272 -0.02378023 -0.06623553 0.06191223 0.04624182
-0.00832685 0.085514806 0.094002835 0.043271314 0.014295203 -0.059072804 0.0372934 0.049655434
-0.08496221 -0.09829654 -0.114844374 -0.034692634 0.03997744 -0.041599173 0.03614878 -0.11885149
-0.098384835 0.064220354 -0.048388477 0.05401509 0.053501092 0.023576768 -0.08480035 0.054204125

lstm.bias_ih_l0 f4 [512]
00000000: a989 96be e60b 3dbe 0e59 41be 905e 5cbe
00000010: 18a8 02be 3426 913d 8ccb 01be 07f1 f1bd
00000020: 8a40 53bd e011 1fbe 825b 41be 5ae9 4bbe
00000030: e44d c4bd 827a 1abe 37c7 91bd c7d4 89be
00000040: 891c 10be 5794 35bd 5f64 8bbe 558a 10be
00000050: 97f7 5dbd 2c61 84be 959e f9bd 2685 c3be
00000060: 4522 14be dcf0 90bd d7fd eabd 4e1f 62bd
00000070: 159e 28be c513 46be 785c 9dbe 370e 8fbe
00000080: 1908 3bbd 029f 60be 9899 9ebd 2b74 52be
00000090: aef4 55be 74cc 47be dc7b 16be 0423 50be
000000a0: 5fd7 6ebe 85cf 0ebe 3935 debe 8833 a2be
000000b0: b637 01be a877 01be 6c56 b8bd ecce 50bd
000000c0: 3154 aebd 44bf 03be 251d 3bbe 6035 82bd
000000d0: befb 58be 22b5 0fbe 0439 efbd 3e98 04be
000000e0: 583e d5be 8649 52be 580e 3c39 6137 33be
000000f0: 59b3 18be 9db5 35be 68a3 0cbe 960f 8fbe
00000100: 9f16 50be cf63 47bd 1324 33bd 79a7 fbbd
00000110: 05c0 93bd c5e1 6ebe 5d2d 36be a692 8dbe
00000120: 12a9 06be eec8 02be fa0e 86bd cb73 44be
00000130: 819c 0fbe 8a17 babd 41f2 08bd 081d 39be
00000140: 19fc 05be 26a4 a4be 38f1 c5bd 37bc a6bd
00000150: 4634 0ebe 13a2 96be fde1 d9bd 5b02 8abd
00000160: e6e4 ebbd 3db6 e3bd 5e5f fbbe 2d02 1bbe
00000170: 7910 5bbe b83e 58be bf9a 9fbe 8c45 05be
00000180: dee1 b2bd be66 01bd fe48 f8bd 44a5 cfbe
00000190: dc10 38bd b37c 05be ffbb 27bd 7c90 c2be
000001a0: e191 0fbe e1fb 36be 732d b6bd 890b 4dbe
000001b0: 1fef 05be 7059 62be 0f5e 10bc 5eda 64bd
000001c0: 0fe6 36be bab9 f9bd a436 e0bd f71d b3be
000001d0: 9800 3bbe 3fe7 39be 8133 bebe 809e 913d
000001e0: 4a73 00be dba8 d4bd ecbf 05be f6a9 a6bd
000001f0: 028d 01bd af05 1cbe 1d6f bd3c 99c4 5dbe
00000200: f79b a3bd 50ce eebd 85a0 67bd cc13 9ebd
00000210: d07e cabd 8ef8 e8bb 3d88 a73b d783 b4bd
00000220: 35ed d3bc 593f 12be 2400 b6bd e49b 3aba
00000230: 5ac4 57bd 53ed 40be b41e 77bd aa2d 24bd
00000240: 17d7 a1bd c45f c1bd f995 81be b9d4 c3bd
00000250: 1470 40be 9f84 27be f976 09be 61aa 8fbc
00000260: 7044 31be e747 73bc bcd7 b8bd 168a 99bc
00000270: 1282 8c3a 24d2 723d 6b34 fdbb 0fea 17be
00000280: e710 8fbd 35bc 24be 13a4 f43c e6a3 85be
00000290: c014 10be bafa 63be 77ff 35be 78c4 1bbe
000002a0: 924f e4bd ecf8 12be cc67 4dbe e3c6 a3bd
000002b0: 0956 7fbd 6742 b1bd bfb9 e2bd e654 c33d
000002c0: aa44 e1bd 4be5 43be 7e6a 0abe f841 3dbe
000002d0: be53 06be 94c2 b7bd 45d1 0ebe c86c 4d3d
000002e0: d08a 08be f093 66bd 1153 063e e292 833d
000002f0: ef97 0cbe 6b3d 19be a201 0cbd e808 a93c
00000300: bc74 20be d790 83bd e2ed 81bd 9b2a fbbd
00000310: e51b a7bc 0423 30be af4a 35be ae3a 8e3d
00000320: fac6 10be 6a46 09be de38 18bd 0c6f 31bd
00000330: 29c2 f4bc 3aa7 223d 8199 babd 384a b1bd
00000340: 3f09 a8bd ef40 83bd f230 86bd 608f b8bd
00000350: 5ca6 22be 5212 71be 26a4 25bd 3428 493d
00000360: b558 04be 8ba1 f5bd 1fd1 c03c b8cc 26be
00000370: d9fe 67bd 937e 26be 43bd c9bd 76b9 f3bd
00000380: 4f64 29be b1d0 2cbe 596e b8bd 49f2 a73c
00000390: b0f3 95bd c945 bcbd f468 36be 9bc4 0fbe
000003a0: 48b6 25be 8d55 d43c e84f 823a 4417 89bd
000003b0: 0659 41bd 18aa 14be fec1 c93a f59d aabd
000003c0: 54cb 89bd 7f6c cebb cd86 ccbd 2915 ba3a
000003d0: 0eb6 53bd 7b16 17be 4e30 8fbe a6cd 243e
000003e0: 0d7d adbc a190 1abe ff9c e23d fe8a aabd
000003f0: 066e d93c a0c5 53be cef2 6f3c 07da 0ebd
-0.294019 -0.1846157 -0.18881628 -0.21520448 -0.12759435 0.07087365 -0.12675303 -0.118135504
-0.05157522 -0.15534163 -0.18882564 -0.19913235 -0.09585169 -0.15085796 -0.07118075 -0.2692015
-0.14073385 -0.04433092 -0.27225015 -0.1411527 -0.0541912 -0.25855386 -0.1218845 -0.38187522
-0.14466198 -0.0707719 -0.11474197 -0.055205636 -0.16466554 -0.19343479 -0.3073461 -0.27940533
-0.04566202 -0.21935657 -0.077441394 -0.20552127 -0.20894119 -0.19511586 -0.14695686 -0.20325857
-0.23324345 -0.1394635 -0.4339998 -0.3167994 -0.12618908 -0.12643301 -0.09000859 -0.050978586
-0.08512152 -0.12865931 -0.18272837 -0.06357837 -0.21189782 -0.1403394 -0.11680797 -0.12948701
-0.41649127 -0.2053586 0.0001793442 -0.17501594 -0.14912166 -0.17745061 -0.1373421 -0.2794158
-0.2032113 -0.04867917 -0.043735575 -0.12287802 -0.07214359 -0.23328312 -0.17790742 -0.27650946
-0.13150433 -0.12771961 -0.06545825 -0.19184797 -0.14024545 -0.09086521 -0.033434156 -0.18077481
-0.13084449 -0.32156485 -0.096651495 -0.08141368 -0.13887128 -0.29420528 -0.10638807 -0.067387305
-0.11518268 -0.111187436 -0.49096197 -0.15137549 -0.21393003 -0.21117675 -0.3117275 -0.13014811
-0.08734487 -0.031592123 -0.12123297 -0.40555775 -0.044937953 -0.1303585 -0.04095077 -0.38000858
-0.14020492 -0.17869522 -0.088953875 -0.20023932 -0.13079499 -0.2210443 -0.008811488 -0.055872314
-0.17861198 -0.12193628 -0.10947922 -0.349838 -0.18261945 -0.1815462 -0.3714867 0.071103096
-0.1254398 -0.10383769 -0.13061494 -0.08137886 -0.031628616 -0.15236543 0.023124272 -0.21657027
-0.07988732 -0.11660445 -0.056549568 -0.0771862 -0.09887469 -0.007109708 0.0051126764 -0.08814209
-0.025869945 -0.14281978 -0.088867456 -0.00071185664 -0.05267749 -0.18840532 -0.060332015 -0.04008261
-0.07902353 -0.09442094 -0.25309733 -0.09562058 -0.18792754 -0.16359185 -0.1342429 -0.017537298
-0.17311263 -0.014848686 -0.09025523 -0.018742602 0.0010719916 0.059282437 -0.007727196 -0.1483538
-0.06985646 -0.1608742 0.029863393 -0.26101607 -0.14070415 -0.22263613 -0.17773233 -0.15211666
-0.11147989 -0.14352769 -0.20059127 -0.07996919 -0.06233791 -0.08655243 -0.110705845 0.095376775
-0.10999425 -0.19130437 -0.13517186 -0.18482196 -0.13117883 -0.0897266 -0.13947017 0.05015257
-0.13334203 -0.056293428 0.13117625 0.064245 -0.13729833 -0.14964835 -0.034181245 0.02063413
-0.1566953 -0.064241104 -0.06344201 -0.12263986 -0.020399043 -0.17200857 -0.17704271 0.06944786
-0.14138404 -0.13405767 -0.037163608 -0.043318793 -0.029877739 0.03971026 -0.0911131 -0.08656734
-0.082048886 -0.064088695 -0.06552304 -0.090117216 -0.15883774 -0.23542145 -0.040439747 0.049110606
-0.12924464 -0.119937025 0.023537217 -0.16289032 -0.056639526 -0.16259222 -0.09850552 -0.11900608
-0.16542171 -0.16876484 -0.09005422 0.020501273 -0.0732187 -0.09192998 -0.17813474 -0.14039843
-0.16182816 0.0259197 0.0009942027 -0.06693891 -0.04720404 -0.1451801 0.0015392897 -0.08330909
-0.06728235 -0.006299555 -0.09986649 0.001419698 -0.051687293 -0.1475467 -0.2796654 0.16094074
-0.021177793 -0.15094234 0.11065101 -0.08327292 0.026541721 -0.20680857 0.0146452915 -0.034875896

lstm.bias_hh_l0 f4 [512]
00000000: 1fd6 91be 14fe edbd ec9e 2bbe c67f 9dbe
00000010: 5d2e 00be 59ad a83d ae48 8dbd c07f 3bbe
00000020: 949d 50be 62b4 26be 150a a0be 0aaa babd
00000030: d123 333c 7703 7cbe e270 f4bd f1b3 46be
00000040: 9284 72bd a5eb ecbd c35a 87be d9fe c4bd
00000050: 031e 57be 8599 51be fa2d 05be 2694 78be
00000060: e070 0dbe 1741 73be b62f 2ebe ac11 b6bc
00000070: b676 0bbe b569 07be c447 87be 2a10 97be
00000080: caab 18be 1753 0abe b869 21be 2b15 43be
00000090: d1da 3dbe 5b0c a9bd ce8c 37be c8bd 36be
000000a0: d94b 32be e2fc 3dbe 31be aabe 89fe 98be
000000b0: f4d1 f7bd 186c c9bc 6bc6 5cbe 1f35 2cbd
000000c0: 6838 38be c2c5 10be 0762 99bd 7f01 37be
000000d0: 9d45 8fbe 5e53 27be 7e47 30bd cb79 84bd
000000e0: 7ce5 cfbe 60ba 83bd f8ac 4b3d dc1a 21be
000000f0: aea4 3ebe d58c aebd e968 b1bd 3d03 78be
00000100: 1199 20be 70c9 41bd 10c1 1abe 0e04 2ebe
00000110: 491d 42be 34f0 65be 98fc 5cbe 35fe 41be
00000120: d596 7bbd 420a d6bd 57bc 3fbe 0d08 69be
00000130: 44fc 51be c069 efbd 2f31 4abd bcd4 1ebe
00000140: 21c0 cfbd 8c97 8cbe 4e56 1fbe ae64 2cbe
00000150: 8678 5cbe cf61 9dbe d6c7 12be 65cd d43a
00000160: 2867 a1bd c217 58be b7eb e5be b232 f1bd
00000170: 55c1 ecbd 17db 85bd 61b8 96be 30fc 08be
00000180: 69d4 bfbd 6898 f1bd 3faf 93bd f729 a1be
00000190: 2a8d 1bbe ded9 07be d1fb 0bbe 6514 adbe
000001a0: ecc6 44be 0519 87be 7c91 b3bd 6f6d 03be
000001b0: 32b6 8ebd 38aa 8ebd 31c4 0c3c 0413 38be
000001c0: 1cf5 7cbd e55a 2bbd 005c 8cbd 59e2 76be
000001d0: 1ef1 ccbd 004e 09be 124d 8abe 9ac4 aebb
000001e0: 6304 44be 82a5 f0bd 2819 20be 562e 81bd
000001f0: 7c1c 82bd 8c02 87be ebe2 92bd 5bd6 c1bd
00000200: b2a1 34bd a60c 93bd 9130 af3b aa13 adbd
00000210: 2a82 e3bd dcfa 833c acf6 10be cd39 6bbd
00000220: 4b91 13bd d23b 0dbe 3d9b b4bd 1895 8bbc
00000230: cd89 89bd da14 fbbd 6758 e53c e548 12be
00000240: a481 c8bd 1dd7 8bbd 7f71 5bbe ba12 00be
00000250: 294b 22bd 4733 22be 2f1d 27be 7e8e 03bd
00000260: fc40 4bbd 077e d73b 4548 febd 7e6b 173d
00000270: f345 00bd 25f5 3ebd e7dd 55bd a3f2 0abe
00000280: 9eeb fdbc c8c9 28bd 80c5 173d 48cf 9dbe
00000290: 3a61 25be cecd 80bd e98b 73bd 4f52 c3bd
000002a0: 5d6f acbc 84fd 07be 69ab 9bbe 8202 96bd
000002b0: e0c0 debd ad36 8dbd a4a7 a8bd 2129 76bc
000002c0: 1400 dcbd b41a 83bd a7a8 46be 59cf 3bbd
000002d0: c563 33be 9ad0 debd d17b fabc 6101 b83c
000002e0: 1667 66be 152e cbbd f7ad 7f3d 711f 593d
000002f0: a943 5fbe 7e98 14be 0cbd 26be b501 4f3d
00000300: 6725 34be 4696 7abd 176b bbbd 919e aebd
00000310: e82b 85bd cfc2 40be 3169 ccbd 2387 92bd
00000320: de62 11be 0ce4 73bc 9f58 f5bd 2dc5 efbd
00000330: 06ba edbc 8f4a b3bd 4eef a9bd df34 29be
00000340: e3a5 11bd 2765 1cbe 6061 53bd ed75 f8bd
00000350: 49f2 bebd 82bb 6cbe e77c 03bd 3f2b fabb
00000360: dd30 11be ef42 bcbd 23f2 9abd ef88 83bd
00000370: a028 98bd d696 2dbd 2377 f3bd 16f7 14be
00000380: 5ac3 b5bd 08f3 2abd a29e 12be 2b5a 353c
00000390: daf4 4cbd ea4f 60bd 9a77 34be 997f d0bd
000003a0: 71a8 cfbd e7b0 563d 0374 aabd 1f39 8fbd
000003b0: ffdc 3b3d e380 37be 0a6a 05be b2b5 d7bd
000003c0: fdf0 953c 227f 2fbd be56 8bbd 4217 923b
000003d0: b7b7 17be b8b2 8ebd a9e0 6ebe 0b37 1e3e
000003e0: 3135 d5bd 0392 41be 68f2 0dbc 59e5 ddbc
000003f0: 4568 703c c732 82bd 3897 e83d 2d71 b4bd
-0.28483674 -0.11620727 -0.16759843 -0.30761546 -0.12517686 0.082361884 -0.06898628 -0.18310452
-0.20372611 -0.16279748 -0.31257692 -0.091144636 0.010933832 -0.24610697 -0.11935593 -0.1940458
-0.05920846 -0.11568383 -0.26436433 -0.09618921 -0.21007542 -0.2046872 -0.1300582 -0.24275264
-0.1381259 -0.23755299 -0.17010388 -0.022225223 -0.13619503 -0.13223918 -0.2642194 -0.2950452
-0.14909282 -0.13508259 -0.15762985 -0.19051044 -0.18540503 -0.0825431 -0.17924806 -0.17845833
-0.17411746 -0.18553498 -0.3334823 -0.29881695 -0.12100592 -0.024587676 -0.21560065 -0.042042848
-0.17990267 -0.14137939 -0.074894 -0.17871664 -0.27982798 -0.16340396 -0.04303693 -0.06468543
-0.4060477 -0.064320326 0.049725503 -0.15732902 -0.18617508 -0.08522955 -0.08662588 -0.24219985
-0.1568339 -0.047311246 -0.1511271 -0.16993734 -0.18956484 -0.22454911 -0.21580732 -0.18944629
-0.06142314 -0.10451175 -0.1872419 -0.22756977 -0.20506388 -0.11690092 -0.04936331 -0.15510839
-0.101440676 -0.2745937 -0.15560266 -0.16835281 -0.21530351 -0.30738685 -0.14334044 0.0016235529
-0.078810036 -0.21102813 -0.449064 -0.117772475 -0.11560313 -0.06535929 -0.29437545 -0.13377452
-0.09366686 -0.11796647 -0.0721116 -0.3147733 -0.15190569 -0.13266703 -0.13670279 -0.33804622
-0.19216508 -0.26386276 -0.08767983 -0.12834714 -0.06968345 -0.069660604 0.008591698 -0.17976004
-0.061757192 -0.04183473 -0.06853485 -0.24109782 -0.10006927 -0.13408661 -0.27011925 -0.0053334953
-0.19142298 -0.11750318 -0.15634596 -0.06307666 -0.06353089 -0.2636913 -0.071721874 -0.09464713
-0.044099517 -0.07180147 0.0053463657 -0.08451016 -0.11108811 0.01611083 -0.14156598 -0.05742817
-0.036027234 -0.13792351 -0.08818672 -0.017038867 -0.067157365 -0.122598365 0.027996255 -0.1428562
-0.09790352 -0.06828139 -0.21430014 -0.12507144 -0.03962246 -0.15839873 -0.16319726 -0.032118313
-0.04962252 0.006576303 -0.12416128 0.036967747 -0.03131671 -0.046620507 -0.052213576 -0.13569121
-0.03099614 -0.04120806 0.037053585 -0.30822206 -0.1615037 -0.06289254 -0.0594596 -0.095371835
-0.021049196 -0.13280302 -0.30404213 -0.07324697 -0.10876632 -0.06895194 -0.082351 -0.015024454
-0.107422024 -0.064015776 -0.19400273 -0.04585204 -0.17518528 -0.10879631 -0.030576618 0.022461595
-0.22500262 -0.09920899 0.062421765 0.0530085 -0.21803154 -0.14511296 -0.16283053 0.050538737
-0.17592393 -0.06117847 -0.09151285 -0.08526338 -0.06502515 -0.18824314 -0.09981001 -0.071546815
-0.14197871 -0.014885914 -0.11979794 -0.1170753 -0.029019367 -0.08754455 -0.08297597 -0.16524075
-0.035558593 -0.15272962 -0.051606536 -0.121318676 -0.09323556 -0.23118404 -0.032101538 -0.00763455
-0.14178796 -0.09192454 -0.07565715 -0.064226024 -0.074296236 -0.042380176 -0.11887958 -0.14547381
-0.08875151 -0.04173568 -0.14318326 0.011068861 -0.050038196 -0.054763712 -0.1762375 -0.10180587
-0.101395495 0.0524148 -0.08322909 -0.06993317 0.045865055 -0.1792026 -0.13028732 -0.105327025
0.018303389 -0.042845853 -0.06803654 0.004458339 -0.14816175 -0.06967682 -0.23327889 0.15450685
-0.10410536 -0.18903355 -0.008663751 -0.0270869 0.014673297 -0.06357341 0.11356968 -0.08810649

lstm.weight_ih_l1 f4 [512, 128]
00000000: a299 073e 5e2d 5dbd 6002 823d fc95 72bd
00000010: d258 e83c 7b1f 293e a68e d13c 2013 0cbc
00000020: cd98 47bd 097d ce3c 52b6 163c d53d 453d
00000030: d147 7fbe 7cd5 1c3e 2813 20bd 022e c03c
00000040: 7064 c2bc 9bfd ab3e da87 1cbc 65ec bf3d
00000050: 9d6e 91bb 0811 8c3c a1f9 c93d 52c3 c13d
00000060: ff35 90bd ee23 ec3b 3f9d b2bc 5a19 133d
00000070: 5d70 793d 7770 0dbc 548a 4a3c 6f7c cd3c
00000080: d592 97bd 3d54 28bd 4ad3 4cbd bfd2 73bd
00000090: 7a39 89bc 775b c53d 6fb1 c9bd 7452 dabc
000000a0: b49c 9f3d 0153 733d ea79 e0bc c8e5 093e
000000b0: ca20 72bc e420 a8bd 8ea7 ad3d 8301 ae3d
000000c0: d2d8 c33c 83df 23bd 4a30 88bd 99fd e23b
000000d0: 14f2 d1bd f3d0 83bd 7fbe 533c 2687 d03d
000000e0: 61b4 883d a4e6 6c3d dc3b 7d3c 808b 423d
000000f0: ef73 fc3c 6d78 c7bd 09ac babd 33b9 b9bd
00000100: d07d 383d f98c b43c 756a 423d 6eaa d9bc
00000110: be2f c2bc 0809 4d3d fbe0 8b3d facf 113e
00000120: 60ef 4f3c c438 c13d 135a 013d 9ba6 b4bc
00000130: 0e96 0f3d 6a29 2f3d fa87 7c3b d905 50bd
00000140: 748a da3d 5041 da3d a0ba 33be ea2a 553d
00000150: 0a54 b2bd ad8c 073e bbdc 8abe bff4 ba3d
00000160: 5b05 d4bd 6c86 4a3c fbe2 183c d961 a6bd
00000170: abc8 bc3d a635 e5bc 5357 be3c 6211 013e
00000180: faad 32bd ddf7 c7bd aa0d ed3c 8ff3 04be
00000190: cb39 0bbd 416c 923d 615f 9b3d 2f6c 63bc
000001a0: 3c2a a6bd dc28 96bd 7a2c 223e 18f6 c13d
000001b0: 6f0b ea3d 0c84 633d 1164 51bd 8803 4b3c
000001c0: 935e 9abd ef0e 22bd dd5a f5bc 1eb5 58be
000001d0: 71e8 f6bd 3047 773d f2ec 1ebc 475e e53d
000001e0: 4e8b 9b3c e7bc b43d 082f 333e cc21 66bd
000001f0: 02ec 633d a8c8 dabc 9a47 143d 7f25 71bd
00000200: 5a84 6abc 9ddd 493c 2a01 b43d 6108 08bd
00000210: b3c4 e0bc c705 7abc 5779 cfbd 81cf 7dbd
00000220: 6382 be3d 320f 0bbe 8b5b 5dbd fd51 e63d
00000230: 0993 4abe 72d8 743d a4b2 0a3e 6731 d2bd
00000240: efce 29bc 46a5 cdbb e551 cd3d 66dd de3c
00000250: 4ab7 9f3d ec69 8b3a f96b 58bb e7f2 40bd
00000260: 4eda e7bb 490b 263c f29a 86bd bbca ed3c
00000270: 7ea9 aabd ab1e 19bd d6b8 b1bc bb48 6cbc
00000280: 0fe7 c3bd bcfc f93d 13dd 33bd 55dd 10bb
00000290: 9aa1 00be 1d53 3c3d fcf0 20bc c2ce 053d
000002a0: bb01 863d 7d30 65bd cdbc d23c 6a0f c73d
000002b0: d866 86bd 8a67 993d 8eb0 013d 7d11 b13d
000002c0: 2d5c 833d 1d84 073e dd50 7dbc 76a5 1cbd
000002d0: abe7 02be 2b2f 833c cac2 7f3c 6ea3 e63c
000002e0: a6cb 1ebb 430f 753d 1638 aebc ac6f f43b
000002f0: 6c80 433e 8436 a53c 8b35 3d3d a0cf ab3d
00000300: 48c6 11be 6447 973d c028 bcbd b270 9fbd
00000310: fbcd 8abd 2bb8 91bd a819 f1bc ab20 c03d
00000320: 8a63 b93d 5920 343d 26fd e2bd a651 28bd
00000330: 97fa 1dbd 7189 50bd 60e1 a0ba a850 d4bc
00000340: 93e6 29be c71b be3c 20e0 75bc d07a d6bc
00000350: 914f 77bc a5d1 3fbd 1b52 35bd 311e ffbc
00000360: 24a8 233d 67de 16be 5e4a 503c a933 053d
00000370: 0f0e 913b b7ec 5d3c b4cc 9a3c e578 b63c
00000380: 0ca8 96bb 123d 2c3d e2ce b6bc 34c9 9f39
00000390: ad6d 023c 5a54 d53d b190 3abc 9a38 03bb
000003a0: ed39 bc3d 001f 31b6 993d 0bbd 16cc fcbc
000003b0: 86cc bc3d 5ea9 67bd a29d 313d 5275 62bc
000003c0: b279 483d 27fe 1fbc 8525 003d 5129 64bd
000003d0: 7636 43bd 758d 003e df6a c23d 1486 dd3d
000003e0: 9040 53bd af05 8b3d f99f f03c a18f 043b
000003f0: 8a72 1e3d 3c08 da3c 9102 26bd bedf 91bd
0.132422 -0.053998344 0.06348109 -0.059225067 0.028362665 0.16515915 0.025580715 -0.008549482
-0.048729707 0.025206106 0.009198742 0.04815467 -0.2492974 0.15315813 -0.03908077 0.023459438
-0.023729533 0.33591923 -0.009553874 0.093712606 -0.004438235 0.017097965 0.09862066 0.094610825
-0.07041549 0.0072064316 -0.021803496 0.03591285 0.060898174 -0.008632771 0.012362082 0.025083749
-0.07401053 -0.04109596 -0.05000619 -0.059527155 -0.01675104 0.09636586 -0.09848296 -0.026650645
0.077935606 0.05940533 -0.027401883 0.13466561 -0.014778325 -0.082093984 0.08479224 0.08496382
0.023907099 -0.04000808 -0.066498354 0.006927204 -0.10251251 -0.06436338 0.012923836 0.101820275
0.066750295 0.057837144 0.015456166 0.04749632 0.030817 -0.09739766 -0.09114844 -0.09068527
0.04504186 0.022039877 0.047464807 -0.026570525 -0.023704406 0.05005744 0.06830021 0.14239493
0.012691349 0.09434655 0.031580042 -0.0220521 0.035055213 0.042764105 0.0038533197 -0.050786827
0.10670939 0.106569886 -0.1755166 0.05204288 -0.087074354 0.13237257 -0.2712153 0.09128713
-0.10352584 0.01236115 0.00933146 -0.08124132 0.09217962 -0.027979683 0.023234999 0.12604287
-0.04362295 -0.09764073 0.02893718 -0.12983535 -0.033990663 0.07149554 0.075865515 -0.013880773
-0.08113524 -0.07332012 0.15837279 0.09470767 0.11427962 0.05554585 -0.05112082 0.012390979
-0.0753757 -0.039565023 -0.029950554 -0.2116284 -0.120560534 0.060370624 -0.009700047 0.111996226
0.018987324 0.08825093 0.1749841 -0.056184575 0.055644996 -0.026707008 0.036201097 -0.05887365
-0.014313782 0.012320903 0.087892845 -0.033211116 -0.027437543 -0.0152601665 -0.101305656 -0.06196547
0.09302213 -0.13580015 -0.05404238 0.11246107 -0.19782652 0.05977673 0.13544708 -0.10263329
-0.010364278 -0.0062758056 0.10025386 0.02720518 0.077986315 0.0010636426 -0.003302334 -0.04710665
-0.0070755845 0.0101345265 -0.06572522 0.029027333 -0.08333109 -0.037382763 -0.021694582 -0.014421637
-0.09565555 0.122064084 -0.043912005 -0.002210458 -0.12561646 0.0459777 -0.00982308 0.032667883
0.06543299 -0.055954445 0.025724793 0.09719737 -0.06562585 0.07490452 0.031662516 0.08645914
0.064140655 0.13233991 -0.015461174 -0.038243733 -0.12783687 0.016013702 0.015610406 0.028154101
-0.002423027 0.059829008 -0.021266978 0.0074596014 0.19091958 0.020167597 0.04619364 0.08389211
-0.14235795 0.073866636 -0.0918746 -0.07785167 -0.06777569 -0.071152054 -0.02943118 0.09381231
0.09052189 0.04397616 -0.110834405 -0.04109349 -0.03856906 -0.050912324 -0.0012274198 -0.025917366
-0.16591863 0.023206605 -0.015007049 -0.026181608 -0.015094654 -0.046830792 -0.044267755 -0.031142326
0.039955273 -0.14733277 0.012713043 0.03251997 0.0044267247 0.013545207 0.018896438 0.022274444
-0.0045976695 0.04205043 -0.022315446 0.0003047675 0.007960719 0.104164794 -0.011387036 -0.002002275
0.09190736 -2.63931e-06 -0.03399429 -0.030859035 0.09218697 -0.056558006 0.04336322 -0.013821917
0.048944183 -0.0097651845 0.03128578 -0.055703465 -0.04765936 0.12553962 0.0949304 0.10816589
-0.051575243 0.067881934 0.029373156 0.002022721 0.03868345 0.026615255 -0.04052979 -0.071227536

lstm.weight_hh_l1 f4 [512, 128]
00000000: a031 003e e034 fbbd 0719 893d b5b2 023d
00000010: ce6f 0e3a c695 3d3c 077b b93c c123 0e3d
00000020: bc29 85bb b42d dd3c 67b3 d0bc ec75 4cbd
00000030: 26ec b33d d4ae 0d3d d639 6bbc 34ff c3bc
00000040: 7cd2 00be f769 cabd 3fe3 8fbd f1bf 98bd
00000050: 34d6 123d 8a7e e13c 06e6 263e 1fc6 843d
00000060: 3e48 853d 72c1 6f3b b7b3 b83d 5c8b bb3c
00000070: ebeb d7bc 285c bbbb f775 b4bd e569 24be
00000080: 90a1 09bd 9932 97bc acfb 9abd 2c87 aebd
00000090: d6e9 a73d 3574 0b3e bccb bc3d 3660 a93c
000000a0: d9aa b039 ea3b a6bd 373b 503c c913 063e
000000b0: 8921 c2bc d10e 683d f9d6 c6bd b8af 02be
000000c0: 5355 4a3d b2e5 2c3d 4b1d 0b3e 773b 3b3c
000000d0: 4866 3b3d 20c0 5cbd 5126 22bd f675 1dbc
000000e0: 9ac1 f2bd 7c84 843c 6eb1 ae3d a0ae f4bc
000000f0: 6f3d 93bd 3f9a 50bd c9aa 1ebc dad2 3dbe
00000100: 73be 98bd 6192 b63d 703d acbd 3b21 e0bd
00000110: bf86 ecbd 4c57 a83d bc49 663d 8a69 18bc
00000120: 347e afbd e936 3b3d 528b 5a3b 2e98 a3bc
00000130: 533b 753b ac8d edbb 1bc2 89bd 5fed cabd
00000140: 19e7 93bc e835 95bc 9872 b73d 8550 943d
00000150: 78e3 403c 2c02 573d 1ecb 9bbd 1dbe 0ebc
00000160: fb57 023e acb0 483c 9aad 6a3c d83b 16bd
00000170: 5d3d a7bd 8354 0abe d4ef d8bd 50cb ddbb
00000180: cd9b 5bb9 64a0 45bd 4d69 61bd 26ff 55bd
00000190: a653 843d 62a4 76bd 2658 563a 250c 55bd
000001a0: ffd3 0fbe 68c6 bebc 10bc 1c3b b716 663d
000001b0: 9713 97bd 0a04 033e 07fa fdbd 0a8f ae3d
000001c0: adae c33d 8c3a cd3c c40c df3d 3639 2c3d
000001d0: d1b7 243d b88f e23d b1e8 e63d 714c a5bd
000001e0: 34c6 d53d d434 ac3d 9e99 e03a d915 b43c
000001f0: cd1d 93bd 45ba 623c 3925 933c 945a d7bc
00000200: 9400 633d d6b7 963d ccc0 a73c 3a5f c5bc
00000210: bb55 15bd 1cfc 583c c1a4 45bd f883 1cbd
00000220: 45f7 ce3d f96f fe3d 7ec4 cf3d 41fe ab3d
00000230: cd98 d2bd d41d a13d 4ae2 893d f69e b63b
00000240: 3df8 983b e636 1ebc 3e04 8e3d 3dd8 1f3d
00000250: 8eb6 5c3c a13e e8bd 625a 27be cc1e cd3d
00000260: e1af f9bb e96c b0bc aa56 803d c705 663d
00000270: 1b8d a6bb d641 f03c c79d de3d 22b6 a13d
00000280: 092a a53b b541 8b3d 899e 1fbd 9269 18bd
00000290: f7b8 92bd 7601 a6bd 07c3 5a3d 664c ccbd
000002a0: 233a 38bd 9705 e4bc 65b5 07bb 306c c63d
000002b0: 5200 ffbc 56be 833b c5e7 823c 642b 17bb
000002c0: e55c febc e0a7 8fbd 9a3f cb3c 0052 dbbd
000002d0: 6f28 c7bd c434 aebc 1f5d 503c e0ed a8bc
000002e0: aefc 643d 0731 febb d59c b63d cdab 50bc
000002f0: f074 ce3d f1ad d5bc 1510 bb3d 83c5 c83d
00000300: 9395 a23c 5cc7 4fbd 3b59 a0bd 57d9 9ebd
00000310: fe60 19b8 30ac 12bd b3e0 8a3d 7ec2 c2bd
00000320: 5b32 e13c 1271 553d c758 fabd 8edd 493c
00000330: 00db 8f3d c197 013e 7cfe 89bc f5d6 96bd
00000340: 5f39 f43c a545 aabc e158 a1bd 4eac 633d
00000350: c90f 20bd 29af 393d 8d62 29bc 0d5a a73d
00000360: 8b44 c83b 9c65 3b3d 2c6a 243c 8f0f 863d
00000370: 8aec 5ebd df5a a4bd 147c ac3c 4e62 acbc
00000380: 06e9 7dbc cea3 52bc 4cd0 403d 5aee b13d
00000390: 4c84 bf3c 80bc 413d 8504 81bd c1cb 70bd
000003a0: e310 30bc 0c16 4c3b 81dc 33bd 3120 18bc
000003b0: 90b4 03bd 5645 50bd 2cb2 3bbc 4cb1 8b3d
000003c0: 2fc3 2a3d d7d6 f33d e017 63bc bbc9 553b
000003d0: 24db e03c 2c76 9cbd cf99 503d e8e3 7abb
000003e0: b421 2d3d 3eb3 87ba c4cd 0d3e 7e96 08bd
000003f0: f739 a43c 7357 9dbd 978e af3d 4eea bc3c
0.1251893 -0.122659445 0.06694227 0.03190871 0.00054335303 0.011571353 0.022641672 0.034702066
-0.004063813 0.026999332 -0.02547617 -0.049917147 0.08785276 0.034590557 -0.014357051 -0.023925401
-0.12580293 -0.098834924 -0.07025766 -0.07458485 0.03584881 0.027526159 0.16298684 0.06483101
0.0650792 0.0036583808 0.09018653 0.0228936 -0.026357612 -0.005717773 -0.088115625 -0.1605602
-0.033601344 -0.018456744 -0.07567534 -0.08521876 0.081988975 0.13618548 0.09218547 0.02067576
0.00033696627 -0.081168965 0.01270943 0.13093485 -0.023697631 0.056654755 -0.097089715 -0.12762344
0.049397778 0.042211242 0.13585393 0.011427752 0.04575184 -0.053894162 -0.039587323 -0.009610644
-0.11853333 0.016176455 0.08529936 -0.029868424 -0.07189452 -0.05092835 -0.009684273 -0.18537465
-0.074582 0.08914638 -0.08410156 -0.10943838 -0.11549138 0.082197756 0.056222662 -0.009302506
-0.08568993 0.045706663 0.0033347202 -0.019970026 0.0037419393 -0.0072495546 -0.06726476 -0.09908556
-0.018054532 -0.018214181 0.08957404 0.072419204 0.011772983 0.052492306 -0.07607101 -0.008712319
0.12728874 0.012249153 0.014323616 -0.036678165 -0.08166001 -0.13508801 -0.105926186 -0.0067686215
-0.00020943508 -0.048248664 -0.055032063 -0.05224528 0.06461267 -0.06021536 0.0008176587 -0.052013535
-0.14045714 -0.023287967 0.0023915805 0.056174006 -0.07376783 0.1279451 -0.124012046 0.08523376
0.09554801 0.025052331 0.10891107 0.042046748 0.040214363 0.110625684 0.11274851 -0.08071221
0.10438195 0.08408514 0.0017135625 0.021983074 -0.071834184 0.013838355 0.017962085 -0.026288308
0.055420473 0.07359283 0.020477675 -0.02409326 -0.036458712 0.013243701 -0.048252825 -0.038211793
0.10105757 0.12423701 0.101449 0.083981045 -0.10283051 0.078670174 0.06732614 0.005573149
0.004668264 -0.0096566435 0.06934403 0.03902458 0.013471259 -0.113400705 -0.16343072 0.1001564
-0.0076198434 -0.021536307 0.0626653 0.056157853 -0.005082739 0.029328268 0.108699374 0.07896067
0.0050404114 0.06799642 -0.03896955 -0.037210055 -0.071641855 -0.081057474 0.05340865 -0.09975509
-0.04497732 -0.027834697 -0.0020707485 0.09688604 -0.031128082 0.0040204925 0.015979657 -0.0023066634
-0.031050155 -0.070144415 0.024810601 -0.10709 -0.09724509 -0.021265395 0.012717514 -0.02062124
0.055905037 -0.0077573094 0.08916632 -0.012736273 0.10080898 -0.026083918 0.09133927 0.09803297
0.019846713 -0.050727233 -0.07829519 -0.07756298 -3.6568374e-05 -0.035808742 0.06781139 -0.09509753
0.027489832 0.052109785 -0.12223964 0.012320889 0.07024193 0.12655546 -0.01684498 -0.073652185
0.029812513 -0.020785162 -0.078782804 0.055584244 -0.039077554 0.04533306 -0.010338438 0.08171473
0.0061116866 0.0457512 0.010035079 0.06545936 -0.0544248 -0.08025145 0.021055259 -0.02104297
-0.015497452 -0.012856437 0.047073647 0.0868804 0.023378514 0.04729891 -0.0629969 -0.058788065
-0.010746214 0.003114107 -0.04391146 -0.009285019 -0.03215462 -0.050847374 -0.011456054 0.06820926
0.041690048 0.11906212 -0.013860673 0.0032621461 0.027448244 -0.07639727 0.050927933 -0.0038282815
0.04226847 -0.0010353101 0.13848025 -0.033346646 0.020047171 -0.07682695 0.08572119 0.023060944

lstm.bias_ih_l1 f4 [512]
00000000: d3a7 95be 2c79 febd 4699 1abe c84c debd
00000010: 3c29 5dbe b91a 85be 5573 88be 80b6 a8be
00000020: 5e6c 40be f3c9 edbd 4c38 6cbe ba36 43bd
00000030: e8db 97be e825 91be 59a2 62be 8d8c a8be
00000040: 42f9 14be c925 1bbe 779c abbd b82e f3be
00000050: 5e92 6bbe 1055 8bbe f1c1 aabe 6a7e 90be
00000060: b291 44be 9da7 bfbe 0809 adbe 78a1 2dbe
00000070: 1cfc 83be 68c8 3bbe 647f b8be 94ef 47be
00000080: d561 c9bd eb1d 5abe b318 49be 71bd debd
00000090: 5d21 80be 3738 2bbe dffe 50be 5d43 97be
000000a0: 59d8 ecbd c034 4dbd 41ea edbd 93a2 95be
000000b0: 7c84 9fbe 8f9c 95be ab98 33be d373 0bbe
000000c0: 15cb 96bd 0a7e 4fbe ab41 0dbe 726f 84be
000000d0: fff3 63bd 6726 e6be c1a7 95be 0c70 87be
000000e0: fb46 79bd 64c4 75be 2e1f 9fbe 9957 69be
000000f0: 3bbd 18be 2cbb 9abe cbf1 53be 59a8 58be
00000100: 7aea f3be 7f00 6abe c0a9 5cbe 3121 4fbe
00000110: b9ff 5dbe afcd 8ebd ccd8 a1be 06f0 e1be
00000120: 96fa a1bd 709d 75be 9009 d8be 943d 25be
00000130: 2607 8abe c753 54be 9f2c 99be cab8 dbbe
00000140: 5561 f6bd 333b 45bd 23e6 b0be f16b 65be
00000150: 1975 bfbd da90 7fbe 813a 77be 0b7e 92be
00000160: f085 6ebe fb2d a0bd d0e7 2dbe fcbb 15be
00000170: 6e8e 24be 39c6 b1be a0a6 85be adc3 42be
00000180: c187 26bd 31b9 85be 5b21 5abe 9939 8fbe
00000190: 2997 40be 93e8 39be 9536 72be 81a7 bdbe
000001a0: 351e 11be 25e5 4fbe 7598 b0be d36c 9abe
000001b0: 2259 03be f128 5bbe 15d6 e9bd 3963 a3be
000001c0: fa02 5bbe 09e5 9abd 8df7 1bbe 3674 e3be
000001d0: 6e05 adbe 9462 02be bd04 9ebe f0a0 0fbe
000001e0: e444 21be 420d 8dbe a2ff 97be 9dfe 2cbe
000001f0: 904d d0bd 9601 0abe 302f acbe 2975 83be
00000200: d125 37be 304b 55be 14e5 26be 1312 2fbe
00000210: a578 27be 1f6a 67be 3c31 8fbd 38c5 64be
00000220: c935 30be dde6 1cbe dc64 48be 9987 1dbe
00000230: 7580 64be 64ac 7fbd 4807 e9bd 625c 82bd
00000240: fe46 a9bd 2a95 4dbd bde2 0dbe f937 81be
00000250: 292b 72be 74b7 c1bd de48 82be 571d 2dbe
00000260: e366 ecbc 015e 10be 2f93 28be 14ab 44bd
00000270: 7c3e b8bd 61e8 17be a050 0bbe 10ed 5dbd
00000280: 30c7 c2bd f019 28be 839c 17be f8c0 3ebd
00000290: dcc0 1dbe e86c 38be 9bb9 6ebe f892 7dbe
000002a0: 39ca 27be bd3f fcbd 0f43 25be 83fb bfbc
000002b0: 4475 23be 51f6 4fbe ca6d a0bc 927d 32be
000002c0: b59e b0bd 43e3 04be a167 65bd 28e4 52be
000002d0: f4ca 26be e768 30be 6c98 5bbd 6ec6 88bd
000002e0: e7aa fdbc f86c adbd 1735 edbd 25fb 1fbe
000002f0: b899 36be 71e0 50be 96b0 2abe 2503 77bd
00000300: a819 42be 6dcf a3bd 75ab 7ebd a364 35be
00000310: c856 87bd b8f9 1ebd 357e 5bbd 8ace 8abe
00000320: 6177 dfbd 1dbf 45be f602 94be b67c 2dbe
00000330: 8167 39be d964 1bbe 6bd8 ebbd 23d5 33be
00000340: 93c2 61bd b50b 09be 05d9 00be 36d4 37be
00000350: be41 bdbd d0df 4ebd 8599 97bd 5600 3dbe
00000360: 5093 09be cb8a 12be c929 6dbd 2bfd 37be
00000370: d364 11be d462 52be 7eab 11be c2ac 1ebe
00000380: 0201 0bbd ab33 1abe 093c 3fbe 150c 0cbe
00000390: 7b9f 86bc c8fa 2dbd eae1 23be 5a90 58be
000003a0: fcc4 e8bd 94b9 52be 9f92 c6bd 8881 4fbe
000003b0: eedf 93bc 0433 3bbd 3987 83bd 88db 80be
000003c0: 8371 39be 516a a2bd 410a 2bbe bb49 10be
000003d0: 768f 20be 26dc d5bd d313 0abe 380a 04bd
000003e0: b31e 24be 4ce7 35be 9358 22be 9043 ccbc
000003f0: 7a93 b6bb 19b2 88bd 7a20 70be aeb9 8dbd
-0.29229602 -0.124254555 -0.15097532 -0.108544886 -0.21597761 -0.2599695 -0.2665049 -0.32951736
-0.18791339 -0.116107844 -0.2306835 -0.047659613 -0.29659963 -0.28349233 -0.22132243 -0.32919732
-0.1454821 -0.15151133 -0.08379453 -0.4749658 -0.23005053 -0.27213335 -0.3335109 -0.28221446
-0.19196203 -0.37432566 -0.33795953 -0.16956127 -0.25778282 -0.18338168 -0.3603469 -0.19524986
-0.09833113 -0.21300475 -0.19638328 -0.10875977 -0.25025454 -0.16720663 -0.20409726 -0.29543582
-0.115647025 -0.050099134 -0.11616946 -0.29225597 -0.31155765 -0.29221007 -0.17538707 -0.13618402
-0.073629536 -0.20262924 -0.13794582 -0.25866276 -0.055652615 -0.44951174 -0.2922955 -0.26452672
-0.060858708 -0.24000698 -0.31078476 -0.22787322 -0.14915936 -0.30220926 -0.20697705 -0.2115797
-0.4763983 -0.22851752 -0.2154913 -0.20227505 -0.21679582 -0.06972825 -0.31610715 -0.44128436
-0.079091236 -0.23985839 -0.42194796 -0.16136771 -0.2695858 -0.20735084 -0.29916856 -0.4291442
-0.12030283 -0.04815216 -0.3455058 -0.22404458 -0.093485065 -0.249576 -0.24143411 -0.28611788
-0.2329328 -0.0782127 -0.1698296 -0.14622492 -0.16069958 -0.34721544 -0.26103687 -0.19019957
-0.04065681 -0.26117852 -0.21301787 -0.2797363 -0.18807663 -0.18155126 -0.23653634 -0.37041858
-0.1417168 -0.20302255 -0.34491315 -0.3016115 -0.1282697 -0.21402337 -0.11417786 -0.31911638
-0.21387854 -0.07563216 -0.15231152 -0.444246 -0.33793205 -0.12732917 -0.3086299 -0.14026237
-0.15748936 -0.27549177 -0.2968722 -0.16894002 -0.10171044 -0.13477167 -0.3362975 -0.25675324
-0.1788552 -0.20829463 -0.16298324 -0.17096739 -0.16354616 -0.22599076 -0.069918126 -0.22340858
-0.17208017 -0.15322442 -0.19569725 -0.15383758 -0.22314627 -0.062420264 -0.11378342 -0.06365277
-0.08265494 -0.050191082 -0.13856025 -0.25238016 -0.23649277 -0.09458819 -0.25446218 -0.16905724
-0.028857654 -0.1409836 -0.16462396 -0.048014715 -0.08996293 -0.1483474 -0.13604975 -0.05418116
-0.09510648 -0.16416144 -0.14805798 -0.046570748 -0.15405601 -0.18010294 -0.2331299 -0.24763095
-0.16385736 -0.123168446 -0.16138862 -0.02343536 -0.15962702 -0.20308806 -0.019583602 -0.17430714
-0.08624021 -0.12977318 -0.05600703 -0.20594847 -0.16288358 -0.17227517 -0.053612158 -0.066784725
-0.030965282 -0.0846805 -0.11582392 -0.15623148 -0.17832077 -0.20398118 -0.16668925 -0.060305733
-0.189551 -0.07998548 -0.062175233 -0.17714171 -0.06608349 -0.03881237 -0.053587157 -0.27110702
-0.109114416 -0.19311185 -0.2890851 -0.16942105 -0.1810589 -0.15175189 -0.11515888 -0.17561774
-0.0551172 -0.13383372 -0.12582786 -0.17952046 -0.09241055 -0.050506413 -0.074023284 -0.1845716
-0.13435102 -0.14310758 -0.057901178 -0.1796767 -0.14198618 -0.20545512 -0.14225575 -0.1549559
-0.033936508 -0.15058772 -0.18675245 -0.13676484 -0.016433468 -0.04247549 -0.16004148 -0.21148816
-0.11365697 -0.20578605 -0.096959345 -0.20264256 -0.018051114 -0.04570295 -0.06422276 -0.2516749
-0.18109708 -0.079304345 -0.1670313 -0.14090626 -0.15679726 -0.104423806 -0.13484125 -0.032236308
-0.16027336 -0.17764014 -0.15854101 -0.02493456 -0.00557178 -0.066745944 -0.23449889 -0.06920181
