model_window2.pt (torch_old, 864997 bytes, 11 tensors)

lstm.weight_ih_l0 f4 [512, 1]
0	0x3db9dbfb	0.09075161
1	0xbe05113d	-0.12994857
2	0xbdc236a4	-0.09483078
3	0x3da4915d	0.08035538
4	0xbdde41bf	-0.10852384
5	0x3d318f70	0.043349683
6	0xbd8a3a8d	-0.06749449
7	0x3db186ab	0.08668264
8	0xbc891819	-0.016735123
9	0xbdd9f6e5	-0.106427945
10	0xbd158632	-0.03650493
11	0xbd956c7c	-0.072960824
12	0xbda9e56a	-0.082957104
13	0xbda414da	-0.080117896
14	0xbd33b02f	-0.043869194
15	0xbe05d7d3	-0.13070612
16	0xbdd0fa51	-0.10203994
17	0xba64907c	-0.00087190396
18	0x3d33e55d	0.04391991
19	0x3c7e5707	0.015523679
20	0xbd131508	-0.03590873
21	0x3c5dfa10	0.013548389
22	0x3cfba0a7	0.030716253
23	0xbdac02a5	-0.08398942
24	0xbda3a43e	-0.07990311
25	0x3cda5ac5	0.02665461
26	0xbd974f69	-0.07388193
27	0x3cd9bc10	0.026578933
28	0xbd946f0c	-0.07247743
29	0xbdcacf72	-0.09902848
30	0x3cc8bb6d	0.024503434
31	0x3da1cfbb	0.079009496
32	0xbcf3b5c9	-0.029749768
33	0x3c34bb69	0.01103101
34	0xbdd25f62	-0.10272099
35	0xbe6d9ed5	-0.23205121
36	0x3d62a58b	0.055333655
37	0xb98034d3	-0.0002445342
38	0x3d37b27b	0.044847947
39	0xbdaefa23	-0.085438035
40	0xbd1b6abd	-0.03794359
41	0xbb734b39	-0.0037123694
42	0x3d84a908	0.06477553
43	0xbd8eaac8	-0.06966168
44	0x3c215c3d	0.0098486515
45	0x3bf69155	0.007524649
46	0xbd06e808	-0.032936126
47	0x3d0561a9	0.03256384
48	0xbd5616d0	-0.05226785
49	0x3d22768a	0.03966383
50	0xbd9ea4a7	-0.07746249
51	0xbd82899b	-0.063739024
52	0xbe3f6ab9	-0.18693055
53	0xbc1fb562	-0.009747835
54	0x3c904ed1	0.017615708
55	0xbd26c54d	-0.040715504
56	0xbb276cb5	-0.0025546972
57	0xbd37f776	-0.04491373
58	0x3c3bf63f	0.011472284
59	0xbdab5712	-0.08366217
60	0x3c9a273e	0.01881754
61	0xbebc8a19	-0.3682411
62	0xbe717af7	-0.23582064
63	0x3dab517b	0.083651505
64	0xbce33e35	-0.027739624
65	0xbde0e76a	-0.10981639
66	0xbd92d652	-0.071697846
67	0xbe0290cb	-0.12750547
68	0xbe08bfec	-0.13354462
69	0x3c8d451b	0.017244866
70	0xbce05bfe	-0.027387615
71	0xbe14bcad	-0.14525099
72	0xbe05198d	-0.12998028
73	0xbd1c9691	-0.03822953
74	0xbd94a67b	-0.07258316
75	0xbba745e0	-0.0051047653
76	0xbda43cd3	-0.08019414
77	0x3c7e623e	0.015526352
78	0x3d5e294b	0.0542386
79	0xbd07181d	-0.03298198
80	0x3dd2e86c	0.10298237
81	0xbd300b9c	-0.04297982
82	0xbc51d3bd	-0.01280683
83	0xbd94a1c4	-0.07257417
84	0xbca50f8f	-0.02014902
85	0xbda68f54	-0.081328064
86	0xbbde1053	-0.0067768483
87	0x3c50dbcb	0.012747715
88	0xbd9b3501	-0.07578469
89	0xbe213641	-0.15743352
90	0xbd6025df	-0.054723617
91	0x3d98b2a0	0.07455945
92	0xbdb9d70a	-0.090742186
93	0xbd7b037c	-0.06128262
94	0x3dc53da4	0.09630898
95	0xbe0fe895	-0.14053567
96	0x3c955b7c	0.0182321
97	0xbda89fd1	-0.082336076
98	0xbd8789e1	-0.06618095
99	0xbd463254	-0.04838784
100	0xbdfbbd71	-0.122919925
101	0xbc48f648	-0.012265749
102	0x3cd64c34	0.026159383
103	0xbde85cf5	-0.11345855
104	0xbcb2ca83	-0.02182508
105	0xbe16e63c	-0.14736265
106	0x3dcee1f2	0.101016894
107	0x3d6d5e37	0.05795118
108	0xbdb08a01	-0.08620072
109	0xbdb0ebcb	-0.08638724
110	0xbdc5e21f	-0.0966227
111	0xbd98a3a0	-0.07453084
112	0xbda22eec	-0.07919106
113	0x3c05d8d2	0.00816937
114	0x3b78a9f6	0.0037943101
115	0x3d446e83	0.047956955
116	0xbb55957c	-0.003259032
117	0x3d7a0425	0.06103911
118	0xbd1e2ccb	-0.038616937
119	0x3cd4ef88	0.025993124
120	0xbdcf9070	-0.10134971
121	0xbde6b9fb	-0.11265942
122	0xbde27d66	-0.11059074
123	0x3d85989a	0.06523247
124	0xbc56a1bd	-0.013100085
125	0x3d0b2c67	0.033977892
126	0xbd50c88e	-0.050972514
127	0xbddabb1b	-0.10680219
128	0xb7e78d76	-2.7603219e-05
129	0xbd7298f1	-0.059227888
130	0x3b1284ca	0.002235698
131	0xbd48f403	-0.049060833
132	0xbcc375fe	-0.023859974
133	0xbd2ab0e6	-0.04167261
134	0xbd291ad8	-0.041285366
135	0xbd51471b	-0.051093202
136	0xbdd9b5ac	-0.10630354
137	0x3c8edee7	0.017440272
138	0x3d07b3d6	0.03313049
139	0xbdcdfeb7	-0.100583486
140	0xbd6fd7d1	-0.058555428
141	0xbdb83364	-0.08994177
142	0x3d5b7d63	0.053586375
143	0xbe1ff6e7	-0.1562153
144	0xbd8c3386	-0.06845765
145	0x3d34b300	0.04411602
146	0x3e085f75	0.13317664
147	0x3da2ec2b	0.07955202
148	0x3cc0dc2c	0.023542486
149	0x3df7ec8e	0.12105666
150	0xbdc801a8	-0.09765941
151	0xbd37b752	-0.044852562
152	0xbdf2f3f2	-0.11862935
153	0xbcf64fbe	-0.03006732
154	0xbc413c6f	-0.011794194
155	0xbc91a800	-0.017780304
156	0x3da5a8bd	0.08088825
157	0xbd0275c5	-0.031850595
158	0xbd5d7824	-0.054069653
159	0xbca6a425	-0.020341942
160	0x3cb28228	0.021790579
161	0x3dc6a3ad	0.096991874
162	0xbe32dacc	-0.17466277
163	0xbda3a032	-0.07989539
164	0x3cc5db23	0.024152344
165	0xbde29306	-0.11063199
166	0x3d48e9f2	0.049051233
167	0xbcbb4081	-0.022857906
168	0xbe10ed4e	-0.14153025
169	0xbc72e1a2	-0.014824303
170	0x3d07003e	0.032959215
171	0xbdd942af	-0.10608422
172	0xbd860dbe	-0.0654559
173	0xbc20113e	-0.009769736
174	0xbe0b36c5	-0.13595112
175	0x3d9ebcfa	0.07750888
176	0xbd896c45	-0.06710104
177	0x3d951436	0.072792456
178	0xbcb40913	-0.021976983
179	0xbde02e02	-0.10946275
180	0xbe7d569f	-0.24740075
181	0xbd948115	-0.07251183
182	0x3d9e1109	0.07718093
183	0x3d552aee	0.052042894
184	0x3dc22339	0.094793744
185	0xbe18199a	-0.14853516
186	0xbd7782af	-0.060427364
187	0xbdd2051a	-0.10254879
188	0x3dd477f2	0.1037444
189	0xbed9c5e7	-0.425338
190	0xbe6de3ac	-0.23231381
191	0x3db1c7f6	0.08680718
192	0xbcdb7b96	-0.026792329
193	0xbd2155e5	-0.039388556
194	0xbdf48e36	-0.11941187
195	0xbdc65986	-0.09685044
196	0xbd6f0bf5	-0.058361012
197	0x3d5ab5b6	0.05339595
198	0x3bfe38ea	0.0077582495
199	0xbdc1bd3c	-0.09459922
200	0xbe18ed54	-0.14934283
201	0xbd1fc5ef	-0.039007124
202	0xba9ef34e	-0.0012126954
203	0xbd53d21c	-0.051714048
204	0xbdc235d8	-0.09482926
205	0x3da25122	0.07925631
206	0x3dc7a31a	0.09747906
207	0xbd2d7145	-0.04234435
208	0xbcdcf709	-0.026973264
209	0x3d036cb2	0.03208608
210	0x3ba67b0d	0.0050805868
211	0xbd42a82c	-0.047523662
212	0xbd9e7be6	-0.077384755
213	0xbdbad536	-0.09122698
214	0x3cce6856	0.025196236
215	0x3c085f27	0.008323467
216	0xbdc0c143	-0.09411862
217	0xbe2cb898	-0.16867292
218	0xbd34644d	-0.044040967
219	0x3cd306cb	0.025760075
220	0xbc47e69e	-0.0122009795
221	0xbe59c178	-0.21265209
222	0x3d062a57	0.032755222
223	0xbdaf0e20	-0.08547616
224	0xbdb958e8	-0.09050161
225	0xbdd2417a	-0.10266395
226	0xbd706aa9	-0.05869547
227	0xbd156e25	-0.036481995
228	0xbe481bb4	-0.19541818
229	0xbde1524c	-0.11002025
230	0x3d39f755	0.04540189
231	0xbdd26385	-0.10272888
232	0xbdc113de	-0.094276175
233	0xbdc05d66	-0.09392814
234	0x3e17ed05	0.1483651
235	0xbdab8f33	-0.083769225
236	0x39b5f6f3	0.00034707002
237	0xbdc47b1f	-0.09593796
238	0xbde0c171	-0.10974396
239	0xbd945e16	-0.07244508
240	0xbe09d37d	-0.13459583
241	0xbdf9b4b2	-0.12192668
242	0xbdc17474	-0.0944604
243	0x3c93b879	0.0180323
244	0x3cb811d3	0.022469437
245	0x3c8cb666	0.017176818
246	0x3c524a5b	0.012835111
247	0x3cdd3652	0.027003441
248	0xbcb4909a	-0.022041608
249	0xbded31bb	-0.11581751
250	0xbc179437	-0.009251646
251	0xbd2a1670	-0.041525304
252	0x3dc71252	0.09720291
253	0xbdd8117f	-0.10550212
254	0xbdb31c8d	-0.0874568
255	0xbaf5375c	-0.0018708515

lstm.weight_hh_l0 f4 [512, 128]
0	0x3d08715d	0.033311237
1	0x3da9c87a	0.08290191
2	0xbd31c755	-0.04340299
3	0xbe04f0e4	-0.12982517
4	0x3e06fbf1	0.13182046
5	0x3d6de1b9	0.058076594
6	0xbd5893c8	-0.05287531
7	0x3db19b49	0.086721964
8	0xbad5b9e8	-0.0016306015
9	0xbc0e37dc	-0.00868031
10	0x3d6ca8be	0.057778113
11	0xbd340c4a	-0.043957032
12	0x3d9a25d9	0.0752675
13	0x3c663a67	0.01405201
14	0x3da677fc	0.08128354
15	0xbba34de8	-0.0049836524
16	0x3da37282	0.07980825
17	0xbcd714c6	-0.026255023
18	0x3db68b89	0.08913333
19	0xbc91020e	-0.017701175
20	0xbc9c70d1	-0.019096764
21	0xbd86d878	-0.06584257
22	0x3d06e4d5	0.032933075
23	0x3cdd4939	0.027012454
24	0xbe1c9d7e	-0.15294454
25	0xbcac33cd	-0.021020794
26	0xbd07780f	-0.03307348
27	0x3dc1e731	0.094679244
28	0xbda93f50	-0.08264029
29	0x3d813560	0.063090086
30	0x3d2fcad8	0.042918056
31	0xbd8ff7d3	-0.070296906
32	0xbd43afa5	-0.04777493
33	0x3d98d763	0.07462957
34	0xbd8c698e	-0.068560705
35	0xbe0a6106	-0.13513574
36	0xbdbcdab2	-0.092214
37	0x3dbc2ad5	0.09187857
38	0xbd9c275d	-0.076246955
39	0xbb6b276a	-0.0035881647
40	0xbc93f345	-0.018060336
41	0x3d647c81	0.0557828
42	0x3d1778d3	0.03698046
43	0x3d4cc34f	0.04999095
44	0x3d6274c2	0.05528713
45	0xbbb80a55	-0.005616466
46	0xbd271fb9	-0.040801737
47	0xbbbb6d93	-0.0057198494
48	0xbcf74638	-0.03018485
49	0xbdcea226	-0.10089521
50	0x3e28adf1	0.16472603
51	0xbd686fdf	-0.056747314
52	0x3dd1c166	0.10241966
53	0xbce7b792	-0.028285775
54	0x3c8ed5a4	0.017435856
55	0xbd176281	-0.036959175
56	0xbdcaa142	-0.09894039
57	0x3dc2f16e	0.09518705
58	0xbe051db0	-0.12999606
59	0x3c5f15c6	0.013616031
60	0x3cc5d1b7	0.024147851
61	0x3e143977	0.14475046
62	0x3e079407	0.13240062
63	0x3da87d25	0.082269944
64	0x3ccc53b3	0.024942255
65	0x3de4fc4e	0.11180936
66	0xbd0bf4e1	-0.03416908
67	0x3d4fca53	0.05073006
68	0xbe3ab6b5	-0.1823376
69	0x3d8d91fc	0.0691261
70	0x3dca155a	0.09867354
71	0x3da7895d	0.08180497
72	0x3e20d251	0.1570523
73	0x3e0f7f3f	0.14013384
74	0x3d75a29d	0.059969533
75	0xbd89960a	-0.06718071
76	0xbd641e54	-0.055692986
77	0x3e328c20	0.17436266
78	0xbc910192	-0.017700944
79	0xbdbbe2aa	-0.09174092
80	0xbde65f60	-0.1124866
81	0x3d028473	0.031864595
82	0x3dfdabf5	0.12386314
83	0x3b5f803c	0.0034103533
84	0x3cf5bcd9	0.029997276
85	0xbd10d70b	-0.03536133
86	0x3db22d62	0.08700062
87	0xb933d354	-0.00017149496
88	0x3df10c3d	0.117699124
89	0x3cd4e72a	0.025989134
90	0xbce626b4	-0.028094627
91	0x3d28dc48	0.0412257
92	0x3db267b6	0.087111875
93	0x3d54e3cf	0.051975068
94	0x3da5342d	0.08066592
95	0x3d7d4784	0.06183578
96	0xbdb4b9ea	-0.08824523
97	0xbd44ead7	-0.048075523
98	0x3d0dc2fc	0.03460978
99	0x3da3d942	0.08000423
100	0xbd0044ab	-0.031315487
101	0x3d12d70b	0.035849612
102	0x3d373e3a	0.04473708
103	0x3b008559	0.0019610731
104	0x3bdb940b	0.0067009977
105	0xbdd35383	-0.10318663
106	0xbd1bfbb7	-0.03808185
107	0xbd12107d	-0.035660256
108	0x3d53fd20	0.05175507
109	0x3b148088	0.0022659618
110	0x3db43dc2	0.08800842
111	0xbd9acbe3	-0.075584196
112	0x3d963f09	0.07336242
113	0x3cf5277f	0.02992606
114	0x3d5d6ef4	0.05406089
115	0x3db56a03	0.08858111
116	0xbd1b6ae9	-0.037943754
117	0xbacdbb43	-0.0015696067
118	0x3db29d2e	0.08721386
119	0xbd941cfc	-0.07232091
120	0x3e155481	0.14583017
121	0x3dd363d7	0.10321777
122	0xbdbc3bf2	-0.09191121
123	0xbd1db310	-0.038500845
124	0x3d7b14cf	0.06129914
125	0xbd8a3c5c	-0.06749794
126	0x3ab07b4c	0.001346448
127	0xbcb53d16	-0.022123855
128	0x3c43b07a	0.011943931
129	0x3ba9ec07	0.0051856074
130	0x3c3d29bf	0.011545598
131	0x3da670c4	0.08126977
132	0xbd44e9ae	-0.048074417
133	0xbdcbb307	-0.09946256
134	0x3d717fe8	0.05895987
135	0xbbeac98f	-0.007165141
136	0xbd34f8ea	-0.044182695
137	0x3e13f482	0.14448741
138	0xbd414363	-0.047183406
139	0x3cde004e	0.027099755
140	0xbb8276f1	-0.003981464
141	0xbce0cd2e	-0.027441587
142	0xbd2540ba	-0.04034493
143	0x3e23dc59	0.16002025
144	0xbd885e98	-0.06658667
145	0x3cbf82bf	0.023377774
146	0xbc895e8b	-0.016768714
147	0x3de6927d	0.11258409
148	0xbd672665	-0.0564331
149	0x3daa4733	0.083143614
150	0xbd6d005e	-0.05786168
151	0xbde91192	-0.113803044
152	0x3c1e0cad	0.009646577
153	0xbd18c932	-0.03730125
154	0x3d849086	0.06472878
155	0x3a058324	0.0005093089
156	0x3df99671	0.121868975
157	0xbd712d5f	-0.05888116
158	0x3dbb2f98	0.09139937
159	0x3d4c3596	0.04985579
160	0xbd3aff8e	-0.045653872
161	0xbd4ed492	-0.05049569
162	0xbc059ab2	-0.008154558
163	0x3dab2c2e	0.08358036
164	0x3e2cfe84	0.16893965
165	0xbd35d4ac	-0.044392273
166	0x3de2bc90	0.11071122
167	0xbc332fe0	-0.010936707
168	0x3cf5cef9	0.030005919
169	0xbe271ac5	-0.16318806
170	0xbd7c4800	-0.061592102
171	0xbd7f7c06	-0.062374137
172	0xbe10b19f	-0.14130257
173	0x3bbe995c	0.0058166217
174	0xbc43eee5	-0.011958812
175	0xbc9d8b8c	-0.01923158
176	0x3db01906	0.08598523
177	0x3de7a37b	0.11310478
178	0x3d69be71	0.057066385
179	0xbe10d3a2	-0.14143232
180	0xbdb90123	-0.0903342
181	0xbd4891b1	-0.048967067
182	0x3cf09c5c	0.029371433
183	0xbd8ff22a	-0.07028611
184	0x3dbc8753	0.092054985
185	0xbde1b111	-0.11020101
186	0x3d807b49	0.06273515
187	0x3df88929	0.12135536
188	0xbd8380fe	-0.06421088
189	0xbdbfca6c	-0.09364781
190	0xbccaf859	-0.024776625
191	0x3d0515f0	0.032491624
192	0x3d9eb9ce	0.07750283
193	0x3b7f1a34	0.003892553
194	0x3e005400	0.12532043
195	0xbe008576	-0.12550911
196	0x3d167fd5	0.036743004
197	0xbb892ae1	-0.0041860198
198	0xbdc05abf	-0.093923084
199	0xbdbab176	-0.09115879
200	0xbd5c7fba	-0.053832747
201	0x3a487c1e	0.00076478894
202	0xbd925b48	-0.07146317
203	0x3cba4fc4	0.022743113
204	0x3e093e23	0.1340261
205	0xbc415ea1	-0.011802346
206	0x3de2e6a6	0.11079149
207	0x3c93d36c	0.01804515
208	0x3d862799	0.065505214
209	0xbd9e8ca5	-0.077416696
210	0x3d1861c7	0.037202623
211	0x3cc44438	0.02395831
212	0x3e1cee45	0.15325268
213	0xbdac6d4e	-0.08419286
214	0xbc204996	-0.009783169
215	0x3d0df8d0	0.034661114
216	0xbd25095e	-0.040292136
217	0xbda4ae86	-0.080411
218	0x3d1f486e	0.038887434
219	0xbe02d89f	-0.12777947
220	0xbdbc26ae	-0.09187065
221	0xbd768748	-0.060187608
222	0xbd8bfc3a	-0.06835218
223	0xbcfc32cd	-0.030785942
224	0x3d04c054	0.03240998
225	0xbd3ff377	-0.046863046
226	0xbd941edb	-0.07232448
227	0xbb99f495	-0.004698346
228	0x3d0cb5cc	0.034353063
229	0xbe221698	-0.15828931
230	0x3dcd67fc	0.10029599
231	0x3dc160fc	0.094423264
232	0xbd29cb6f	-0.041453775
233	0x3dde9baf	0.10869538
234	0x3b83325f	0.0040038074
235	0x3e35d7ad	0.17758055
236	0xbe29a038	-0.16565025
237	0xbd8a04fe	-0.067392334
238	0x3d0bc749	0.0341256
239	0x3cb3a387	0.021928562
240	0xbd3d1c37	-0.046169486
241	0x3d1f8c93	0.03895242
242	0xbb8a0bae	-0.004212818
243	0x3c1710f2	0.009220349
244	0xbb51aaa5	-0.0031992581
245	0xbd9602d9	-0.07324762
246	0xbe324309	-0.17408384
247	0x3c1c825b	0.009552564
248	0xbdaf15be	-0.08549069
249	0xbdbd90f4	-0.09256163
250	0x3cdb85b6	0.026797157
251	0xbdf9a3ad	-0.12189422
252	0xbd87fc8c	-0.06639966
253	0x3e2e4691	0.17019106
254	0x3a8ca17d	0.001072928
255	0x3e056d17	0.13029896

lstm.bias_ih_l0 f4 [512]
0	0xbb83504e	-0.004007376
1	0xbb6085b7	-0.0034259388
2	0xbdac17cc	-0.084029764
3	0xbd5cc625	-0.053899903
4	0xbbae264e	-0.005314625
5	0x3d11ba18	0.035577863
6	0xbc8663da	-0.016405035
7	0xbd06f1f7	-0.0329456
8	0x3cf38c8b	0.029730102
9	0xbcec3f39	-0.02883874
10	0x3d533284	0.051561847
11	0xbd20efd8	-0.039291233
12	0x3a3b9c5e	0.00071567844
13	0xbda176c2	-0.078839794
14	0xbd826e73	-0.06368723
15	0xbce2e1b9	-0.027695524
16	0xbd991c77	-0.07476132
17	0xbda5e69b	-0.08100625
18	0xbc9c0921	-0.019047322
19	0x3cead6a2	0.028666798
20	0x3d948925	0.07252721
21	0xbd8f5c74	-0.07000056
22	0x3d37b365	0.04484882
23	0xbd1db779	-0.03850505
24	0x3d00621b	0.03134356
25	0xbcdcfaf1	-0.026975127
26	0xbdbe7fd9	-0.09301729
27	0xbe09c8c2	-0.1345549
28	0x3d69b5f2	0.057058282
29	0xbe184ac3	-0.1487227
30	0x3cf2ea76	0.029652815
31	0xbdde063b	-0.10841032
32	0x3d889843	0.066696666
33	0x3cc22f5e	0.023704227
34	0xbd8aba90	-0.06773865
35	0xbdf5f50d	-0.1200963
36	0xbdb19888	-0.08671671
37	0xbc33ded2	-0.0109784175
38	0xbd22dcb2	-0.039761253
39	0xbd63138d	-0.055438567
40	0xbe18e18a	-0.14929786
41	0xbc97908a	-0.018501539
42	0xbd6f8265	-0.058473963
43	0x3d051e59	0.032499645
44	0x3c468d0d	0.01211859
45	0x3d61899b	0.05506287
46	0xbd5db31a	-0.054125883
47	0x3d0afc9a	0.033932306
48	0xbd778e35	-0.060438354
49	0xbd43365a	-0.047659256
50	0xbcdc6db1	-0.026907774
51	0xbe0a31b8	-0.13495529
52	0xbe224fe2	-0.15850785
53	0xbd3b4ee3	-0.04572953
54	0x3d0146ae	0.031561546
55	0x3d9d0861	0.07667614
56	0x3dbb3488	0.09140879
57	0xbdca250a	-0.09870346
58	0xbcbf351d	-0.023340756
59	0xbdd83a89	-0.1055804
60	0x3dacbbca	0.084342554
61	0xbe721d62	-0.23644021
62	0xbdb420da	-0.087953284
63	0x3d239c00	0.039943695
64	0xbdaf035c	-0.085455626
65	0x3c77a11a	0.015114093
66	0x3cd3c0b1	0.025848718
67	0xbdbe87bf	-0.09303235
68	0x3d089793	0.033347677
69	0xbd868c9d	-0.065697886
70	0xbe15f36b	-0.14643638
71	0xbd0361ae	-0.032075576
72	0xbdb9849a	-0.09058495
73	0xbdb89f74	-0.09014788
74	0xbe0fe4be	-0.14052102
75	0xbdc4a3b1	-0.09601534
76	0xbd847d3f	-0.06469201
77	0xbcd4ea71	-0.025990697
78	0xbde2763c	-0.11057708
79	0xbd1bf533	-0.038075637
80	0x3cdde932	0.027088735
81	0xbd9b2f5a	-0.07577391
82	0xbd69dd29	-0.05709568
83	0xbcc2cd80	-0.02377963
84	0xbe264ea6	-0.1624094
85	0xbe002b60	-0.12516546
86	0xbc9795fb	-0.018504133
87	0xbdc32b4b	-0.09529742
88	0xbd0d3fe3	-0.034484755
89	0xbe21d236	-0.15802845
90	0xbcc01930	-0.02344951
91	0xbe18f352	-0.1493657
92	0xbd89ba52	-0.06724991
93	0xbdb94df9	-0.09048075
94	0x3d34ae9d	0.044111837
95	0xbe174a13	-0.14774351
96	0xbbf9966e	-0.0076168096
97	0xbd910cb0	-0.07082498
98	0xbde39bd5	-0.11113707
99	0xbc899d33	-0.016798591
100	0xbd8b1ab3	-0.06792202
101	0xbdf5057c	-0.11963937
102	0x3d695333	0.05696411
103	0x3b9f3eb5	0.00485977
104	0xbe03a89e	-0.12857291
105	0xbe076b8d	-0.13224621
106	0xbb11ddc8	-0.0022257436
107	0xbdd1ef9b	-0.10250779
108	0xbd167159	-0.03672919
109	0xbddab487	-0.10678964
110	0xbd03ddea	-0.032194056
111	0xbdcb6ed7	-0.099332504
112	0xbcc84c03	-0.024450308
113	0x3cc89f76	0.0244901
114	0x3cec14cd	0.028818512
115	0x3de8dcae	0.11370216
116	0x3d262056	0.04055818
117	0x3d5e7439	0.054310057
118	0xbe118b4f	-0.14213298
119	0xbdd65fdd	-0.10467503
120	0x3d26ac11	0.04069144
121	0xbe14126a	-0.1446015
122	0x3c3937b2	0.011304783
123	0x3b6f8a19	0.0036550818
124	0xbd0d8d87	-0.0345588
125	0xbcc5423a	-0.02407943
126	0xbda9358b	-0.08262166
127	0xbd9e57a6	-0.07731561
128	0x3d5138ad	0.05107944
129	0xbd3581ea	-0.04431335
130	0xbe0c52fa	-0.13703528
131	0xbd3cd00c	-0.046096846
132	0x3c8af418	0.016962096
133	0xbd838c98	-0.064233005
134	0x3cb79fa1	0.022414984
135	0xbbc2b94e	-0.0059425
136	0xbd30bf5f	-0.043151256
137	0xbd8436c3	-0.064557575
138	0x3d6f6ef3	0.05845542
139	0xbcd64088	-0.026153818
140	0x3c9623ee	0.01832768
141	0xbc96bc35	-0.018400291
142	0x3dbe7760	0.09300113
143	0xbe2c2536	-0.1681107
144	0xbe13ab90	-0.14420915
145	0x3dacf805	0.084457435
146	0xbbaf6b75	-0.005353386
147	0x3c34d4c2	0.011037054
148	0x3cccb129	0.02498682
149	0x3de39518	0.11112422
150	0xbd3db5f2	-0.046316095
151	0xbe4c44c8	-0.19948113
152	0xbdc8421b	-0.097782336
153	0xbcc1dcfa	-0.02366494
154	0xbd976dce	-0.073939905
155	0xbda6f810	-0.08152783
156	0x3d1ff07d	0.039047707
157	0xbd684f2d	-0.056716133
158	0xb7d7790b	-2.5686362e-05
159	0xbde5b478	-0.11216062
160	0xbcbe58f5	-0.023235777
161	0x3d120c7e	0.035656445
162	0xbddc83cf	-0.10767328
163	0xbdee23b1	-0.11627901
164	0xbb1bbcc1	-0.002376363
165	0xbdd2ee21	-0.10299326
166	0x3d17b836	0.03704091
167	0xbda325bf	-0.07966184
168	0xbe41427d	-0.1887302
169	0xbd4766ef	-0.04868215
170	0xbd69a457	-0.057041492
171	0xbc395198	-0.011310957
172	0xbdce1cb1	-0.10064066
173	0x3d6653c1	0.056232218
174	0xbe192945	-0.1495715
175	0xbd46236a	-0.048373617
176	0xbdc746c8	-0.09730297
177	0x3c6ca362	0.01444325
178	0xbdb85b31	-0.090017684
179	0xbd8b2bf5	-0.067954935
180	0xbe8c9322	-0.27456003
181	0xbcda1629	-0.026621895
182	0xbd3ea2ea	-0.046542086
183	0x3d910648	0.07081276
184	0x3c21316a	0.009838441
185	0xbe27cbc1	-0.1638632
186	0xbd0425e3	-0.032262694
187	0xbdd6168a	-0.10453518
188	0x39a08e83	0.00030623758
189	0xbe391b0e	-0.18076727
190	0xbe4a1f31	-0.19738461
191	0xbcc66590	-0.02421835
192	0xbde2cbd8	-0.11074036
193	0xbd3da497	-0.046299543
194	0xbd76f09d	-0.06028806
195	0xbe0c360e	-0.13692495
196	0xbdd16719	-0.102247424
197	0x3d765a9f	0.060145017
198	0xbe1c74ea	-0.15278974
199	0xbdddadc9	-0.108241625
200	0xbd3fb995	-0.046807844
201	0xbe128d0b	-0.14311616
202	0xbd9c0dbe	-0.076198086
203	0xbd97dae6	-0.074147984
204	0xbd737791	-0.0594402
205	0x3d3b852d	0.045781303
206	0x3bae3b34	0.005317116
207	0xbd5b53f4	-0.05354686
208	0xbd903048	-0.07040459
209	0xbc022f80	-0.007945895
210	0xbccae2b8	-0.024766311
211	0xbd15c119	-0.036561105
212	0xbd85b4bf	-0.06528615
213	0xbe3b607d	-0.18298526
214	0xbc67b61c	-0.014142539
215	0xbe189f08	-0.14904416
216	0xbd559002	-0.05213929
217	0xbd50def7	-0.050993886
218	0xbcac9e39	-0.02107154
219	0xbdca4143	-0.09875729
220	0xbe1f9ee1	-0.15587951
221	0xbe218d83	-0.15776639
222	0x3dcf94a5	0.101357736
223	0xbdfadd06	-0.12249188
224	0xbd9b537f	-0.07584285
225	0xbdd601e4	-0.10449579
226	0xbdba0d0b	-0.09084519
227	0xbd8fb1ec	-0.07016358
228	0xbd16fd68	-0.03686276
229	0xbd99c629	-0.07508499
230	0xbd0f7803	-0.03502656
231	0xbd0d4786	-0.03449204
232	0xbdbe62bf	-0.09296178
233	0xbd0b4607	-0.03400233
234	0x3e08de9b	0.13366167
235	0x3bc60715	0.0060433247
236	0xbdee8621	-0.11646677
237	0xbbeb86b0	-0.007187687
238	0xbc89b862	-0.016811553
239	0xbe00d05d	-0.12579484
240	0xbbffbc73	-0.0078044473
241	0xbe0a9ecb	-0.13537137
242	0xbda5b0b3	-0.08090343
243	0xbcdd8c31	-0.027044388
244	0xbc9bb89d	-0.019008929
245	0xbdc59962	-0.09648396
246	0xbde99b73	-0.11406603
247	0x3d934324	0.071905404
248	0xbdd1c64e	-0.10242902
249	0xbd7a73fe	-0.061145775
250	0xbdae75b3	-0.08518543
251	0x3aca9492	0.0015455654
252	0x3d80e7c9	0.062942095
253	0xbde274a8	-0.11057407
254	0xbcfc3698	-0.030787751
255	0xbdc6c3e4	-0.09705332

lstm.bias_hh_l0 f4 [512]
0	0xbb8adf59	-0.004238051
1	0xbdf1a24e	-0.11798535
2	0x3c346714	0.011010904
3	0xbced7e83	-0.02899099
4	0xbc5d5778	-0.013509624
5	0xbd850623	-0.06495311
6	0xbd342198	-0.04397735
7	0xbda4992d	-0.080370285
8	0xbdaa8740	-0.08326578
9	0xbd9c796a	-0.076403454
10	0x3d9dd9cd	0.07707558
11	0x3c9a630d	0.01884606
12	0xbd823e7b	-0.063595735
13	0x3d11fc04	0.03564073
14	0x3c45bc1e	0.012068776
15	0xbd932f65	-0.07186774
16	0xbdc9bfa3	-0.09851005
17	0xbc14444a	-0.0090494845
18	0xbc2c99bb	-0.010534699
19	0xbb3ba142	-0.0028630053
20	0xbd51f52e	-0.051259212
21	0xbc3d9ae4	-0.011572573
22	0xbdc6d89a	-0.09709282
23	0xbdd68a3f	-0.10475587
24	0xbd8a334d	-0.06748066
25	0xbc0b0817	-0.0084858155
26	0xbe024d08	-0.12724698
27	0xbdd93c1f	-0.1060717
28	0xbd192907	-0.037392642
29	0xbda94a1d	-0.08266089
30	0x3d04b704	0.0324011
31	0xbe07587d	-0.1321735
32	0xbb8a34a6	-0.004217702
33	0xbd15ccf8	-0.036572427
34	0xbbb580e7	-0.005539048
35	0xbd14c54d	-0.036320973
36	0xbc7e4b24	-0.015520845
37	0xbdd3ab10	-0.10335362
38	0xbda1643c	-0.07880446
39	0xbb1f39c2	-0.00242959
40	0xbdaaf7b2	-0.083480254
41	0xbd1ae9fa	-0.037820794
42	0xbc1244ca	-0.008927533
43	0xbd9f9aee	-0.07793222
44	0xbdc0ca50	-0.09413588
45	0x3c1ec7a0	0.009691149
46	0xbe1a6197	-0.1507629
47	0x3b090f73	0.002091375
48	0xbddcdb8f	-0.10784065
49	0xbd146c81	-0.03623629
50	0xbdeb5c6c	-0.114922374
51	0xbd943e3b	-0.07238432
52	0xbe7714a7	-0.24128972
53	0xbac5dfb9	-0.0015096582
54	0x3b3c53df	0.0028736515
55	0xbd2e4302	-0.042544372
56	0x3d5070d4	0.05088885
57	0x3bac927c	0.0052664857
58	0xbdd47d3f	-0.10375451
59	0xbdae573d	-0.08512733
60	0x3cea1289	0.028573291
61	0xbe251537	-0.16121374
62	0xbe0ce130	-0.13757777
63	0x3df4fc41	0.11962176
64	0x3d14f1df	0.03636348
65	0xbe0804e7	-0.1328312
66	0xbd4e875c	-0.050422058
67	0xbcc2a7be	-0.023761626
68	0xbd2a827d	-0.04162835
69	0x3d56eff2	0.052474923
70	0xbdcb197b	-0.099169694
71	0xbdae5021	-0.08511377
72	0xbd515a56	-0.05111154
73	0xbdb634b6	-0.088967726
74	0xbde6a564	-0.112620145
75	0xbdbd78f1	-0.09251583
76	0xbdfbc1ef	-0.12292849
77	0xb99d8c05	-0.00030049696
78	0xbd57f283	-0.05272151
79	0xbbe5ca2c	-0.007012626
80	0xbd8a6a38	-0.06758541
81	0xbd60c4df	-0.05487525
82	0x3d7935ce	0.060842328
83	0xbd8fcd18	-0.070215404
84	0xbe24afe8	-0.16082728
85	0xbe1e8bb1	-0.15482976
86	0xbd699845	-0.05702998
87	0xbbdd467b	-0.0067527867
88	0xbd19ebf0	-0.037578523
89	0xbdfcf340	-0.12351084
90	0xbd2980d6	-0.041382633
91	0xbd6bafc2	-0.057540663
92	0xbe0bb48f	-0.13643096
93	0x3d22e665	0.039770503
94	0x3bf44707	0.007454756
95	0xbe3704e5	-0.17872961
96	0x3c4b9a36	0.0124269035
97	0xbde78c47	-0.11306053
98	0xbda691e8	-0.08133298
99	0xbd7cc693	-0.061712813
100	0xbba985e0	-0.00517343
101	0xbd51ddab	-0.05123679
102	0xbd884444	-0.06653646
103	0xbbc1e06d	-0.005916646
104	0xbdba6b2d	-0.091024734
105	0xbd8ebd48	-0.06969696
106	0x3da5d57f	0.08097362
107	0xbb143412	-0.0022614044
108	0xbdd3b857	-0.103378944
109	0xbda9b9d5	-0.08287398
110	0xbdb2d5f9	-0.08732218
111	0xbb1cbd7a	-0.0023916648
112	0xbdd066e0	-0.10175872
113	0xbda096c4	-0.07841256
114	0xbcde5c3f	-0.027143596
115	0x3dcc2f8b	0.099700056
116	0x3c46343e	0.012097416
117	0x3c8b23bb	0.016984811
118	0x3c4abd4e	0.012374235
119	0xbd5132d2	-0.051073857
120	0x3c20cf67	0.009815074
121	0xbe0f35cb	-0.13985364
122	0xbe24f88e	-0.16110441
123	0xbdc8567f	-0.09782123
124	0x3db29a03	0.08720782
125	0xbcf82e0e	-0.030295398
126	0xbd492b36	-0.049113475
127	0x3cff721e	0.031182345
128	0x3d86722d	0.06564746
129	0xbcb5512e	-0.022133436
130	0xbd79e325	-0.061007638
131	0x3c38b628	0.011273898
132	0x3c73e567	0.014886237
133	0xbd0a1ebb	-0.033720713
134	0xbe090f32	-0.13384703
135	0x3d61684a	0.0550311
136	0xbdc5f870	-0.09666526
137	0xbe1963bc	-0.14979452
138	0x3daee20f	0.08539211
139	0xbcf85a0f	-0.03031638
140	0x3ba2184a	0.004946743
141	0x3c41b11d	0.011822012
142	0x3d6211f3	0.0551929
143	0xbdd01415	-0.1016008
144	0xbd9b1db3	-0.07574024
145	0x3c9bbcc4	0.019010909
146	0xbbd7d9f9	-0.0065872637
147	0xbbfe8372	-0.0077671343
148	0x3db55080	0.08853245
149	0xbd032f16	-0.032027327
150	0xbc20b9cd	-0.009809923
151	0xbd918b77	-0.07106679
152	0xbcd875c0	-0.026423335
153	0xbc3d16ff	-0.011541127
154	0xbe103f6f	-0.14086698
155	0xbe09db70	-0.13462615
156	0x3ca91e68	0.020644382
157	0xbe219253	-0.15778475
158	0xbdaf3fd6	-0.085570976
159	0xbcaea713	-0.021319902
160	0x3d28c213	0.04120071
161	0xbab69c74	-0.0013932125
162	0xbde8fcf1	-0.1137637
163	0xbd1931ce	-0.037401013
164	0x3d6ba8b5	0.05753394
165	0xbb6c211a	-0.0036030472
166	0xbca55472	-0.020181868
167	0xbd58c253	-0.052919697
168	0xbe357899	-0.17721786
169	0x3bdcb157	0.0067350077
170	0xbd4a14a2	-0.049336083
171	0xbd8b7a69	-0.06810457
172	0xbdae530e	-0.08511935
173	0xbd0fab68	-0.035075575
174	0xbe1bedab	-0.15227382
175	0xbd697a24	-0.057001248
176	0xbdbcc5d6	-0.09217422
177	0x3c1da2f0	0.009621367
178	0xbd8e49db	-0.069476806
179	0xbd16b2e9	-0.036791716
180	0xbe2c694b	-0.16837041
181	0xbd6c0042	-0.057617433
182	0x3c2292c8	0.009922691
183	0x3d3e866b	0.04651491
184	0x3dc942eb	0.09827217
185	0xbe0bd19d	-0.1365418
186	0x3d0e584e	0.034752183
187	0xbe50ee22	-0.2040334
188	0x3d51590a	0.051110305
189	0xbea28d8c	-0.31748617
190	0xbe126513	-0.14296369
191	0x3c772e36	0.015086701
192	0x3a760665	0.0009385108
193	0xbdb50639	-0.088390775
194	0x3d687b08	0.056757957
195	0xbdb911f9	-0.09036631
196	0xbd147e69	-0.036253367
197	0x3d85649d	0.06513331
198	0xbd9e70ce	-0.077363595
199	0xbd60caac	-0.054880783
200	0xbd6c0f23	-0.057631623
201	0xbdf4be0d	-0.11950312
202	0xbcc9f260	-0.024651706
203	0xbdbb6fdb	-0.09152194
204	0xbe177c31	-0.14793469
205	0x3cecc6d9	0.028903412
206	0xbca42cd2	-0.020040903
207	0xbc6f241a	-0.01459601
208	0x3cfd064c	0.030886792
209	0xbe003db7	-0.12523542
210	0x3bfa1605	0.0076320195
211	0xbda6caa4	-0.081441194
212	0xbba6bb6b	-0.00508826
213	0xbe2715ab	-0.1631686
214	0xbd1d5ec1	-0.038420442
215	0xbc9d356b	-0.01919051
216	0xbe0783a1	-0.13233806
217	0xbd5f6c07	-0.054546382
218	0xbd25cebc	-0.04048036
219	0xbe1eb958	-0.1550039
220	0xbe10ce89	-0.14141287
221	0xbdf032ef	-0.11728465
222	0xbc419d91	-0.011817352
223	0xbdc6f066	-0.09713821
224	0x3c979359	0.018502878
225	0x3d02de11	0.03195006
226	0xbdf448e6	-0.11927967
227	0xbd122848	-0.035682946
228	0xbe12b54f	-0.14326976
229	0xbd8e94f6	-0.06962006
230	0xbd17b47b	-0.037037354
231	0xbdf0d217	-0.117588215
232	0x3c995cd4	0.018721022
233	0xbe0852ae	-0.1331279
234	0x3c84055f	0.016115842
235	0x3ce2bb9a	0.027677346
236	0xbd9b6fc2	-0.075896755
237	0x3ce68893	0.028141296
238	0xbdb43d20	-0.08800721
239	0xbdd1c194	-0.10242
240	0xbd621e64	-0.055204764
241	0xbdc18f0b	-0.094511114
242	0xbd02a5b0	-0.031896293
243	0x3ccaddf7	0.024764044
244	0x3cf99aaf	0.030469267
245	0x3ce96c94	0.028494157
246	0xbdc5af3c	-0.09652564
247	0x3dabf3ae	0.083960876
248	0xbd46aa9e	-0.048502557
249	0xbe1635f4	-0.14669019
250	0xbdc00cff	-0.09377479
251	0x3d8985f1	0.067150004
252	0xbcdaa693	-0.026690757
253	0x3cd846ef	0.026401011
254	0xbd79c134	-0.06097527
255	0xbd26a92c	-0.04068868

lstm.weight_ih_l1 f4 [512, 128]
0	0x3de904b5	0.11377851
1	0x3d2f8dcd	0.04285984
2	0xbd922888	-0.07136637
3	0xbdfa088d	-0.12208662
4	0x3d9c659b	0.07636567
5	0xbcef1584	-0.029185064
6	0xbd267189	-0.04063562
7	0x3d23a8d5	0.039955933
8	0x3db1ac04	0.086753875
9	0x3d13166f	0.035910066
10	0x3d34cba4	0.04413952
11	0xbd924d47	-0.07143646
12	0x3c1c1cf7	0.00952839
13	0xbd76b79d	-0.0602337
14	0x3d0b7f9f	0.034057256
15	0xbd076a17	-0.03306016
16	0x3c10049f	0.008790164
17	0x3a7b7492	0.00095922605
18	0xbcac2a0c	-0.021016143
19	0xbc564dbf	-0.01308006
20	0x3b664af6	0.0035139895
21	0xbaa28edb	-0.0012402193
22	0xbd1a2d21	-0.037640695
23	0x3e2d4903	0.16922383
24	0xbdb12833	-0.086502455
25	0x3d22d002	0.039749153
26	0xbc8edc50	-0.017439038
27	0x3dc64a7a	0.09682174
28	0xbcaf6d08	-0.021414295
29	0xbd0062b7	-0.03134414
30	0x3dc2c9ff	0.09511184
31	0xbe08cb46	-0.13358793
32	0x3ccbfd20	0.024900973
33	0x3c275b00	0.010214567
34	0x3cfaedfa	0.030631054
35	0xbe3acef8	-0.18243015
36	0x3cf7d648	0.030253544
37	0x3c41088f	0.011781826
38	0x3c92016f	0.01782295
39	0xbb9df85f	-0.004820868
40	0x3cda8396	0.026674073
41	0x3a60cef9	0.0008575763
42	0xbd02d7b0	-0.031943977
43	0x3d2de5d8	0.042455524
44	0x3dad6f05	0.08468441
45	0xbbba0aca	-0.0056775557
46	0xbe234259	-0.15943278
47	0x3d877051	0.066132195
48	0x3e0230de	0.12713954
49	0xbd728bf0	-0.059215486
50	0x3dd80822	0.10548426
51	0x3d95b6ff	0.07310294
52	0x3d83b412	0.0643083
53	0x3d81e3ba	0.063422635
54	0x3dd307a1	0.103041895
55	0xbb94b8a9	-0.004538615
56	0xbe0146d5	-0.12624677
57	0x3e18e4a1	0.14930965
58	0xbd083440	-0.033252954
59	0xbdf50c60	-0.11965251
60	0x3dd84db3	0.10561695
61	0x3e8122af	0.25221774
62	0xbbc5b3d4	-0.0060334
63	0xbd1eb7c5	-0.038749475
64	0x3d61ca52	0.05512459
65	0xbc04b100	-0.008098841
66	0xbd25d51f	-0.04048645
67	0xbc22e11e	-0.009941367
68	0xbd52121b	-0.051286798
69	0xbd8eb45b	-0.06967994
70	0xbc329028	-0.010898627
71	0x3d6e610f	0.05819803
72	0xbc5dd2fe	-0.013539074
73	0x3c698984	0.014253978
74	0x3d96292d	0.073320724
75	0x3d7de3cc	0.061984822
76	0xbcd4c7cc	-0.025974177
77	0x39faf9e9	0.00047869913
78	0x3d2058d0	0.0391472
79	0xbe064fb4	-0.13116342
80	0xbc407552	-0.011746721
81	0x3ce352d7	0.027749462
82	0xbbdb1ad9	-0.00668655
83	0x3d8ace4b	0.067776285
84	0xbd89fafd	-0.06737325
85	0x3d1203eb	0.035648268
86	0x3ab904c7	0.0014115804
87	0x3e1f94fd	0.15584178
88	0x3d8d2376	0.06891529
89	0x3e0c320a	0.13690963
90	0xbdbf564e	-0.09342633
91	0xbdaa2f84	-0.08309844
92	0x3d7e9148	0.06215027
93	0x3d725207	0.05916026
94	0x3d593e6b	0.053038042
95	0x3dba6b34	0.091024786
96	0xbdc18961	-0.09450031
97	0xbd87fa1e	-0.06639503
98	0xbdc77031	-0.09738196
99	0xbd59d6e2	-0.053183444
100	0xbc9454aa	-0.018106777
101	0x3dab8397	0.08374708
102	0xbd74ba01	-0.0597477
103	0xbe0385bf	-0.12843989
104	0x3da543d1	0.080695756
105	0x3c8d3495	0.017236987
106	0xbd0df2e0	-0.03465545
107	0x3d3ad3ea	0.045612253
108	0xbcec07dc	-0.028812341
109	0x3dc1339c	0.09433672
110	0x3df23916	0.118272945
111	0xbe008dc4	-0.1255408
112	0xbb86c240	-0.004112512
113	0x3e11874b	0.14211766
114	0xbd73ce4f	-0.059522923
115	0x3ddf923b	0.10916563
116	0xbce4c9b2	-0.027928207
117	0xbca7b805	-0.02047349
118	0xbc23bc34	-0.009993602
119	0xbd2f1f20	-0.042754292
120	0xbd410973	-0.047128152
121	0x3d8ba62c	0.06818804
122	0xbd6c0b25	-0.057627816
123	0x3dabebf7	0.08394616
124	0x3c3eea1a	0.011652494
125	0x3d18ac1b	0.037273508
126	0xbd905bc2	-0.070487514
127	0x3d89e465	0.06733016
128	0x3e02c43f	0.12770174
129	0x3dac0c0c	0.08400735
130	0x3c8904ac	0.01672586
131	0x3d08c754	0.03339322
132	0x3c91cba0	0.017797291
133	0x3da1490f	0.07875263
134	0xbdb6efc4	-0.089324504
135	0x3ca9347b	0.020654907
136	0x3bb5a94a	0.0055438625
137	0x3cb8b0fb	0.022545328
138	0x3db680ca	0.08911283
139	0xbda1d03d	-0.079010464
140	0xbcfd01d3	-0.030884659
141	0xbdbc9772	-0.092085734
142	0x3e45c741	0.1931429
143	0xbd84ccbd	-0.06484363
144	0x3d2f9f73	0.042876672
145	0x3e02237e	0.12708852
146	0x3d206b83	0.03916503
147	0x3c74bfee	0.014938338
148	0xbcf9687d	-0.030445332
149	0x3cee9277	0.029122574
150	0x3dfb98cd	0.12285004
151	0x3c9a73fb	0.018854132
152	0xbb4de5c8	-0.0031417478
153	0x3e041e5b	0.12902205
154	0xbdc29968	-0.09501916
155	0xbd35d997	-0.044396963
156	0xbd9f1097	-0.07766836
157	0x3dc54e17	0.09634035
158	0x3c9987ac	0.018741451
159	0xbc9f1891	-0.019420894
160	0xbdefe6df	-0.11713957
161	0x3d9dc3e0	0.07703376
162	0xbdede45d	-0.116158225
163	0xbdc3c1c7	-0.095584445
164	0xbdf9bd56	-0.12194316
165	0xbc9391bd	-0.01801383
166	0xbe10f087	-0.14154254
167	0x3b21b2fe	0.0024673338
168	0x3bbe8afc	0.005814908
169	0xbce4bb55	-0.027921358
170	0x3e081d25	0.13292368
171	0xbd5e0395	-0.054202635
172	0xbd15c20e	-0.036562018
173	0x3d2f4d2c	0.042798206
174	0xbcf2a4ed	-0.029619658
175	0x3ba530dc	0.005041225
176	0xbcb946a3	-0.02261669
177	0xbd8aec99	-0.06783409
178	0x3e0978df	0.13425015
179	0x3c9d2414	0.019182242
180	0x3d5853fc	0.05281447
181	0x3dafd2f9	0.08585162
182	0x3cc67fa2	0.024230782
183	0x3dfbba6b	0.12291416
184	0xbdb10bb4	-0.0864481
185	0x3c07b8c0	0.008283794
186	0xbdf4413e	-0.119265065
187	0x3bdcc854	0.006737748
188	0x3e142487	0.14467059
189	0x3e32983c	0.17440885
190	0x3e36b9d9	0.17844333
191	0x3db13892	0.08653368
192	0x3d1ed3e5	0.038776297
193	0x3dc27f38	0.09496921
194	0xbe0bf35b	-0.13667051
195	0x3d8b8207	0.0681191
196	0x3dc54acd	0.09633408
197	0xbb7454c1	-0.0037281963
198	0x3b13a850	0.0022530742
199	0xbc396ced	-0.011317474
200	0xbe0058a6	-0.12533817
201	0x3ccc5e30	0.024947256
202	0x3dc4def1	0.09612835
203	0x3d5f6af3	0.054545354
204	0xbdc70c7e	-0.097191796
205	0x3cc04be0	0.02347368
206	0x3b262207	0.0025349872
207	0xbe13c87f	-0.14431952
208	0xbcf850aa	-0.030311901
209	0x3ca347a9	0.019931631
210	0x3c8fb76e	0.01754352
211	0xbc519ca6	-0.012793696
212	0xbdc0db77	-0.094168596
213	0xbc1940de	-0.009353844
214	0xba41fe0f	-0.00074002234
215	0x3e01638c	0.1263563
216	0x3de9a2c8	0.11408001
217	0x3d2d04e9	0.04224101
218	0xbbe0179f	-0.0068387534
219	0x3e01fe20	0.12694597
220	0xbcb73c74	-0.022367693
221	0x3e12b602	0.14327243
222	0x3ac07cb2	0.00146856
223	0x3d0eaff4	0.03483577
224	0xbd1101a8	-0.03540197
225	0xbd129616	-0.035787664
226	0x3cd76877	0.02629493
227	0x3d1b0315	0.037844736
228	0x3cfd6e48	0.030936375
229	0x3df67d89	0.12035663
230	0xbda69815	-0.08134476
231	0xbd4216a2	-0.047384866
232	0x3db5ca13	0.08876433
233	0xbbe9d1c1	-0.0071356003
234	0xbe248c90	-0.16069245
235	0xbbadd441	-0.0053048437
236	0x3d95cfaf	0.07315003
237	0x3deb9e12	0.11504759
238	0x3da45ae4	0.080251485
239	0xbdf128c7	-0.11775356
240	0xbc5cd88f	-0.013479366
241	0x3c78264d	0.01514585
242	0x3bc1841d	0.0059056417
243	0x3d1ecdf0	0.038770616
244	0x3d1fc016	0.039001547
245	0x3dd594e8	0.10428792
246	0x3ad07cf5	0.0015906381
247	0xbdedb32f	-0.11606442
248	0x3db763bc	0.0895457
249	0x3c46ae1b	0.012126471
250	0xbd231539	-0.03981516
251	0x39c1ac00	0.0003693998
252	0x3def5cc4	0.116876155
253	0xbdb3d31d	-0.08780501
254	0x3d214b00	0.039378166
255	0x3c268b8f	0.010165109

lstm.weight_hh_l1 f4 [512, 128]
0	0x3cd1a8ca	0.02559318
1	0xbc8e5ee7	-0.017379237
2	0x3d8165ff	0.06318282
3	0x3d9950de	0.07486127
4	0xbdf0b570	-0.117533565
5	0xbe34a469	-0.17640842
6	0xbe536315	-0.20643266
7	0x3e2f395a	0.17111722
8	0xbdc68d4f	-0.09694921
9	0x3d586b50	0.052836716
10	0x3db8764c	0.09006938
11	0xbd7b1fcd	-0.061309624
12	0x3ba7977e	0.005114495
13	0x3d939f4b	0.07208117
14	0xbce0c962	-0.027439777
15	0xbdd16f10	-0.102262616
16	0xbbec7e2f	-0.0072171907
17	0xbddb696d	-0.10713468
18	0xbd77a714	-0.060462072
19	0x3d80ec2e	0.06295048
20	0xbde4e1b6	-0.111758634
21	0xbd5dc27a	-0.054140545
22	0xbdf508e2	-0.11964585
23	0x3d09fc08	0.03368762
24	0x3daa90de	0.083284125
25	0xbd86d949	-0.065844126
26	0x3d05b0d2	0.032639332
27	0x3d5fc41c	0.054630384
28	0x3e00a15d	0.12561555
29	0x3cb30877	0.021854622
30	0x3e4eb8ac	0.20187634
31	0x3e1abb09	0.15110411
32	0x3db0c293	0.08630862
33	0xbe17e5ac	-0.14833707
34	0x3e2bc40e	0.16774008
35	0xbe1f5042	-0.1555796
36	0x3d2e305d	0.04252659
37	0xbd95c675	-0.07313243
38	0xbd18b19d	-0.03727876
39	0xbd00cd7a	-0.031445958
40	0xbd387a5d	-0.04503857
41	0x3d84e6d4	0.064893395
42	0x3d8db70f	0.06919681
43	0xbe04e744	-0.12978846
44	0x3e5534a4	0.20820862
45	0xbd2834e5	-0.04106607
46	0x3d86a163	0.06573751
47	0xbb8d43c1	-0.0043110554
48	0xbe2bb671	-0.16768815
49	0x3cd5bf7f	0.026092289
50	0xbd9fa1fe	-0.077945694
51	0x3dd51ed3	0.1040627
52	0x3c2bbe47	0.010482377
53	0x3e4892a8	0.19587195
54	0xbb7d159f	-0.0038617624
55	0xbd993b45	-0.07482008
56	0xbd625ff7	-0.0552673
57	0xbd38f2ea	-0.045153536
58	0x3da84adb	0.082174025
59	0x3e3afe7d	0.18261142
60	0xbcb0a030	-0.021560758
61	0x3e0796d9	0.13241138
62	0x3a4a9b47	0.00077288266
63	0x3d303d4f	0.04302722
64	0x3db82f49	0.08993394
65	0xbe1649ce	-0.14676592
66	0x3de5edd7	0.11227005
67	0xbd9d9363	-0.076941274
68	0x3d6123a6	0.054965638
69	0x3d9c4cb5	0.07631818
70	0xbd91e504	-0.071237594
71	0xbdf3641c	-0.11884329
72	0x3e27883e	0.16360566
73	0x3c78d79f	0.015188127
74	0xbdaf2cf9	-0.085535
75	0xbdb48eca	-0.08816297
76	0x3d8402fa	0.0644588
77	0x3d799a4a	0.060938157
78	0xbe406e94	-0.18792182
79	0xbdd314ca	-0.103066996
80	0xbdbaeb0d	-0.09126864
81	0xbcca90e5	-0.024727294
82	0xbe303342	-0.17207053
83	0xbd8b5416	-0.068031475
84	0x3d084321	0.033267144
85	0x3c3ed256	0.011646828
86	0xbdf369a5	-0.118853845
87	0x3dcd10a4	0.100129396
88	0xbdc62400	-0.09674835
89	0xbda7f74b	-0.08201464
90	0x3d24cbd2	0.04023344
91	0x3df9fd58	0.122065246
92	0xbdf6a09b	-0.12042352
93	0xbd886ed9	-0.066617675
94	0xbccc34d9	-0.024927543
95	0xbd4ab264	-0.049486533
96	0xbcbc19e1	-0.022961559
97	0x3d310abc	0.043223128
98	0x3cd6cc5c	0.026220493
99	0x3dec5311	0.11539281
100	0xbd99762a	-0.07493241
101	0xbbef8935	-0.0073100575
102	0xb9daeaea	-0.00041755225
103	0x3db4dbd8	0.08830994
104	0xbd7ecfdc	-0.06220995
105	0xbda3e2df	-0.080022566
106	0x3d060717	0.032721605
107	0x3d88f9a0	0.06688237
108	0x3d8fe2dc	0.07025692
109	0xbd78fa04	-0.06078531
110	0xbd8479d4	-0.06468549
111	0x3ca957d0	0.020671755
112	0x3df6b518	0.1204626
113	0xbd08452f	-0.033269104
114	0x3e0a4cda	0.13505879
115	0xbdcfd13a	-0.10147329
116	0x3ce433f7	0.02785681
117	0xbd888841	-0.06666613
118	0x3db279f9	0.08714671
119	0x3e0b0301	0.13575365
120	0xbb4c56b3	-0.0031179606
121	0xbd1da4af	-0.038487133
122	0x3ccd0add	0.025029594
123	0x3c8a7a80	0.016904116
124	0x3da51774	0.08061114
125	0xbd216f85	-0.039412994
126	0xbd7930cf	-0.060837563
127	0xbdafda1f	-0.08586525
128	0xbdc414a3	-0.09574249
129	0xbdc1a47b	-0.094552
130	0x3c4fbb30	0.012678906
131	0xbd8b317e	-0.06796549
132	0xbdad191b	-0.08452054
133	0xbe04bacd	-0.12961884
134	0xbc33f740	-0.010984242
135	0x3e16dad0	0.14731908
136	0xbe05de67	-0.13073121
137	0x3dbb6399	0.09149856
138	0x3e06bbdc	0.131576
139	0x3da07735	0.07835237
140	0xbbc798ac	-0.006091198
141	0x3daff78e	0.08592139
142	0x3b4c581a	0.0031180442
143	0xbd1f6e55	-0.03892358
144	0xbd30d3d3	-0.04317076
145	0xbdb643d3	-0.08899655
146	0x3d9a4f53	0.07534661
147	0x3dde6613	0.10859313
148	0xbbb455cb	-0.0055033914
149	0xbe07c2f4	-0.13257962
150	0xbca2063d	-0.019778365
151	0x3c3465b9	0.011010581
152	0x3d4df00f	0.050277766
153	0x3d72bc53	0.05926163
154	0x3aaad51c	0.0013033482
155	0x3d628183	0.055299293
156	0x3dda727d	0.10666368
157	0xbd7fb9ef	-0.06243318
158	0x3cd13db6	0.025542121
159	0xbc710fb2	-0.014713215
160	0x3d943bcc	0.07237968
161	0x3c3cdb37	0.011526874
162	0x3c93009e	0.01794463
163	0xbc36e5e1	-0.011163206
164	0xbd58b028	-0.05290237
165	0x3cff1bde	0.031141218
166	0x3d53715d	0.051621784
167	0x3d31c0f6	0.043396913
168	0xbcadb982	-0.021206621
169	0xbd5ddc78	-0.054165334
170	0xbd35a9dc	-0.044351444
171	0xbde58158	-0.11206311
172	0x3d6fb69d	0.058523763
173	0xbc30049a	-0.010743285
174	0x3b68f677	0.0035547295
175	0x3d28f40a	0.04124836
176	0xbd81bd24	-0.06334904
177	0x3d2a7b1b	0.04162131
178	0xbdddcac3	-0.10829689
179	0x3c84e8ff	0.016224382
180	0x3cb28601	0.021792414
181	0xbc0f1bf8	-0.008734696
182	0x3cc25ef3	0.023726916
183	0xbc0cc784	-0.00859249
184	0x3a76bc12	0.000941218
185	0x3d668152	0.056275673
186	0x3d6e320d	0.0581532
187	0xbd18104c	-0.037124917
188	0x3d6eac34	0.058269694
189	0x3cd3fae8	0.025876477
190	0x3d888c8a	0.06667431
191	0x3d6728a7	0.056435253
192	0x3d862ced	0.06551538
193	0xbd74e8b2	-0.059792228
194	0xbda6f28d	-0.08151732
195	0xbccf8591	-0.025332244
196	0xbcdf1286	-0.027230512
197	0x3dcd6e79	0.100308366
198	0x3df8ce4f	0.12148725
199	0xbdc75703	-0.09733393
200	0xbb47e767	-0.0030502917
201	0xbdb56da6	-0.088588044
202	0xbda1ed9d	-0.07906649
203	0x3db7fcec	0.08983788
204	0xbc9306d9	-0.017947601
205	0xbdc6cb8f	-0.097067945
206	0xbde06e71	-0.10958565
207	0xbe0ce9ca	-0.13761058
208	0xbc78c543	-0.01518375
209	0x3cebc612	0.02878097
210	0xbc768066	-0.015045261
211	0xbe03ab34	-0.12858278
212	0x3d33cbab	0.043895405
213	0x3e210bec	0.15727204
214	0xbccb05e3	-0.02478308
215	0x3cfbf5f6	0.030756932
216	0xbcab2d78	-0.020895705
217	0x3cb11c4a	0.021619935
218	0xbdb732ea	-0.08945258
219	0xbb694631	-0.0035594816
220	0xbda9e4e1	-0.08295608
221	0x3bdab511	0.006674417
222	0x3ca9cb1f	0.020726738
223	0x3cbb720c	0.02288153
224	0xbd61bcc4	-0.05511166
225	0x3bb0decb	0.0053976527
226	0x3cae87fe	0.02130508
227	0x3e323829	0.17404236
228	0x3d7902aa	0.060793556
229	0xbd4ac054	-0.049499825
230	0xbd6fcf50	-0.058547318
231	0x3d1cd12a	0.038285412
232	0xbdbf2a12	-0.09334196
233	0xbd821ba6	-0.0635293
234	0xbde5d2f7	-0.11221879
235	0xbd842d24	-0.064539224
236	0x3dafbaad	0.085805275
237	0xbce356e2	-0.02775139
238	0xbdd7bc93	-0.105340146
239	0xbd3c931c	-0.046038732
240	0x3dc671fd	0.0968971
241	0x3ba85dcf	0.005138136
242	0x3d6f1b4e	0.05837565
243	0xbde073b3	-0.10959568
244	0x3be2da0b	0.0069229654
245	0x3c937e0c	0.01800444
246	0xbc35602b	-0.0110702915
247	0x3db41037	0.08792155
248	0xbda508c8	-0.080583155
249	0x3ca3c578	0.019991621
250	0xbcf50200	-0.02990818
251	0x3d51afab	0.05119292
252	0x3df534b8	0.11972946
253	0xbd030b67	-0.031993296
254	0xbe027c16	-0.12742648
255	0xbd8e5aef	-0.06950938

lstm.bias_ih_l1 f4 [512]
0	0x3ae417c9	0.0017402108
1	0xbcac2ec6	-0.021018397
2	0xbe405386	-0.18781862
3	0xbe853775	-0.26018873
4	0xbe016a3f	-0.12638186
5	0xbd61fb74	-0.055171445
6	0xbdaea549	-0.085276194
7	0xbdaa360d	-0.083110906
8	0xbdc088e6	-0.09401111
9	0xbd1c5a0c	-0.038171813
10	0xbc21d673	-0.009877789
11	0xbe5f11fd	-0.21784206
12	0xbdc9e29e	-0.09857677
13	0xbd0e02f4	-0.034670785
14	0xbd97c847	-0.07411247
15	0xbe24c261	-0.16089775
16	0xbe02b3ca	-0.12763897
17	0xbd95dfe1	-0.07318092
18	0xbc90f004	-0.017692573
19	0x3d15710e	0.03648477
20	0xbc69a38c	-0.014260184
21	0xbc1e0f82	-0.009647252
22	0xbd80ebda	-0.06294985
23	0xbd04cc98	-0.03242168
24	0x3b8c3db2	0.0042798156
25	0x3bc3386d	0.005957654
26	0xbe0c6cf7	-0.13713442
27	0xbd881ffd	-0.06646726
28	0xbbe921f5	-0.0071146437
29	0x3ab830dc	0.0014052647
30	0xbd0714cc	-0.032978818
31	0xbd8563f7	-0.065132074
32	0xbdb93b1b	-0.090444766
33	0xbaae5eb0	-0.0013303366
34	0xbdad05a5	-0.08448342
35	0xbe194cda	-0.14970723
36	0xbe2126d9	-0.15737475
37	0xbd111530	-0.035420597
38	0xbd592a62	-0.053018935
39	0xbdb21e27	-0.08697157
40	0xbd8bf4e1	-0.06833816
41	0xbd608db2	-0.05482263
42	0xbd928968	-0.071551144
43	0xbb194200	-0.0023385286
44	0x3d48b86f	0.049004015
45	0xbd5b8759	-0.053595874
46	0xbc92d708	-0.0179248
47	0xbd18c076	-0.03729292
48	0xbd0a12d0	-0.033709347
49	0x3c1b4f2b	0.009479324
50	0xbe2266fd	-0.158596
51	0x3bea8b13	0.007157692
52	0xbe5d8617	-0.21633182
53	0xbd46d18c	-0.048539683
54	0xbde71d77	-0.11284917
55	0xbe3af785	-0.18258484
56	0xbdf48ccd	-0.11940918
57	0x3c5543fb	0.013016696
58	0xbdf5e6c8	-0.12006909
59	0xbd622f62	-0.05522097
60	0xbd29c760	-0.041449904
61	0xbd8d9ae2	-0.06914307
62	0xbdc76d5b	-0.09737655
63	0x3d02cf86	0.03193619
64	0xbdc57746	-0.0964189
65	0xbb7e5cbb	-0.0038812596
66	0xbd8f64a6	-0.07001619
67	0xbdbf9596	-0.09354703
68	0xbdc49440	-0.09598589
69	0xbbaaca48	-0.005212102
70	0xbda43e3d	-0.080196835
71	0xbc2bff65	-0.0104979025
72	0xbe17cbdb	-0.14823858
73	0xbcea452f	-0.028597442
74	0xbde0a7e8	-0.109695256
75	0x3d6e54ac	0.05818622
76	0xbdfc95d2	-0.123332635
77	0xbaeac4ca	-0.0017911431
78	0xbe392f0a	-0.1808435
79	0xbe16b832	-0.14718702
80	0x3bd48510	0.006485589
81	0xbd29b62f	-0.04143351
82	0xbad32c8c	-0.0016111298
83	0xbd93d650	-0.07218611
84	0xbc3c384f	-0.011488034
85	0x3bbdda48	0.0057938434
86	0xbe4b4dcd	-0.19853897
87	0xbd34f112	-0.044175215
88	0xbdefc9e5	-0.1170843
89	0xbdcfea99	-0.10152168
90	0xba9fdba6	-0.0012196198
91	0xbc6c07e5	-0.014406179
92	0xbd609e17	-0.054838266
93	0xbe00b0a3	-0.12567382
94	0xbd6a2154	-0.05716069
95	0xbdcb6fbf	-0.09933423
96	0xbe141cb0	-0.14464068
97	0xbc2b0899	-0.010439062
98	0xbdfc02da	-0.123052314
99	0x3c80eb26	0.015737128
100	0xbd90769f	-0.07053875
101	0xbdeb373e	-0.11485146
102	0xbce12c5a	-0.027486969
103	0xbde2f1c2	-0.11081268
104	0xbce3d3ea	-0.02781101
105	0xbdba8cde	-0.091088995
106	0xbe046422	-0.12928823
107	0x3cc2796b	0.023739537
108	0xbd18176e	-0.03713172
109	0xbd869b94	-0.06572643
110	0xbd494faa	-0.04914824
111	0xbd0829e0	-0.03324306
112	0xbe6d8849	-0.2319652
113	0x3c61891a	0.013765598
114	0xbcaeea46	-0.021351945
115	0xbdd7dec5	-0.10540537
116	0xbdc83c17	-0.09777086
117	0x3ca80947	0.020512236
118	0xbd6a7cf0	-0.057248056
119	0xbe074ce6	-0.13212928
120	0xbde2f1cd	-0.11081276
121	0xbdd66d47	-0.10470062
122	0xbdad3c92	-0.084588185
123	0xbccaedb2	-0.024771545
124	0xbdcf2958	-0.101153076
125	0x3c3e6509	0.011620768
126	0xbdaabff6	-0.08337395
127	0xbd58ab85	-0.05289795
128	0x3c069aed	0.008215648
129	0xbda00f70	-0.078154445
130	0xbeaae6f0	-0.33379316
131	0xbdbf6d45	-0.093470134
132	0xbda401ef	-0.08008181
133	0x3b178cbd	0.0023124658
134	0xbd16dec2	-0.036833532
135	0xbdd84bed	-0.10561357
136	0xbbe5b78c	-0.007010406
137	0xbca9ce26	-0.020728182
138	0xbdde8fdf	-0.10867285
139	0xbe5ed4c4	-0.21760851
140	0xbe213b0c	-0.15745181
141	0xbd682bb0	-0.05668229
142	0xbd4c807e	-0.049927227
143	0xbe081fc5	-0.13293369
144	0x3c4e8d26	0.012606895
145	0xbe050123	-0.12988715
146	0xbdcd27c8	-0.10017353
147	0xbdd91e48	-0.10601479
148	0xbe087ef9	-0.13329686
149	0xbdce3943	-0.100695156
150	0x3a9d9287	0.0012021818
151	0xbde38044	-0.11108449
152	0xbe060593	-0.13088064
153	0xbd1fcd5f	-0.039014217
154	0xbe028d04	-0.12749106
155	0xbe2bd2db	-0.16779654
156	0xbdbafcac	-0.091302246
157	0xbdc2fa77	-0.09520429
158	0xbd45c60f	-0.048284587
159	0xbcf7a32d	-0.030229175
160	0xbe000f76	-0.12505898
161	0xbd632507	-0.055455234
162	0xbda23910	-0.0792104
163	0xbddbb96b	-0.10728725
164	0xbdef54eb	-0.11686119
165	0xbdb0edde	-0.086391196
166	0xbe23318b	-0.15936868
167	0xbca4abc6	-0.02010144
168	0x3ca0e49b	0.019640258
169	0x3d056b71	0.032573167
170	0xbc3d87bb	-0.011568005
171	0xbd18c438	-0.037296504
172	0x3d83f346	0.06442885
173	0xbdde5c26	-0.1085742
174	0xbd02a8a9	-0.031899128
175	0xbd9aee06	-0.075649306
176	0xbadbb66b	-0.0016762739
177	0xbd94d9af	-0.07268082
178	0xbdb1b100	-0.08676338
179	0x3c7da06c	0.015480142
180	0xbe32e611	-0.17470576
181	0xbcf7349c	-0.030176453
182	0xbd09965f	-0.03359067
183	0xbdcfb198	-0.10141295
184	0xbdeeeacc	-0.11665878
185	0xbd54b23c	-0.05192779
186	0xbd122b52	-0.035685845
187	0xbdd9dbc6	-0.106376216
188	0xbd8c95aa	-0.06864484
189	0xbd542beb	-0.051799696
190	0x3b938c4d	0.004502809
191	0xbd16e49f	-0.036839124
192	0xbde1f835	-0.1103367
193	0xbd291caf	-0.04128712
194	0x3d0f5959	0.034997318
195	0xbd9672fd	-0.07346151
196	0xbe412e35	-0.18865283
197	0xbd2ac992	-0.04169614
198	0xbde65ffa	-0.11248775
199	0xbc2587d3	-0.010103184
200	0xbe2071df	-0.15668438
201	0xbe03a2ad	-0.12855025
202	0x3b3ed4f5	0.0029118632
203	0xbd3e8c16	-0.046520315
204	0xbd815199	-0.06314392
205	0xbe20095c	-0.1562857
206	0xbe2d7522	-0.16939214
207	0xbe1727c0	-0.14761257
208	0xbe1847ff	-0.14871214
209	0xbe137ade	-0.14402339
210	0x3cf258d2	0.029583368
211	0xbcd82eec	-0.026389562
212	0xbd086d7f	-0.03330755
213	0xbd7489ae	-0.059701614
214	0xbe3020e4	-0.17200047
215	0xbd609cfa	-0.054837205
216	0x3c284a91	0.010271684
217	0xbe22c963	-0.15897135
218	0x3b96bebc	0.004600374
219	0xbd2eb430	-0.04265231
220	0x3a7ee21e	0.0009723025
221	0xbe0e3005	-0.13885505
222	0xbdd17c84	-0.102288276
223	0xbcb65bf1	-0.022260638
224	0xbe171bb7	-0.14756666
225	0xbe6f460b	-0.23366563
226	0xbba90dc5	-0.005159112
227	0xbd34e8ba	-0.044167258
228	0xbe1aca86	-0.15116319
229	0xbcc58abe	-0.024114009
230	0xbe04623e	-0.12928101
231	0xbcc04635	-0.023470977
232	0xbe115c69	-0.14195408
233	0xbd8afa6f	-0.06786048
234	0xbe0d13b2	-0.13777044
235	0xbd95e098	-0.073182285
236	0xbe315c80	-0.17320442
237	0xbd5ed488	-0.054401904
238	0xbdeed810	-0.116623044
239	0xbdeefa56	-0.116688415
240	0xbe189ac4	-0.14902788
241	0xbce4d94c	-0.027935646
242	0xbd97a1c6	-0.07403903
243	0xbd87f92b	-0.06639322
244	0xbe4ab975	-0.19797309
245	0xbd3f4c96	-0.046703897
246	0xbdc6a6f3	-0.09699812
247	0xbda589d4	-0.08082929
248	0xbddc40fa	-0.10754581
249	0xbd833bff	-0.06407928
250	0xbe2f6552	-0.17128494
251	0xbce93ec1	-0.028472306
252	0xbd737a69	-0.05944291
253	0xbd0395c4	-0.03212525
254	0xbe2f4f56	-0.17120108
255	0xbdc6b199	-0.09701843
