model_window5.pt (torch_old, 871141 bytes, 11 tensors)

lstm.weight_ih_l0 f4 [512, 4]
-0.20057476 -0.21214055 -0.10524001 -0.085079715 -0.19460315 -0.33552894 -0.17740047 -0.21455976
-0.49342594 -0.4969362 -0.5054456 -0.55624473 -0.080069505 -0.021679495 -0.14268425 -0.17385764
-0.24082485 -0.29336402 -0.29362297 -0.13526613 -0.026838895 -0.10640786 -0.1459558 -0.11737454
-0.15268391 -0.20374566 -0.14958493 -0.26990944 -0.17868042 -0.23493488 -0.2884389 -0.23741153
-0.363349 -0.4150146 -0.3189887 -0.3165289 -0.21804075 -0.105082616 -0.20295529 -0.22858152
-0.19278409 -0.3539861 -0.2172538 -0.33152345 0.24920106 0.25730205 0.16712569 0.19877556
-0.17259006 -0.18699707 -0.31762955 -0.19386007 -0.15636066 -0.27617535 -0.29181072 -0.24271981
-0.32815602 -0.31708094 -0.43391868 -0.3038352 -0.2703866 -0.22048321 -0.25117818 -0.17940778
-0.025947036 -0.028237266 -0.08743461 -0.14605148 -0.3192763 -0.24248329 -0.24653415 -0.3030161
-0.37092093 -0.35084382 -0.21078503 -0.25676626 -0.35579914 -0.20991065 -0.23138076 -0.28554142
-0.28532538 -0.30773154 -0.2073062 -0.21508291 -0.24246621 -0.29389077 -0.24313384 -0.16473801
-0.2682833 -0.30306715 -0.38515952 -0.31421715 -0.55548114 -0.60399413 -0.54627514 -0.6979097
-0.14771555 -0.13002159 -0.2550686 -0.15256907 -0.30485353 -0.19329941 -0.15281625 -0.17722102
-0.16547579 -0.12439326 -0.22003227 -0.07036781 -0.2479162 -0.19465813 -0.17915733 -0.19102427
-0.18621151 -0.047128066 -0.057155926 -0.110262886 -0.09920995 -0.016132364 -0.064898685 0.0019128938
0.08535166 0.063644625 0.041527193 0.1333594 -0.35643446 -0.3635861 -0.21318199 -0.27091601
-0.069167115 -0.17064404 -0.08475152 -0.07719505 0.083019406 0.10948949 -0.008774074 -0.044900198
-0.22492264 -0.3177486 -0.37594286 -0.24567814 -0.15998834 -0.2103291 -0.23444983 -0.22382227
-0.46086153 -0.55139464 -0.53767717 -0.50467014 -0.33854336 -0.31326628 -0.29535353 -0.3432109
-0.24783678 -0.12066438 -0.20278278 -0.22909771 -0.26489842 -0.19258337 -0.16994719 -0.25965273
-0.1278875 -0.2558777 -0.28899035 -0.14772823 -0.20888864 -0.11197969 -0.12588575 -0.14664283
-0.069020696 -0.08448894 -0.10658086 0.004271921 -0.21156377 -0.2138992 -0.16946237 -0.20480715
-0.76794314 -0.7119958 -0.6220165 -0.615985 -0.022337455 -0.08156574 -0.15397674 -0.113364264
0.04057485 0.01414207 0.059937265 0.0714991 -0.06896217 -0.17323104 -0.053614177 -0.11776323
-0.31838247 -0.17368694 -0.21807098 -0.21783412 -0.10658141 -0.18988219 -0.17472357 -0.11299392
-0.13123411 -0.093381196 -0.1336376 -0.13296627 -0.65925384 -0.6322834 -0.7220925 -0.62795657
-0.0641162 -0.135817 -0.14116296 0.005261547 -0.023818782 -0.079568975 -0.028272884 -0.09402421
0.0018633556 0.11065937 0.052024875 -0.05977939 0.15003581 0.08391526 0.051665284 0.14822462
-0.2953132 -0.32626832 -0.41448307 -0.41949302 -0.2612878 -0.17811655 -0.17084539 -0.18199573
-0.15693587 -0.12370068 -0.12334172 -0.24643797 -0.2334628 -0.12403824 -0.2093853 -0.14216568
-0.26348782 -0.19258554 -0.31252384 -0.15139715 -0.16852352 -0.3246633 -0.26301807 -0.19006386
-0.16688387 -0.14999084 -0.14127852 -0.12233915 -0.2573169 -0.26511762 -0.28643417 -0.397896
00000000: 7863 4dbe 5f3b 59be 1388 d7bd 463e aebd
00000010: 0c46 47be 73ca abbe 78a8 35be 8eb5 5bbe
00000020: 53a2 fcbe 6c6e febe e264 01bf 0e66 0ebf
00000030: 7bfb a3bd 3299 b1bc d21b 12be bd07 32be
00000040: ca9a 76be cf33 96be c055 96be 3483 0abe
00000050: 3edd dbbc 5dec d9bd 7075 15be 1062 f0bd
00000060: 2c59 1cbe b4a2 50be cb2c 19be 9231 8abe
00000070: 00f8 36be c592 70be 43ae 93be 021c 73be
00000080: e108 babe cb7c d4be 7d52 a3be 1310 a2be
00000090: 1346 5fbe 8e35 d7bd 83d3 4fbe 4611 6abe
000000a0: 3169 45be ab3d b5be c877 5ebe 71bd a9be
000000b0: 902e 7f3e 18bd 833e ff22 2b3e d28b 4b3e
000000c0: 73bb 30be 297c 3fbe 57a0 a2be 4183 46be
000000d0: 021d 20be db66 8dbe 3768 95be 8b8b 78be
000000e0: 1104 a8be 6f58 a2be 972a debe 4a90 9bbe
000000f0: 1d70 8abe 5ac6 61be 6d9a 80be acb6 37be
00000100: e18e d4bc d751 e7bc eb10 b3bd 858e 15be
00000110: 2f78 a3be 8a4d 78be 7373 7cbe ed24 9bbe
00000120: 59e9 bdbe cda1 b3be 08d8 57be de76 83be
00000130: 4e2b b6be d1f2 56be 14ef 6cbe 7c32 92be
00000140: 2b16 92be fd8e 9dbe 1448 54be b23e 5cbe
00000150: 1049 78be da78 96be 14f8 78be 15b1 28be
00000160: 6e5c 89be 9e2b 9bbe a133 c5be 12e1 a0be
00000170: 0334 0ebf 5c9f 1abf b0d8 0bbf 36aa 32bf
00000180: bf42 17be 6124 05be 5a98 82be 113b 1cbe
00000190: c315 9cbe 48f0 45be dd7b 1cbe 6d79 35be
000001a0: 7c72 29be e5c1 febd 2450 61be 001d 90bd
000001b0: bfdd 7dbe 7654 47be 0575 37be de9b 43be
000001c0: 3bae 3ebe 5c09 41bd 551c 6abd 82d1 e1bd
000001d0: 962e cbbd 0528 84bc 9ae9 84bd 11ba fa3a
000001e0: dacc ae3d 1d58 823d 6b18 2a3d 5e8f 083e
000001f0: 947e b6be f527 babe 614c 5abe 81b5 8abe
00000200: 7da7 8dbd 50bd 2ebe 3492 adbd 7018 9ebd
00000210: 1406 aa3d 073c e03d 22c1 0fbc 45e9 37bd
00000220: 1f52 66be f2af a2be 957b c0be 0d93 7bbe
00000230: fcd3 23be 8360 57be 9e13 70be aa31 65be
00000240: 0bf6 ebbe 3328 0dbf 36a5 09bf 1032 01bf
00000250: 8e55 adbe 7064 a0be 9438 97be 57b9 afbe
00000260: edc8 7dbe e31e f7bd 4aa6 4fbe 9798 6abe
00000270: c4a0 87be 9334 45be a306 2ebe 34f1 84be
00000280: f1f4 02be 6702 83be 8bf6 93be 1246 17be
00000290: e7e6 55be 9c55 e5bd 32e8 00be 8a29 16be
000002a0: b95a 8dbd 8a08 adbd 1147 dabd 78fb 8b3b
000002b0: 2ca4 58be 6408 5bbe 8b87 2dbe f7b8 51be
000002c0: ec97 44bf 5b45 36bf 793c 1fbf 31b1 1dbf
000002d0: 0afd b6bc f00b a7bd 14ac 1dbe 862b e8bd
000002e0: d031 263d 24b4 673c c780 753d 1f6e 923d
000002f0: 0a3c 8dbd 7a63 31be 8a9a 5bbd d92d f1bd
00000300: 0703 a3be fdda 31be 004e 5fbe e80f 5fbe
00000310: 5b47 dabd 7a70 42be bcea 32be 5b69 e7bd
00000320: 3c62 06be a43e bfbd 4cd8 08be 4f28 08be
00000330: dcc4 28bf 53dd 21bf 0edb 38bf c3c1 20bf
00000340: 5b4f 83bd 9d13 0bbe 068d 10be 0e69 ac3b
00000350: 9b1f c3bc 0ff5 a2bd 899c e7bc c48f c0bd
00000360: d73b f43a 61a1 e23d 0918 553d 3cdb 74bd
00000370: fda2 193e c4db ab3d fa9e 533d 32c8 173e
00000380: 4b33 97be a40c a7be 2037 d4be cac7 d6be
00000390: 84c7 85be 2f64 36be 18f2 2ebe 175d 3abe
000003a0: ccb3 20be c856 fdbd 959a fcbd 3c5a 7cbe
000003b0: df10 6fbe c307 febd 1a69 56be e193 11be
000003c0: e0e7 86be 2535 45be 2003 a0be db07 1bbe
000003d0: 6e91 2cbe 453a a6be 4eaa 86be 1aa0 42be
000003e0: 9be3 2abe 3397 19be 51ab 10be f38c fabd
000003f0: 0abf 83be 7fbd 87be 80a7 92be 06b9 cbbe

lstm.weight_hh_l0 f4 [512, 128]
0.07394748 0.04099441 -0.0750993 0.10956122 0.006234275 -0.04620952 -0.016207902 0.008240992
-0.1206323 -0.06590475 -0.0027291495 -0.11004565 -0.13686857 -0.033893228 0.050324835 -0.022077292
-0.09054915 0.0075343954 -0.10917172 -0.091570504 -0.09080899 0.006457264 -0.11319342 0.059975214
-0.026133554 -0.115232565 0.059497245 -0.014584282 -0.10992725 -0.03120148 -0.284501 0.110007204
-0.014409716 -0.018726451 0.10422433 0.0304565 -0.15908709 0.12478377 0.07287688 0.028925821
-0.09877472 0.04604532 0.090382464 0.010491634 -0.037834372 0.07499196 0.1681684 -0.045338713
-0.0076402472 0.0091975955 0.0035617854 -0.041873835 0.023126535 0.031072212 -0.084709235 0.06753606
-0.020272268 -0.070335545 0.13683943 0.012369183 -0.0049674395 -0.09977379 0.050737042 -0.057776943
0.03492786 0.023082435 -0.03718794 0.027313938 -0.11594971 -0.09736073 0.10527448 0.058868483
-0.06251674 0.0821659 -0.0800824 -0.08673774 0.1234517 0.30185467 0.13411453 -0.033006467
0.03429351 -0.0237825 0.14933424 -0.0503006 0.05057096 -0.10967016 0.11922293 -0.10123939
-0.008351588 0.02132455 -0.007194741 0.12818119 0.11785379 0.103463344 -0.10457688 0.059095804
-0.012706498 -0.028846994 -0.02593642 -0.12910442 -0.046567835 -0.025698163 -0.11354926 0.042422205
0.073341995 -0.105984494 0.063791595 0.009296233 -0.065074295 0.08787112 -0.049433116 -0.022203382
-0.066081315 0.13311659 0.018462786 0.099321574 0.08778673 -0.1180447 -0.1496457 -0.04304183
-0.06959486 0.015521207 0.014378485 0.02866404 0.01865755 0.021267233 0.036909558 -0.07887667
0.015364211 -0.007727206 -0.019890413 -0.08637711 -0.0027817918 -0.03446318 0.13447818 0.008002611
-0.011418688 -0.015870042 -0.023130344 0.11790815 -0.084472306 0.059524428 -0.012791638 -0.07581049
0.18252236 -0.08837269 -0.05086785 0.059149742 0.00905341 0.054399405 -0.026604021 0.1957344
-0.005889549 0.022211535 0.01988859 -0.093622625 0.054437928 0.059591476 0.21344425 -0.07727432
-0.12568507 -0.14729853 0.07675056 0.04774096 -0.056725323 -0.04274249 0.005693895 0.00094229024
-0.04038739 0.027289797 -0.053211503 0.20297126 0.30021498 0.09279413 -0.20884983 -0.027916728
0.008289414 -0.083187 -0.062079918 -0.13181432 0.04555386 0.071726814 0.011365659 -0.1207088
-0.035172407 -0.03125061 0.0073100342 0.03201294 0.039862208 0.13246311 0.008234426 0.011479462
-0.0291606 0.17239355 -0.023588438 -0.00475533 -0.039997898 0.19745092 -0.041909546 0.06746595
-0.057488672 -0.04490105 0.034369398 -0.06910513 -0.014101394 0.22264658 0.028423175 0.0058951597
0.0071022436 -0.1076654 0.00750502 0.0104538705 -0.08192919 -0.09952233 -0.013572026 0.12530652
-0.018993448 -0.025449364 0.13090734 -0.023887997 0.019426627 0.040740237 0.023827711 -0.08188531
-0.07420663 0.010270567 -0.20329982 0.049132537 0.0572249 0.11355495 0.055339366 0.032965235
-0.1515173 -0.113676324 -0.024312053 0.02961003 -0.08504916 0.04742215 0.081487946 -0.09725444
0.19030687 0.0667647 0.077924296 0.008449924 -0.06381664 -0.03174411 0.1691037 0.09154476
-0.12785214 0.11093274 0.13710175 -0.26431116 -0.099468775 0.03294437 -0.020588672 -0.10613119
00000000: c771 973d c1e9 273d a9cd 99bd a261 e03d
00000010: e448 cc3b 3246 3dbd 6fc6 84bc 3a05 073c
00000020: 110e f7bd 12f9 86bd 88db 32bb 9d5f e1bd
00000030: 4627 0cbe a0d3 0abd 6a21 4e3d 70db b4bc
00000040: d571 b9bd 17e3 f63b 6c95 dfbd 5189 bbbd
00000050: 10fa b9bd 7597 d33b f4d1 e7bd 92a8 753d
00000060: 0916 d6bc 0dff ebbd 62b3 733d eaf2 6ebc
00000070: 8a21 e1bd 3f9a ffbc 1daa 91be 754b e13d
00000080: bb16 6cbc 3768 99bc 9173 d53d e97f f93c
00000090: bae7 22be a28e ff3d 7940 953d d8f5 ec3c
000000a0: 674a cabd 049a 3c3d 711a b93d 1ae5 2b3c
000000b0: 37f8 1abd 6295 993d 5634 2c3e 16b5 39bd
000000c0: 0a5b fabb 83b1 163c d86c 693b e683 2bbd
000000d0: dc73 bd3c 278b fe3c 097c adbd 5950 8a3d
000000e0: 0712 a6bc 150c 90bd a31f 0c3e 1da8 4a3c
000000f0: e7c5 a2bb 3356 ccbd a5d1 4f3d 84a7 6cbd
00000100: 8410 0f3d 6017 bd3c 6252 18bd 7bc1 df3c
00000110: 0b77 edbd 1065 c7bd 269a d73d 1420 713d
00000120: c708 80bd 9846 a83d 3e02 a4bd 8ea3 b1bd
00000130: 3fd4 fc3d b28c 9a3e 5255 093e ca31 07bd
00000140: 5a77 0c3d 84d3 c2bc 13eb 183e 0008 4ebd
00000150: 7f23 4f3d c09a e0bd 272b f43d 9956 cfbd
00000160: 19d5 08bc d3b0 ae3c ddc1 ebbb ee41 033e
00000170: 545d f13d 97e4 d33d 672c d6bd 710e 723d
00000180: ea2e 50bc 8850 ecbc 9d78 d4bc f333 04be
00000190: eabd 3ebd f484 d2bc 848c e8bd e8c2 2d3d
000001a0: 5434 963d 660e d9bd 2ba5 823d 3a4f 183c
000001b0: ac45 85bd c6f5 b33d 617a 4abd dee3 b5bc
000001c0: a455 87bd b74f 083e 453f 973c 1c69 cb3d
000001d0: 87c9 b33d 6bc1 f1bd b93c 19be a14c 30bd
000001e0: c087 8ebd a94c 7e3c bd93 6b3c d9d0 ea3c
000001f0: b8d7 983c 9f38 ae3c 7a2e 173d 178a a1bd
00000200: 2cba 7b3c 8134 fdbb 38f1 a2bc 7be6 b0bd
00000210: b94e 36bb 4329 0dbd a6b4 093e 621d 033c
00000220: 7315 3bbc e401 82bc d97b bdbc d479 f13d
00000230: d1ff acbd e3cf 733d 0594 51bc 8842 9bbd
00000240: 24e7 3a3e befc b4bd cf5a 50bd 0047 723d
00000250: c154 143c e9d1 5e3d adf0 d9bc 996e 483e
00000260: 1efd c0bb f7f4 b53c 65ed a23c 38bd bfbd
00000270: 4efa 5e3d 3116 743d 2191 5a3e 0042 9ebd
00000280: 96b3 00be 6dd5 16be 662f 9d3d 068c 433d
00000290: d058 68bd c012 2fbd da93 ba3b 0704 773a
000002a0: 3f6d 25bd da8e df3c 4ef4 59bd b3d7 4f3e
000002b0: c7b5 993e d90a be3d bbdc 55be 9fb1 e4bc
000002c0: 53d0 073c f25d aabd 8347 7ebd 55fa 06be
000002d0: af96 3a3d 82e5 923d 0737 3a3c 2d36 f7bd
000002e0: f110 10bd a400 00bd 0389 ef3b 0020 033d
000002f0: 8e46 233d 69a4 073e b0e9 063c 5a14 3c3c
00000300: 36e2 eebc ef87 303e 8a3c c1bc 99d2 9bbb
00000310: d6d4 23bd 9330 4a3e 58a9 2bbd 972b 8a3d
00000320: 3e79 6bbd 2aea 37bd edc6 0c3d fe86 8dbd
00000330: 8909 67bc 77fd 633e b8d7 e83c 2f2c c13b
00000340: f0b9 e83b ad7f dcbd acec f53b b646 2b3c
00000350: 7eca a7bd 5dd2 cbbd 345d 5ebc 5a50 003e
00000360: 2698 9bbc 2f7b d0bc 930c 063e c3b0 c3bc
00000370: 9724 9f3c 3cdf 263d 5532 c33c 7cb3 a7bd
00000380: a5f9 97bd e145 283c d42d 50be 333f 493d
00000390: a864 6a3d 7f8f e83d 88ab 623d 8e06 073d
000003a0: 5a27 1bbe 22cf e8bd 122a c7bc bc90 f23c
000003b0: 412e aebd ba3d 423d 27e3 a63d 562d c7bd
000003c0: cedf 423e eebb 883d c696 9f3d 8d71 0a3c
000003d0: 4cb2 82bd 1d06 02bd 8529 2d3e d27b bb3d
000003e0: aceb 02be b430 e33d 6764 0c3e cb53 87be
000003f0: 49b6 cbbd adf0 063d 93a9 a8bc 4f5b d9bd

lstm.bias_ih_l0 f4 [512]
-0.08759851 -0.43705717 0.06516908 -0.3341136 -0.22773382 -0.2746422 -0.1914376 -0.28654656
-0.065883435 -0.0700813 -0.2529864 -0.14443514 -0.2721504 -0.35379472 -0.46302006 -0.26890782
-0.6695313 -0.34044448 -0.106397614 -0.20792899 -0.15404375 -0.26917523 -0.2836486 -0.08508574
-0.26174295 -0.13625415 -0.13123706 -0.41691393 -0.25389543 -0.22675379 -0.6232097 -0.47765756
-0.10605956 -0.32773963 -0.11876826 -0.23963349 0.03355499 -0.018796673 -0.26965743 -0.3160942
-0.20729448 -0.3657199 -0.30810562 -0.1916114 -0.6061275 -0.19587381 -0.66509616 -0.30102754
-0.2052073 -0.22484872 -0.27368653 -0.089308694 -0.29949373 -0.17320408 -0.31141442 -0.35463727
-0.18245466 -0.11739412 -0.2379316 -0.24389046 -0.1324766 -0.32700017 -0.21774414 -0.41704002
-0.20473734 -0.010983787 -0.23065946 -0.30796224 -0.15835309 -0.23906334 -0.39994377 -0.093708515
-0.20939997 -0.2811778 -0.18975794 -0.21093145 -0.20584638 -0.040340707 -0.16507778 -0.1845423
-0.23510312 -0.037186027 -0.104344435 -0.3118851 -0.3388585 -0.28135532 -0.30224565 -0.17239898
-0.4601381 -0.5025984 -0.17838158 -0.120356575 -0.33636212 -0.10895457 -0.21656632 -0.18569677
-0.24948664 -0.24993747 -0.46585733 -0.17066394 -0.13860244 -0.12789446 -0.060849454 -0.36363685
-0.18492058 -0.1381387 -0.23355335 -0.19960469 -0.40573853 -0.26541108 -0.33917734 -0.5149834
-0.3373618 -0.3375014 -0.35874382 -0.3029585 -0.35110858 -0.11562258 -0.8036354 -0.4364079
-0.22671862 -0.24681741 -0.24303682 -0.18407689 -0.17069 -0.1873492 -0.20795178 -0.7353469
-0.20523727 -0.29837355 0.08036634 -0.2533077 -0.1678101 -0.2815188 -0.12732361 -0.09476023
0.0047681946 -0.088173896 -0.15140395 -0.12655611 -0.24868749 -0.2357073 -0.22334082 -0.17043498
-0.82553697 -0.23247279 -0.056944788 -0.12397967 -0.091638006 -0.19057083 -0.088913634 0.027780721
-0.08614321 -0.00010869353 -0.04271408 -0.32297108 -0.28048578 -0.30279425 -0.121769704 -0.2780428
-0.1048163 -0.29978052 -0.09578294 -0.08152287 -0.020786934 0.09610948 -0.14763647 -0.28486282
-0.12534286 -0.32665676 -0.17513825 -0.000441514 -0.44852155 -0.3037854 -0.28830767 -0.20747991
-0.24791624 -0.07572219 -0.1792151 -0.08533057 -0.32249293 -0.24593206 -0.38824683 -0.16208568
-0.10129464 0.039285857 -0.15548958 -0.19556323 -0.009032593 -0.23563883 -0.31050485 -0.120463334
-0.30757144 -0.06913127 -0.08763147 -0.19154447 -0.13333695 -0.16520284 -0.19319913 -0.24466486
-0.020953013 -0.2973087 0.027243977 -0.014711294 -0.22880124 0.014336546 -0.15140207 -0.03605282
-0.15217954 -0.08641657 -0.107928805 -0.24140006 -0.1851485 -0.23061925 -0.120115325 -0.12369103
-0.38113117 -0.3742215 -0.1410029 -0.018082367 -0.15590836 -0.11177728 -0.034945756 -0.35753638
-0.09511326 -0.23186134 -0.660491 -0.18575095 -0.20567782 -0.28772485 -0.09890868 -0.23489384
-0.25309783 -0.06295102 -0.051927827 -0.30857956 -0.23950237 -0.086178236 -0.2505489 -0.35142818
-0.1504153 -0.09148926 -0.25352767 -0.17919502 -0.31078178 -0.044334274 -0.32332516 -0.5645045
-0.030019004 -0.13658561 -0.11314545 0.23333922 -0.21912973 -0.105772264 -0.28767434 -0.31057188
00000000: d966 b3bd f5c5 dfbe 5e77 853d f010 abbe
00000010: 0e33 69be e79d 8cbe 3808 44be 3bb6 92be
00000020: e5ed 86bd c986 8fbd 6f87 81be cee6 13be
00000030: 4c57 8bbe 9524 b5be f710 edbe 49ae 89be
00000040: 6766 2bbf bd4e aebe fee6 d9bd 56eb 54be
00000050: a5bd 1dbe 56d1 89be 643a 91be 6f41 aebd
00000060: 2c03 86be 3586 0bbe 0263 06be be75 d5be
00000070: 95fe 81be 2532 68be ac8a 1fbf 888f f4be
00000080: c135 d9bd 7dcd a7be c63c f3bd 7b62 75be
00000090: f570 093d 7bfb 99bc 8a10 8abe 19d7 a1be
000000a0: 0145 54be a43f bbbe 05c0 9dbe c735 44be
000000b0: 2c2b 1bbf 2593 48be be43 2abf 4820 9abe
000000c0: dd21 52be be3e 66be a420 8cbe 7ae7 b6bd
000000d0: 3e57 99be 695c 31be b671 9fbe 0493 b5be
000000e0: 65d5 3abe 546c f0bd 57a4 73be 6cbe 79be
000000f0: f2a7 07be 916c a7be 52f8 5ebe 4586 d5be
00000100: aaa6 51be 57f5 33bc fe31 6cbe 3aad 9dbe
00000110: 5027 22be 05cd 74be 6ec5 ccbe 40ea bfbd
00000120: f26c 56be 89f6 8fbe e84f 42be 6afe 57be
00000130: 65c9 52be 4c3c 25bd 260a 29be a8f8 3cbe
00000140: dfbe 70be 6050 18bd 89b2 d5bd 67af 9fbe
00000150: dc7e adbe ce0d 90be f1bf 9abe 5c89 30be
00000160: 3997 ebbe 4aaa 00bf a9a9 36be 827d f6bd
00000170: a837 acbe 9323 dfbd 90c3 5dbe 4b27 3ebe
00000180: 6d79 7fbe 9cef 7fbe da84 eebe 87c2 2ebe
00000190: cced 0dbe c4f6 02be 473d 79bd 9c2e babe
000001a0: d25b 3dbe 3b74 0dbe 9c28 6fbe 2c65 4cbe
000001b0: f6bc cfbe f6e3 87be a7a8 adbe f4d5 03bf
000001c0: b0ba acbe fccc acbe 45ad b7be 601d 9bbe
000001d0: 81c4 b3be 88cb ecbd 0dbb 4dbf db70 dfbe
000001e0: ed28 68be b4bd 7cbe a5de 78be a77e 3cbe
000001f0: 5cc9 2ebe 78d8 3fbe 50f1 54be b23f 3cbf
00000200: b829 52be 6bc4 98be 1c97 a43d 8cb1 81be
00000210: 69d6 2bbe 3b23 90be 1f61 02be a711 c2bd
00000220: 843e 9c3b 8494 b4bd a309 1bbe ed97 01be
00000230: efa7 7ebe 415d 71be 75b3 64be 8286 2ebe
00000240: 6456 53bf 590d 6ebe f03e 69bd 0ee9 fdbd
00000250: b5ac bbbd 0025 43be 5a18 b6bd 6594 e33c
00000260: da6b b0bd 65f2 e3b8 f6f4 2ebd 775c a5be
00000270: d59b 8fbe d907 9bbe 6562 f9bd a05b 8ebe
00000280: eea9 d6bd d57c 99be d929 c4bd 76f5 a6bd
00000290: 5c49 aabc 0cd5 c43d 042e 17be 8ad9 91be
000002a0: e159 00be 8e3f a7be 7157 33be 027b e7b9
000002b0: 9ea4 e5be c389 9bbe 109d 93be 9d75 54be
000002c0: c1dd 7dbe 3c14 9bbd 2a84 37be cbc1 aebd
000002d0: cb1d a5be 9dd5 7bbe 4ac8 c6be caf9 25be
000002e0: 9073 cfbd 35ea 203d a938 1fbe ba41 48be
000002f0: 71fd 13bc 4e4b 71be 7efa 9ebe 7bb5 f6bd
00000300: 017a 9dbe b294 8dbd 2178 b3bd 3c24 44be
00000310: 7b89 08be ef2a 29be fed5 45be 6d89 7abe
00000320: a7a5 abbc d938 98be c32e df3c a407 71bc
00000330: df4a 6abe d5e3 6a3c 2509 1bbe 1fac 13bd
00000340: f4d4 1bbe 2cfb b0bd c709 ddbd 9431 77be
00000350: 9297 3dbe 7427 6cbe 06ff f5bd b951 fdbd
00000360: a023 c3be f699 bfbe 1063 10be 7921 94bc
00000370: 71a6 1fbe 7deb e4bd 4823 0fbd 020f b7be
00000380: beca c2bd 0f6d 6dbe f015 29bf 7f35 3ebe
00000390: 359d 52be ac50 93be a290 cabd 0388 70be
000003a0: 0a96 81be 77ec 80bd 46b2 54bd 24fe 9dbe
000003b0: 1c40 75be 377e b0bd f247 80be 65ee b3be
000003c0: 7806 1abe b95e bbbd 61ce 81be e67e 37be
000003d0: ca1e 9fbe db97 35bd e08a a5be 5e83 10bf
000003e0: 6aea f5bc 19dd 0bbe cdb8 e7bd 7af0 6e3e
000003f0: 8b63 60be 219f d8bd 0d4a 93be 4703 9fbe

lstm.bias_hh_l0 f4 [512]
-0.14523973 -0.35074976 -0.009531166 -0.37209105 -0.29862696 -0.31052473 -0.18988287 -0.2844375
-0.011720954 -0.13407841 -0.24119882 -0.038248345 -0.27304646 -0.2637182 -0.53596514 -0.3053161
-0.65045226 -0.226594 -0.10033797 -0.107546635 -0.09237178 -0.30443844 -0.2366435 -0.026712868
-0.38307387 -0.1541012 -0.20492218 -0.4721268 -0.20729633 -0.19884259 -0.62614447 -0.40239453
-0.23637052 -0.4158623 -0.14874746 -0.25573593 -0.02528765 -0.036616113 -0.16517287 -0.27201894
-0.3520464 -0.37902236 -0.27026236 -0.22444628 -0.58674395 -0.19252917 -0.776865 -0.2707131
-0.27291006 -0.13937666 -0.23326445 -0.0789101 -0.41225076 -0.20064461 -0.24930617 -0.22430849
-0.16201659 -0.09042214 -0.26124647 -0.27208656 -0.2149589 -0.33480054 -0.3063562 -0.34227017
-0.30510274 0.03297874 -0.2559262 -0.21936841 -0.15221293 -0.20562306 -0.39423332 -0.12952079
-0.2560471 -0.21475317 -0.22405174 -0.2636742 -0.27139878 0.038982186 -0.16733989 -0.24312636
-0.2731541 -0.072961226 -0.12466278 -0.26135832 -0.40765744 -0.16847448 -0.22675386 -0.18108782
-0.3441564 -0.37120846 -0.1268752 -0.13052425 -0.3504316 -0.13601959 -0.14092207 -0.2542624
-0.24870016 -0.2197729 -0.45080677 -0.17221488 -0.20092681 -0.14690134 -0.06044109 -0.3227892
-0.16647196 -0.08916686 -0.17472611 -0.18782824 -0.27431944 -0.36838076 -0.30269155 -0.4495889
-0.3565536 -0.27028763 -0.21858986 -0.32064047 -0.2506742 -0.17835867 -0.7609563 -0.38452062
-0.23187259 -0.24310207 -0.29353547 -0.21185865 -0.14194536 -0.27005175 -0.20271489 -0.7210703
-0.17168112 -0.33111793 -0.041040067 -0.26120344 -0.10111767 -0.31091833 0.025806779 -0.19781263
-0.01634627 -0.015626142 -0.100548014 -0.15650247 -0.23942247 -0.18739507 -0.24651888 -0.11971555
-0.7872536 -0.18049212 -0.0740017 -0.037694696 -0.025215216 -0.2796942 -0.015471714 0.04650617
-0.19879554 -0.06345416 -0.17806245 -0.19845755 -0.2834 -0.23387834 -0.17891675 -0.19839159
-0.15441218 -0.2208236 -0.16569042 0.0017232333 -0.13082318 0.09324316 -0.07637406 -0.2680921
-0.17890911 -0.45072225 -0.21030731 -0.079496995 -0.42559302 -0.2534763 -0.35613734 -0.17504448
-0.1915781 -0.10165694 -0.22685133 0.042128578 -0.26678726 -0.29142436 -0.24424253 -0.26128995
-0.10582304 -0.0018974725 -0.086101264 -0.1856588 -0.049053892 -0.08626376 -0.3376618 -0.2195115
-0.16525325 -0.0018524992 -0.18380034 -0.24425526 -0.08329494 -0.23949271 -0.22384211 -0.24951552
-0.11271561 -0.2734986 -0.058007706 -0.01611249 -0.16535196 0.037504222 -0.1165494 -0.04694287
-0.030795386 -0.09245256 0.04666626 -0.33317593 -0.26600587 -0.2385148 -0.03815215 -0.20940028
-0.40704915 -0.2194373 -0.096269734 -0.096152544 -0.24569814 -0.097909704 -0.15043555 -0.41571712
-0.14322743 -0.23631614 -0.5652814 -0.08743162 -0.18989821 -0.32370573 -0.028340762 -0.1691494
-0.3110561 0.0037008706 -0.041207567 -0.3738143 -0.16853702 -0.16823813 -0.30900145 -0.4098445
-0.24722646 -0.122784 -0.11585436 -0.104690835 -0.39706215 0.010797435 -0.21379723 -0.5818152
-0.093197614 -0.18809032 -0.26051363 0.17639872 -0.19355102 -0.17642254 -0.22477767 -0.2712143
00000000: b9b9 14be 7995 b3be 9c28 1cbc b882 bebe
00000010: a2e5 98be 19fd 9ebe a870 42be cba1 91be
00000020: 3f09 40bc da4b 09be d3fc 76be 4caa 1cbd
00000030: bfcc 8bbe 1206 87be 0335 09bf 6452 9cbe
00000040: 0a84 26bf 4208 68be fe7d cdbd 6941 dcbd
00000050: 6a2d bdbd 5bdf 9bbe ac52 72be f2d4 dabc
00000060: 4222 c4be b4cc 1dbe 1fd7 51be 9bba f1be
00000070: 7d45 54be 649d 4bbe 014b 20bf a806 cebe
00000080: 1d0b 72be e7eb d4be 4151 18be d2ef 82be
00000090: 0c28 cfbc c7fa 15bd 1423 29be 1146 8bbe
000000a0: 6d3f b4be 380f c2be d45f 8abe 3fd5 65be
000000b0: da34 16bf 5e26 45be a0e0 46bf e89a 8abe
000000c0: deba 8bbe c1b8 0ebe e0dc 6ebe 9e9b a1bd
000000d0: 8812 d3be c875 4dbe 1e4a 7fbe 20b1 65be
000000e0: ade7 25be 3e2f b9bd 19c2 85be ee4e 8bbe
000000f0: 301e 5cbe fa6a abbe b8da 9cbe 093e afbe
00000100: 6d36 9cbe b714 073d c208 83be 1da2 60be
00000110: b5dd 1bbe da8e 52be f3d8 c9be 19a1 04be
00000120: 9b18 83be 41e8 5bbe d26d 65be 4e00 87be
00000130: c8f4 8abe c9ab 1f3d 265b 2bbe 1ef6 78be
00000140: dbda 8bbe b26c 95bd 334f ffbd c2d0 85be
00000150: 7ab8 d0be 9384 2cbe 2a32 68be 166f 39be
00000160: 4535 b0be 090f bebe 93eb 01be 26a8 05be
00000170: c56b b3be b848 0bbe e04d 10be ae2e 82be
00000180: 41ab 7ebe 260c 61be 25d0 e6be 1959 30be
00000190: c2bf 4dbe 4e6d 16be 1491 77bd a044 a5be
000001a0: a077 2abe 1d9d b6bd 67eb 32be 0c56 40be
000001b0: 9973 8cbe 679c bcbe 63fa 9abe 8430 e6be
000001c0: 328e b6be 2463 8abe 05d6 5fbe fd2a a4be
000001d0: 5e58 80be a8a3 36be 08ce 42bf e3df c4be
000001e0: 0270 6dbe c0ef 78be 484a 96be 79f1 58be
000001f0: 205a 11be 3944 8abe 7e94 4fbe 1098 38bf
00000200: 2dcd 2fbe 4a88 a9be a119 28bd 75bc 85be
00000210: c816 cfbd b030 9fbe bd68 d33c 658f 4abe
00000220: 9de8 85bc 6502 80bc 1eec cdbd 2f42 20be
00000230: 2a2b 75be 7ee4 3fbe 726f 7cbe 6d2d f5bd
00000240: 7489 49bf edd2 38be 348e 97bd c165 1abd
00000250: 2490 cebc 1434 8fbe 127d 7dbc 417d 3e3d
00000260: 0f91 4bbe 41f4 81bd 0156 36be 7538 4bbe
00000270: ce19 91be ce7d 6fbe f435 37be 2a27 4bbe
00000280: 3a1e 1ebe 951f 62be c0aa 29be 1dde e13a
00000290: 83f6 05be 45f6 be3d 016a 9cbd 5e43 89be
000002a0: f333 37be 11c5 e6be cd5a 57be 52cf a2bd
000002b0: 54e7 d9be a5c7 81be a257 b6be dc3e 33be
000002c0: 0d2d 44be 8431 d0bd b74b 68be 048f 2c3d
000002d0: 5798 88be 9335 95be b71a 7abe ccc7 85be
000002e0: c0b9 d8bd 9db4 f8ba dc55 b0bd 571d 3ebe
000002f0: bcec 48bd 0eab b0bd 02e2 acbe 9fc7 60be
00000300: 2638 29be 8fcf f2ba 2836 3cbe 0d1e 7abe
00000310: 8a96 aabd 943d 75be de36 65be ff80 7fbe
00000320: 71d7 e6bd 0208 8cbe 7d99 6dbd 57fe 83bc
00000330: 0652 29be 079e 193d 74b1 eebd 2b47 40bd
00000340: 9b46 fcbc c557 bdbd 1f25 3f3d 0996 aabe
00000350: ec31 88be 393d 74be 6e45 1cbd 076d 56be
00000360: bf68 d0be 2cb4 60be 1129 c5bd a0eb c4bd
00000370: 4b98 7bbe e284 c8bd c70b 1abe e0d8 d4be
00000380: 36aa 12be dcfc 71be 48b6 10bf 590f b3bd
00000390: ad74 42be c2bc a5be e32a e8bc 8035 2dbe
000003a0: bf42 9fbe 4e8a 723b 44c9 28bd 9764 bfbe
000003b0: f894 2cbe 9e46 2cbe 7035 9ebe 23d7 d1be
000003c0: ef28 7dbe 2e76 fbbd 0d45 edbd 2668 d6bd
000003d0: bb4b cbbe bae7 303c a9ed 5abe d7f1 14bf
000003e0: 64de bebd c09a 40be 0b62 85be dea1 343e
000003f0: 3d32 46be 1ca8 34be 1e2c 66be 9adc 8abe

lstm.weight_ih_l1 f4 [512, 128]
0.039944645 -0.067841046 0.02229023 0.033684667 0.105259515 -0.16046898 0.04261879 -0.02251537
-0.03892457 0.012820771 -0.09391284 -0.12827766 -0.023307718 0.09047063 0.02995761 0.044990882
0.0656284 -0.083002664 -0.030621424 -0.013807572 -0.0090066865 0.017747387 0.029684972 0.35526213
0.010272444 -0.024740923 0.08796196 -0.2306165 -0.05682424 -0.01378527 -0.38364252 0.027689604
-0.067814186 0.20842922 0.04344873 -0.0031434568 -0.1696841 0.06279432 0.013195705 0.03196251
0.04171024 0.090783514 0.22077607 0.04773957 -0.32897973 0.07092557 0.46450156 0.120181255
0.0012620802 -0.07796807 0.17380042 -0.10688235 -0.24294643 -0.025598822 -0.30270585 0.28647938
-0.06050592 -0.0044885874 0.07542672 0.036218993 -0.08250775 -0.13694243 0.18840863 -0.11904848
0.25924873 0.13851185 0.04715046 -0.062227584 0.020477979 -0.07324824 -0.013024354 0.050057735
-0.03366976 0.066852294 -0.07006676 -0.08036905 0.1485166 0.48150915 0.029877104 0.043580834
-0.008490749 0.049213905 -0.07328319 -0.24158601 0.07298432 0.03148567 -0.045858584 -0.37165132
-0.07237833 -0.22176723 0.076382995 0.054175597 0.062339615 -0.058285277 -0.0039904243 0.017527215
-0.041178625 0.2116812 0.16861473 -0.21534678 -0.02918854 -0.058129475 -0.077845395 0.08561187
0.046725318 -0.0764341 0.03752656 0.02595819 -0.25274757 -0.0031543514 -0.061632067 0.17906217
0.047919 -0.030093778 0.015287704 -0.015252639 0.25720417 -0.011315479 -0.5138121 0.027583215
0.027159862 0.107039824 -0.09013934 0.10005556 0.1341297 -0.0023311537 0.11539713 -0.1137385
0.06985996 0.03749193 0.03535886 0.08310177 0.03188339 -0.06838878 0.120551445 -0.075246096
-0.07728714 -0.13724357 -0.10745234 -0.120321386 -0.14781111 0.05568593 0.040410317 -0.17553867
-0.012432268 -0.06931879 -0.10920587 0.03739772 -0.1308445 -0.006089838 -0.11692114 -0.029240947
-0.028212676 -0.074006096 0.0034978704 0.033118203 -0.067472935 -0.016919145 -0.34877226 -0.06003433
0.0038332264 -0.08453739 0.061514884 0.1011778 -0.086674355 0.020346308 -0.003793598 -0.005770229
-0.06382428 -0.01067094 0.055309635 -0.015476775 -0.16639407 -0.005353311 0.20039621 0.09008596
-0.036946137 -0.13629213 -0.07064956 -0.21016027 0.01763086 -0.0041006044 0.010255793 0.049417906
-0.042180054 -0.10199784 0.19172229 0.14252388 0.071717404 -0.020872643 -0.017360803 0.0052559352
-0.07653289 -0.009630177 -0.014435683 0.07658944 -0.14597681 -0.045069966 0.062385097 0.06775728
-0.077746555 0.04937309 0.010591837 -0.060401533 0.09265495 0.07555289 0.14188737 -0.12278171
0.09109986 -0.0031184056 -0.0038878473 0.007831711 0.022527276 -0.041539736 0.06434789 -0.054872364
-0.04302795 0.0561659 0.10558226 0.11491735 0.02859204 0.14572242 -0.09375916 -0.035143513
-0.06107681 -0.0017183069 -0.035753027 -0.116960995 -0.0424338 0.06575429 -0.069528416 -0.010077812
-0.055542357 0.0030734742 0.066023245 -0.054386985 -0.012360686 0.13862804 -0.13573222 0.030360155
0.10328557 0.13776326 0.08596498 0.091271356 0.08286649 -0.090950646 0.112451404 -0.009226628
-0.05287539 0.031799212 -0.0020132808 0.22105 -0.011072059 0.047226723 -0.028323948 -0.15473832
00000000: ff9c 233d 3ff0 8abd 009a b63c eff8 093d
00000010: 4d92 d73d fb51 24be 0a91 2e3d 2772 b8bc
00000020: 5f6f 1fbd 360e 523c 6055 c0bd 385b 03be
00000030: d4ef bebc aa48 b93d a969 f53c 5c48 383d
00000040: 2f68 863d 4dfd a9bd c8d9 fabc 2839 62bc
00000050: c890 13bc f862 913c e62d f33c ebe4 b53e
00000060: c14d 283c 7aad cabc 6625 b43d bb26 6cbe
00000070: 89c0 68bd 9ddb 61bc cb6c c4be 4fd5 e23c
00000080: 2ae2 8abd 786e 553e 4cf7 313d 7402 4ebb
00000090: abc1 2dbe 4f9a 803d cc32 583c 1feb 023d
000000a0: 5bd8 2a3d b5ec b93d 1f13 623e 918a 433d
000000b0: 0870 a8be 6d41 913d 26d3 ed3e 9721 f63d
000000c0: 626c a53a b9ad 9fbd bdf8 313e 22e5 dabd
000000d0: f3c6 78be 9fb4 d1bc 43fc 9abe 6dad 923e
000000e0: 0ed5 77bd 0015 93bb 5379 9a3d 5e5a 143d
000000f0: d3f9 a8bd a33a 0cbe 31ee 403e b1cf f3bd
00000100: 40bc 843e 0dd6 0d3e d720 413d 5ae2 7ebd
00000110: 6fc1 a73c 2c03 96bd 1a64 55bc 5709 4d3d
00000120: 4de9 09bd dbe9 883d 297f 8fbd 8798 a4bd
00000130: bc14 183e 5e88 f63e d4c0 f43c d181 323d
00000140: c81c 0bbc 8594 493d 7f15 96bd 5362 77be
00000150: ce78 953d 1ef7 003d 36d6 3bbd 1549 bebe
00000160: 173b 94bd f316 63be b06e 9c3d 3be7 5d3d
00000170: d357 7f3d 8bbc 6ebd 1bc2 82bb 3c95 8f3c
00000180: ebaa 28bd f5c2 583e 57a9 2c3e de83 5cbe
00000190: ce1c efbc 2c19 6ebd 686d 9fbd 4755 af3d
000001a0: 0c63 3f3d 7b89 9cbd 73b5 193d 45a6 d43c
000001b0: 2168 81be 3cb9 4ebb e871 7cbd 135c 373e
000001c0: b746 443d 3a87 f6bc 4779 7a3c 34e6 79bc
000001d0: 44b0 833e 8f64 39bc 3189 03bf 32f6 e13c
000001e0: 5c7e de3c b237 db3d f99a b8bd eee9 cc3d
000001f0: 4c59 093e 45c6 18bb 5555 ec3d bbef e8bd
00000200: bd12 8f3d 2391 193d 74d4 103d 4331 aa3d
00000210: 2898 023d 6b0f 8cbd ade3 f63d a01a 9abd
00000220: b848 9ebd 9489 0cbe f90f dcbd 0f6b f6bd
00000230: cc5b 17be ee16 643d 4a85 253d 69c0 33be
00000240: b6b0 4bbc 03f7 8dbd 54a7 dfbd 5a2e 193d
00000250: 1afc 05be 448d c7bb 5a74 efbd b68a efbc
00000260: 451e e7bc 8290 97bd 873c 653b f4a6 073d
00000270: 402f 8abd 059a 8abc 4792 b2be 8fe6 75bd
00000280: de36 7b3b f021 adbd 08f7 7b3d 4e36 cf3d
00000290: 5382 b1bd 4dad a63c 039e 78bb 3014 bdbb
000002a0: 4eb6 82bd 2bd5 2ebc 5b8c 623d 4d92 7dbc
000002b0: 3563 2abe d46a afbb aa34 4d3e fd7e b83d
000002c0: d554 17bd 2a90 0bbe b7b0 90bd 4134 57be
000002d0: 986e 903c 5d5e 86bb ea07 283c 6e6a 4a3d
000002e0: fec4 2cbd 3ee4 d0bd d952 443e c8f1 113e
000002f0: 93e0 923d 1bfd aabc 3e38 8ebc fb39 ac3b
00000300: 47bd 9cbd e4c7 1dbc a583 6cbc edda 9c3d
00000310: f27a 15be 499b 38bd 8487 7f3d 54c4 8a3d
00000320: 9639 9fbd 703b 4a3d 6289 2d3c 9967 77bd
00000330: e1c1 bd3d 79bb 9a3d ec4a 113e fa74 fbbd
00000340: 9092 ba3d 2a5e 4cbb 41cb 7ebb 9450 003c
00000350: 1f8b b83c 9225 2abd d4c8 833d d8c1 60bd
00000360: 133e 30bd 370e 663d 833b d83d ca59 eb3d
00000370: db39 ea3c 4238 153e cd04 c0bd a5f2 0fbd
00000380: ad2b 7abd d038 e1ba c471 12bd 3f89 efbd
00000390: 10cf 2dbd 2faa 863d ea64 8ebd 681d 25bc
000003a0: 6280 63bd 576c 493b 3237 873d e3c4 5ebd
000003b0: 7a84 4abc 82f4 0d3e 63fd 0abe dcb5 f83c
000003c0: 6387 d33d d011 0d3e 680e b03d 7aec ba3d
000003d0: e8b5 a93d 5544 babd ec4c e63d 482b 17bc
000003e0: dd93 58bd e43f 023d 3ff1 03bb ee5a 623e
000003f0: 9567 35bc cf70 413d a007 e8bc b973 1ebe

lstm.weight_hh_l1 f4 [512, 128]
0.016102845 0.022650393 0.04017199 -0.02950035 -0.062722325 -0.01147851 -0.041490406 0.12508288
0.028191261 -0.058889937 -0.05392751 0.010361356 -0.15025856 -0.0052840267 -0.030905174 -0.08340846
0.17455979 -0.016499145 -0.010303768 0.047421567 0.06868542 -0.039342664 -0.038531214 0.097936444
-0.15745263 -0.06944857 -0.06704026 -0.06997296 -0.0065211365 0.015365618 0.0672459 -0.033356816
0.00011961472 0.08548089 -0.0034341987 0.058413923 0.013697054 0.09785148 0.061948307 -0.17048344
0.10964438 0.012054435 -0.020453105 -0.005234283 -0.06727742 0.09845224 -0.14952019 -0.02627586
-0.015467885 -0.107208684 -0.014690068 -0.09965941 -0.030543126 0.039701033 -0.07889672 -0.10082004
-0.018137168 0.031928685 -0.044089146 -0.027056225 0.12923764 0.12451401 -0.047297344 -0.08470127
0.025849458 0.07961144 -0.14119837 -0.040479664 -0.10399685 -0.017890805 0.006421586 0.12903948
0.014374866 0.038358703 -0.12573206 0.04154135 0.15011385 -0.053468686 -0.082156956 0.076291755
0.13455717 0.08996533 -0.11118753 0.10627275 0.018682886 -0.052085344 -0.012103216 -0.08061381
0.06335949 0.009030271 -0.08135318 0.023106696 0.07158906 -0.15000859 0.00403057 -0.19058934
0.008112871 -0.07082684 -0.081484444 0.03591282 -0.0068212207 0.035095673 0.03663955 0.030909883
-0.05565147 0.020279342 0.103530526 0.021732682 -0.09648807 -0.06441681 -0.04495647 0.0057121995
0.14135292 -0.0016737494 0.015224677 -0.012404071 -0.06037003 9.792352e-05 0.039688252 -0.014317506
-0.06366356 -0.03789227 -0.07003739 0.047368415 0.030926103 -0.1042138 0.02742789 0.020269485
-0.028466294 -0.124302864 0.02697973 0.041709095 0.12569234 0.018332882 -0.0508794 0.08609811
0.029828172 0.045819063 0.07154295 0.018868288 -0.04474464 -0.010867795 -0.06835022 -0.011628161
0.11343367 -0.015071572 0.12187663 0.15170467 0.06338571 0.008369392 -0.022985805 -0.027676083
0.059012037 -0.0399176 -0.10747658 0.039948735 -0.034209207 0.014350558 0.00030148512 -0.05910264
-0.09757323 0.05209258 0.01805456 0.020089438 0.015095554 0.115360014 0.0034562633 -0.11413002
-0.021211335 0.007962764 0.067729995 -0.017718025 -0.024317889 0.030886939 -0.10397519 0.043057878
0.018726667 0.03429677 -0.042021412 0.018273542 0.041799437 -0.1223461 -0.07022302 -0.087588966
0.0042698085 -0.0022478243 -0.03386283 -0.0652424 -0.024961215 -0.023947526 -0.0029327164 0.010912999
0.065902516 0.15284562 -0.08394422 0.032770313 0.0007401814 -0.034780085 -0.0008664233 -0.04199891
-0.0070362673 0.051565073 -0.12167898 -0.041629016 -0.047480203 -0.027366173 0.034621794 -0.014286855
0.03639076 0.118149124 0.0063799047 0.09082224 -0.14066814 -0.10429754 0.041346002 -0.028024005
0.041857354 0.070829906 -0.0075111906 0.057903975 -0.0133072175 0.019890781 0.051950995 -0.06610539
-0.049204372 0.07741112 -0.033393253 0.06866579 -0.05871844 0.041047804 -0.03912969 -0.025163403
-0.055663243 -0.06088073 -0.03364417 -0.004555963 0.030556157 -0.078449346 -0.02936883 -0.045524865
0.07017721 -0.065008104 -0.050341945 -0.027917335 -0.09072868 0.049954135 -0.017381793 -0.057349324
-0.10166698 -0.09135293 -0.012402845 0.018759225 0.037397496 -0.034605857 0.0012261276 -0.020266892
00000000: 1dea 833c 518d b93c 628b 243d b8aa f1bc
00000010: 9074 80bd 5c10 3cbc d8f1 29bd ba15 003e
00000020: 5cf1 e63c 9336 71bd 18e3 5cbd adc2 293c
00000030: 61dd 19be a125 adbb d92c fdbc 0ed2 aabd
00000040: cdbf 323e 3729 87bc 23d1 28bc 1e3d 423d
00000050: f1aa 8c3d c625 21bd e8d2 1dbd e792 c83d
00000060: 433b 21be 0d3b 8ebd 674c 89bd fc4d 8fbd
00000070: 42af d5bb 13c0 7b3c 38b8 893d 28a1 08bd
00000080: aad9 fa38 9b10 af3d 4b10 61bb 7043 6f3d
00000090: 9c69 603c 5b66 c83d 82bd 7d3d 3693 2ebe
000000a0: 3c8d e03d f77f 453c 458d a7bc 5984 abbb
000000b0: bec8 89bd 54a1 c93d d21b 19be 7940 d7bc
000000c0: 036d 7dbc 3a90 dbbd 9cae 70bc 3c1a ccbd
000000d0: 9435 fabc 8d9d 223d 9b94 a1bd bd7a cebd
000000e0: 6694 94bc a7c7 023d d296 34bd 04a5 ddbc
000000f0: df56 043e 3401 ff3d dcba 41bd dc77 adbd
00000100: 3ec2 d33c 530b a33d 4e96 10be 01ce 25bd
00000110: 4dfc d4bd bd8f 92bc 2b6c d23b ed22 043e
00000120: 8f84 6b3c 041e 1d3d e8bf 00be 4327 2a3d
00000130: 72b7 193e fb01 5bbd e841 a8bd da3e 9c3d
00000140: 5bc9 093e be3f b83d 4ab6 e3bd 87a5 d93d
00000150: da0c 993c 7157 55bd 914c 46bc da18 a5bd
00000160: 9fc2 813d b4f3 133c 7f9c a6bd 414a bd3c
00000170: 499d 923d da9b 19be df12 843b da29 43be
00000180: d9eb 043c aa0d 91bd 51e1 a6bd 5219 133d
00000190: 8c84 dfbb 7bc0 0f3d 5a13 163d b936 fd3c
000001a0: ccf2 63bd dd20 a63c d007 d43d bd08 b23c
000001b0: 8a9b c5bd f6ec 83bd 4724 38bd 672d bb3b
000001c0: d2be 103e b661 dbba ec70 793c 723a 4bbc
000001d0: 9146 77bd 4a5c cd38 2690 223d f993 6abc
000001e0: 0a62 82bd ed34 1bbd c36f 8fbd 6205 423d
000001f0: bd58 fd3c 0b6e d5bd 74b0 e03c 310c a63c
00000200: 2532 e9bc 8092 febd 9804 dd3c 28d7 2a3d
00000210: 7eb5 003e d72e 963c eb66 50bd 3554 b03d
00000220: 365a f43c c5ac 3b3d 1c85 923d ab91 9a3c
00000230: 2846 37bd d60e 32bc 33fb 8bbd 0b84 3ebc
00000240: e94f e83d c1ee 76bc 749a f93d 7858 1b3e
00000250: 5ed0 813d c61f 093c ba4c bcbc f4b8 e2bc
00000260: 9bb6 713d a380 23bd ae1c dcbd 49a1 233d
00000270: f41e 0cbd 9a1e 6b3c a610 9e39 9c15 72bd
00000280: 79d4 c7bd 075f 553d 28e7 933c 9b92 a43c
00000290: 5853 773c df41 ec3d 7a82 623b 00bd e9bd
000002a0: 65c3 adbc 4176 023c 06b6 8a3d 6425 91bc
000002b0: 4f36 c7bc 9b06 fd3c f2f0 d4bd 755d 303d
000002c0: ab68 993c c57a 0c3d a51e 2cbd 65b2 953c
000002d0: e335 2b3d 9890 fabd 16d1 8fbd d861 b3bd
000002e0: c0e9 8b3b 3c50 13bb c0b3 0abd cf9d 85bd
000002f0: 767b ccbc 9a2d c4bc d132 40bb 6fcc 323c
00000300: e6f7 863d 9083 1c3e f2ea abbd 2a3a 063d
00000310: bc08 423a 9075 0ebd af20 63ba 0d07 2cbd
00000320: 7d90 e6bb e635 533d d432 f9bd 3083 2abd
00000330: 9a7a 42bd 062f e0bc 95cf 0d3d 6a13 6abc
00000340: 7a0e 153d 2bf8 f13d 850e d13b 0301 ba3d
00000350: 4f0b 10be f399 d5bd 6d5a 293d 9992 e5bc
00000360: 9e72 2b3d 450f 913d 6f20 f6bb b82c 6d3d
00000370: 8406 5abc fef1 a23c 91ca 543d 4362 87bd
00000380: 868a 49bd b989 9e3d 5dc7 08bd a6a0 8c3d
00000390: bf82 70bd be21 283d 7446 20bd 7b23 cebc
000003a0: 24ff 63bd 135e 79bd 78ce 09bd 304a 95bb
000003b0: e850 fa3c 0daa a0bd e796 f0bc 4878 3abd
000003c0: 12b9 8f3d f822 85bd 5b33 4ebd e5b2 e4bc
000003d0: f5cf b9bd b59c 4c3d 4364 8ebc 20e7 6abd
000003e0: c736 d0bd 3f17 bbbd 4d35 4bbc f2ac 993c
000003f0: 1e2e 193d dfbe 0dbd 04b6 a03a c106 a6bc

lstm.bias_ih_l1 f4 [512]
-0.68693084 -0.5148282 -0.5881158 -0.4738192 -0.59794676 -0.2909563 -0.4570895 -0.6564495
-0.82177234 -0.5502251 -0.43713516 -0.558809 -0.67471504 -0.30839312 -0.55697197 -0.6490036
-0.52698237 -0.5445513 -0.58238745 -0.3703334 -0.49310833 -0.5690609 -0.5541436 -0.5606958
-0.5834892 -0.53640765 -0.57002556 -0.6030856 -0.54689664 -0.7486341 -0.49837223 -0.5775851
-0.94183165 -0.49321872 -0.49333838 -0.599088 -0.60994875 -0.6761132 -0.6596961 -0.7695972
-0.49783927 -0.6421148 -0.36770555 -0.67228985 -0.43952018 -0.43555585 -0.4626982 -0.61664057
-0.6588561 -0.35204253 -0.49454927 -0.497768 -0.51375115 -0.5459369 -0.59894186 -0.566879
-0.442634 -0.6577117 -0.78582585 -0.53452635 -0.61871153 -0.37187573 -0.5491985 -0.4816992
-0.47120455 -0.5418897 -0.63492084 -0.7210858 -0.43617162 -0.8763065 -0.43536466 -0.99367243
-0.5500858 -0.6013682 -0.45583528 -0.5062146 -0.73076123 -0.7513308 -0.5216137 -0.5097616
-0.5664838 -0.38584465 -0.62540025 -0.529279 -0.44557565 -0.41384044 -0.55290926 -0.6057735
-0.43165115 -0.50204474 -0.6347182 -0.46291938 -0.5214855 -0.43390697 -0.6824287 -0.48066264
-0.50940675 -0.75502 -0.5548671 -0.5719722 -0.39732814 -0.96519893 -0.51229626 -0.5288742
-0.8098599 -0.7093105 -0.51017123 -0.48817867 -0.5858585 -0.3822797 -0.50322425 -0.5094241
-0.60281575 -0.49515516 -0.61966217 -0.78310466 -0.33751705 -0.49707016 -0.4035876 -0.36667603
-0.6763339 -0.35103622 -0.6258033 -0.5853783 -0.5046692 -0.48444977 -0.47096086 -0.47689548
-0.18240096 -0.38435134 -0.3431377 -0.47376475 -0.4015305 -0.17256337 -0.31240538 -0.3822585
-0.5360577 -0.26643986 -0.25488284 -0.3074255 -0.50525326 -0.1300356 -0.34769952 -0.49761876
-0.591621 -0.41754213 -0.47075295 -0.2581661 -0.35893646 -0.5377418 -0.40049827 -0.45343542
-0.48147392 -0.32253733 -0.23226044 -0.44625846 -0.25406942 -0.52190274 -0.29610363 -0.21833256
-0.58794093 -0.4174194 -0.41841108 -0.29000884 -0.28058344 -0.31849158 -0.4003773 -0.31626865
-0.39137906 -0.3859961 -0.34525228 -0.43372574 -0.3479467 -0.22152056 -0.34029663 -0.3697857
-0.26426047 -0.19136168 -0.3033449 -0.17627716 -0.25963095 -0.38129017 -0.5192405 -0.17735787
-0.31953335 -0.36669943 -0.42433777 -0.20180322 -0.45529607 -0.35380712 -0.508609 -0.3283196
-0.2782419 -0.39163718 -0.3454347 -0.5248386 -0.25896692 -0.31222773 -0.31596214 -0.2935046
-0.33998123 -0.49195582 -0.3089442 -0.16699219 -0.32002315 -0.44141766 -0.3569612 -0.34350324
-0.32481238 -0.22356254 -0.24530636 -0.4408897 -0.36630216 -0.3365461 -0.2784514 -0.39450368
-0.35501695 -0.34182516 -0.52296466 -0.28328472 -0.435146 -0.34611186 -0.49244362 -0.29135516
-0.32782936 -0.38774493 -0.45291644 -0.502632 -0.31380627 -0.5467402 -0.3614829 -0.27752563
-0.42858347 -0.5507638 -0.410387 -0.45227268 -0.24356419 -0.32643887 -0.26151314 -0.30903944
-0.40285254 -0.36652824 -0.22212973 -0.23406073 -0.19035229 -0.33067113 -0.3222231 -0.17596011
-0.4256774 -0.2275352 -0.359352 -0.36693528 -0.22413096 -0.23446333 -0.35432735 -0.3864962
00000000: b3da 2fbf c8cb 03bf c28e 16bf 6e98 f2be
00000010: 0a13 19bf 39f8 94be a307 eabe 130d 28bf
00000020: ac5f 52bf 8ddb 0cbf 2ed0 dfbe 1b0e 0fbf
00000030: 20ba 2cbf b4e5 9dbe b795 0ebf 1a25 26bf
00000040: 51e8 06bf b767 0bbf 5817 15bf 579c bdbe
00000050: b278 fcbe faad 11bf 5bdc 0dbf c389 0fbf
00000060: 8c5f 15bf 0352 09bf 32ed 11bf d163 1abf
00000070: 6b01 0cbf 7ca6 3fbf a52a ffbe 9edc 13bf
00000080: e11b 71bf 2a87 fcbe d996 fcbe d55d 19bf
00000090: 9a25 1cbf c115 2dbf d8e1 28bf 5204 45bf
000000a0: cae4 febe a361 24bf e743 bcbe 301b 2cbf
000000b0: ca08 e1be 2d01 dfbe c7e6 ecbe 28dc 1dbf
000000c0: cbaa 28bf eb3e b4be 9035 fdbe 73db febe
000000d0: 3285 03bf 85c2 0bbf 4154 19bf fb1e 11bf
000000e0: eca0 e2be cb5f 28bf e22b 49bf b8d6 08bf
000000f0: e163 1ebf 7f66 bebe 4698 0cbf 47a1 f6be
00000100: b941 f1be 49b9 0abf 2c8a 22bf 1499 38bf
00000110: e351 dfbe 9f55 60bf 1ee8 debe 5161 7ebf
00000120: 6cd2 0cbf 44f3 19bf 3e63 e9be 4897 01bf
00000130: 2b13 3bbf 3757 40bf 7a88 05bf bc7f 02bf
00000140: 1505 11bf 6e8d c5be 3b1a 20bf d47e 07bf
00000150: 7e22 e4be e5e2 d3be 768b 0dbf f913 1bbf
00000160: 6101 ddbe 0186 00bf e47c 22bf c503 edbe
00000170: 1380 05bf 0e29 debe a6b3 2ebf 6a19 f6be
00000180: 7b68 02bf fe48 41bf c50b 0ebf c56c 12bf
00000190: 986e cbbe 4717 77bf d925 03bf 4d64 07bf
000001a0: fa52 4fbf 5f95 35bf 959a 02bf 8ef2 f9be
000001b0: d3fa 15bf 2aba c3be 4ed3 00bf 9e69 02bf
000001c0: 2252 1abf fa84 fdbe 2ea2 1ebf 8c79 48bf
000001d0: 09cf acbe fb7f febe 09a3 cebe f6bc bbbe
000001e0: 3824 2dbf 05bb b3be a534 20bf 5adb 15bf
000001f0: 0032 01bf cd09 f8be c821 f1be a52b f4be
00000200: 51c7 3abe b3c9 c4be bfaf afbe 4b91 f2be
00000210: 6895 cdbe 74b4 30be 99f3 9fbe 63b7 c3be
00000220: 143b 09bf ce6a 88be 0180 82be e066 9dbe
00000230: 4758 01bf 0d28 05be ac05 b2be e3c7 febe
00000240: 7974 17bf 15c8 d5be 8806 f1be 592e 84be
00000250: 85c6 b7be 72a9 09bf 1c0e cdbe b028 e8be
00000260: c083 f6be 9d23 a5be aed5 6dbe fd7b e4be
00000270: 6315 82be 6b9b 05bf e59a 97be 9292 5fbe
00000280: 4c83 16bf ffb7 d5be fa39 d6be 0a7c 94be
00000290: a2a8 8fbe 5411 a3be 41fe ccbe f7ed a1be
000002a0: d662 c8be 48a1 c5be e8c4 b0be 4d11 debe
000002b0: 1226 b2be 49d6 62be 5c3b aebe 8d54 bdbe
000002c0: 264d 87be 51f4 43be 0650 9bbe 0082 34be
000002d0: 59ee 84be 7738 c3be f2ec 04bf 4d9d 35be
000002e0: e099 a3be 07c0 bbbe cd42 d9be 81a5 4ebe
000002f0: 911c e9be 3526 b5be 3334 02bf 8219 a8be
00000300: b975 8ebe ab84 c8be d1dc b0be d35b 06bf
00000310: 5097 84be 50dc 9fbe cac5 a1be 3c46 96be
00000320: 0512 aebe a2e1 fbbe ef2d 9ebe 0000 2bbe
00000330: 13da a3be 7f01 e2be 9ec3 b6be a8df afbe
00000340: cf4d a6be 94ed 64be 9731 7bbe 4bbc e1be
00000350: f58b bbbe c54f acbe 2f91 8ebe 63fc c9be
00000360: c8c4 b5be b503 afbe 03e1 05bf b20a 91be
00000370: 75cb debe 9335 b1be 9221 fcbe 812c 95be
00000380: 40d9 a7be 8186 c6be aae4 e7be 7eac 00bf
00000390: 37ab a0be 2af7 0bbf 4914 b9be d717 8ebe
000003a0: 4b6f dbbe dbfe 0cbf 3f1e d2be 4990 e7be
000003b0: e468 79be ff22 a7be 0de5 85be 6b3a 9ebe
000003c0: b042 cebe 97a9 bbbe fa75 63be 9ead 6fbe
000003d0: b6eb 42be ba4d a9be 6dfa a4be e32e 34be
000003e0: 63f2 d9be fdfe 68be fcfc b7be f1de bbbe
000003f0: 9682 65be 2817 70be 656a b5be d4e2 c5be

lstm.bias_hh_l1 f4 [512]
-0.7108055 -0.54247016 -0.4831382 -0.510551 -0.5870083 -0.2630058 -0.44822347 -0.5800483
-0.8104331 -0.507267 -0.4390445 -0.51307225 -0.7953682 -0.38253844 -0.5528323 -0.7941295
-0.603682 -0.57067585 -0.508986 -0.40671018 -0.49216852 -0.612256 -0.6312377 -0.5442135
-0.6527459 -0.6395638 -0.54930204 -0.4872389 -0.57904124 -0.7404391 -0.46039417 -0.60722715
-0.99286574 -0.47512498 -0.48936576 -0.43486694 -0.5478754 -0.59377086 -0.65702724 -0.7112356
-0.37743035 -0.6022733 -0.48488894 -0.6241009 -0.45027354 -0.52336466 -0.46660954 -0.5210159
-0.5183939 -0.50124204 -0.4529901 -0.41286287 -0.47754154 -0.5396112 -0.6374871 -0.63568544
-0.34446147 -0.6028698 -0.8061719 -0.5065849 -0.6112894 -0.3417171 -0.5217589 -0.43731475
-0.48138902 -0.54212874 -0.6102812 -0.72336364 -0.40897506 -0.79849666 -0.47930622 -1.0603046
-0.5361319 -0.50832754 -0.55033994 -0.6485476 -0.6182425 -0.6176731 -0.3932699 -0.42992857
-0.5254738 -0.36757538 -0.56824744 -0.6258294 -0.5265997 -0.5269064 -0.6529717 -0.5928301
-0.4273452 -0.51225173 -0.61975175 -0.36925367 -0.5027812 -0.52247006 -0.6711615 -0.47990388
-0.5145389 -0.66851294 -0.61814857 -0.6154671 -0.42874703 -0.85701334 -0.54461575 -0.46537846
-0.9670266 -0.639274 -0.5492515 -0.5046031 -0.59366083 -0.43568107 -0.56530094 -0.51506495
-0.5931212 -0.4423145 -0.652194 -0.7904929 -0.44043234 -0.560728 -0.44751874 -0.30575112
-0.6256365 -0.32886422 -0.47456583 -0.50503695 -0.42226574 -0.44382748 -0.56777436 -0.53022623
-0.30321383 -0.2969326 -0.39913812 -0.38621473 -0.3380048 -0.2902906 -0.28281477 -0.34905615
-0.46177545 -0.33875588 -0.32250053 -0.3612029 -0.47718814 -0.26412782 -0.3916955 -0.38564327
-0.52973753 -0.33845815 -0.48150703 -0.30193257 -0.25143468 -0.38148433 -0.42376447 -0.32443285
-0.31302038 -0.34483966 -0.33035463 -0.3645432 -0.26159585 -0.54082304 -0.2647545 -0.25006008
-0.6126068 -0.34023884 -0.39340398 -0.29078868 -0.33382112 -0.32629094 -0.37286377 -0.19544943
-0.32403967 -0.29882684 -0.32438838 -0.5388992 -0.28252974 -0.17819086 -0.23133072 -0.30870697
-0.2975482 -0.28441846 -0.29640272 -0.28772306 -0.25355566 -0.22163858 -0.454566 -0.20953605
-0.17395951 -0.42986128 -0.35495356 -0.25553927 -0.5142364 -0.37937835 -0.5263085 -0.32825246
-0.2154744 -0.32312912 -0.24183024 -0.5764511 -0.28627914 -0.44267473 -0.40708038 -0.33790687
-0.36377794 -0.5159154 -0.2755876 -0.16091003 -0.36635923 -0.32307062 -0.3769401 -0.37025553
-0.41790262 -0.20883934 -0.33109576 -0.5396635 -0.30884668 -0.26182097 -0.25278777 -0.5052866
-0.38841474 -0.39120787 -0.5735101 -0.27058437 -0.45853803 -0.29486597 -0.5090104 -0.37712824
-0.26337773 -0.34758806 -0.34305006 -0.40044197 -0.27823895 -0.6181552 -0.3033087 -0.43583766
-0.33741647 -0.5283097 -0.44052172 -0.35785395 -0.18036704 -0.23376079 -0.29237586 -0.41651833
-0.3510675 -0.34362438 -0.30200034 -0.29636386 -0.17635436 -0.3833456 -0.37591892 -0.22582072
-0.40378296 -0.2711634 -0.41422004 -0.37030265 -0.32923764 -0.31517318 -0.34441078 -0.41080528
00000000: 59f7 35bf 53df 0abf e45d f7be 78b3 02bf
00000010: 2d46 16bf b2a8 86be 8c7d e5be 0c7e 14bf
00000020: 8b78 4fbf 40dc 01bf 71ca e0be b458 03bf
00000030: 409d 4bbf 14dc c3be 6b86 0dbf 124c 4bbf
00000040: e78a 1abf d017 12bf e84c 02bf 513c d0be
00000050: 83fd fbbe cfbc 1cbf cb98 21bf 9351 0bbf
00000060: 5b1a 27bf 74ba 23bf 0f9f 0cbf 6177 f9be
00000070: 0c3c 14bf 6b8d 3dbf c9b8 ebbe 3d73 1bbf
00000080: 732c 7ebf 9543 f3be 268e fabe e1a6 debe
00000090: 9041 0cbf 5e01 18bf f032 28bf 8913 36bf
000000a0: 8d3e c1be 952e 1abf 5d43 f8be 14c5 1fbf
000000b0: 418a e6be 3afb 05bf 72e7 eebe 4c61 05bf
000000c0: 76b5 04bf 6651 00bf 52ee e7be c362 d3be
000000d0: 5380 f4be f623 0abf 5b32 23bf 48bc 22bf
000000e0: 415d b0be ad55 1abf 4861 4ebf 8caf 01bf
000000f0: 767d 1cbf 8bf5 aebe fe91 05bf b8e7 dfbe
00000100: 9f78 f6be f3c8 0abf 643b 1cbf 5c2e 39bf
00000110: 2e65 d1be 476a 4cbf a067 f5be 10b8 87bf
00000120: f13f 09bf c121 02bf 14e3 0cbf 3707 26bf
00000130: 2445 1ebf d31f 1ebf ac5a c9be 991f dcbe
00000140: 7385 06bf d732 bcbe aa78 11bf 5b36 20bf
00000150: 3dcf 06bf 56e3 06bf 2729 27bf b7c3 17bf
00000160: fdcc dabe ee22 03bf 0da8 1ebf d10e bdbe
00000170: 45b6 00bf 99c0 05bf 3dd1 2bbf f6b5 f5be
00000180: d2b8 03bf aa23 2bbf fc3e 1ebf 408f 1dbf
00000190: bb84 dbbe 3a65 5bbf f06b 0bbf 1646 eebe
000001a0: 0e8f 77bf 76a7 23bf bf9b 0cbf ab2d 01bf
000001b0: 28fa 17bf 9711 dfbe 90b7 10bf 4cdb 03bf
000001c0: cad6 17bf 0c77 e2be 30f6 26bf be5d 4abf
000001d0: 5980 e1be df8b 0fbf 2d21 e5be 698b 9cbe
000001e0: b729 20bf e460 a8be 4bfa f2be 1a4a 01bf
000001f0: 3733 d8be 5b3d e3be a959 11bf e8bc 07bf
00000200: d83e 9bbe 8d07 98be d55b ccbe f0bd c5be
00000210: f70e adbe f8a0 94be 19cd 90be 7db7 b2be
00000220: d56d ecbe 6971 adbe ca1e a5be 96ef b8be
00000230: 0152 f4be c33b 87be 508c c8be 0973 c5be
00000240: e19c 07bf 634a adbe 1788 f6be e896 9abe
00000250: 0cbc 80be ea51 c3be a8f7 d8be 101c a6be
00000260: 3544 a0be d38e b0be 3e24 a9be 68a5 babe
00000270: e4ef 85be 6173 0abf e78d 87be e007 80be
00000280: cdd3 1cbf c933 aebe 3f6c c9be 41e2 94be
00000290: 9aea aabe 9b0f a7be 00e8 bebe e523 48be
000002a0: 87e8 a5be d5ff 98be 3c16 a6be 4cf5 09bf
000002b0: bda7 90be aa77 36be f6e1 6cbe d70e 9ebe
000002c0: 3d58 98be 4c9f 91be 19c2 97be 7050 93be
000002d0: 0cd2 81be 39f5 62be e0bc e8be 9e90 56be
000002e0: 7122 32be c716 dcbe 79bc b5be 0bd6 82be
000002f0: ffa4 03bf e13d c2be 27bc 06bf b510 a8be
00000300: 52a5 5cbe 2e71 a5be 59a2 77be 4d92 13bf
00000310: 2e93 92be 43a6 e2be d76c d0be 2102 adbe
00000320: 1a41 babe 0813 04bf d119 8dbe 99c5 24be
00000330: 7093 bbbe 8369 a5be 4bfe c0be 2292 bdbe
00000340: 55f7 d5be fbd9 55be 6285 a9be 6327 0abf
00000350: 2721 9ebe 660d 86be 666d 81be 765a 01bf
00000360: 4cde c6be 664c c8be 8fd1 12bf 098a 8abe
00000370: 7fc5 eabe acf8 96be 814e 02bf f416 c1be
00000380: 72d9 86be 10f7 b1be 42a4 afbe bb06 cdbe
00000390: 5675 8ebe 6b3f 1ebf 474b 9bbe 1d26 dfbe
000003a0: dac1 acbe 4e3f 07bf 108c e1be a238 b7be
000003b0: 23b2 38be fd5e 6fbe 4ab2 95be e441 d5be
000003c0: 1fbf b3be 89ef afbe ca9f 9abe 01bd 97be
000003d0: 3d96 34be e045 c4be 7278 c0be 8c3d 67be
000003e0: a4bc cebe eed5 8abe a614 d4be 4f98 bdbe
000003f0: d691 a8be 615e a1be 9c56 b0be 1255 d2be
