model_window2.pt (torch_old, 864997 bytes, 11 tensors)

lstm.weight_ih_l0 f4 [512, 1]
000000 b2 a9 2c be a6 7a ec be 72 9b 99 be 56 4e cf 3e
       -0.16861609 -0.46187323 -0.30001408 0.40489453
000010 ee 33 55 be d1 06 0c bf c8 c0 3c bf 91 ef 18 be
       -0.20820591 -0.546979 -0.7373166 -0.14935137
000020 f7 d5 68 be 0b 08 da 3e d4 8c b3 be 70 d1 ee be
       -0.22737871 0.4258426 -0.3506838 -0.46644163
000030 98 69 46 bf 27 06 3f bf 76 21 ac 3e dd 41 2d bf
       -0.77504873 -0.7461876 0.3361928 -0.67678624
000040 9f 4c a1 be c2 c9 1d be 73 4e 05 3e a3 9f 58 be
       -0.3150377 -0.15408996 0.13018207 -0.21154647
000050 20 8e 5a be 4d 51 bb be 66 0a 54 bf af 75 60 bf
       -0.21343279 -0.36585465 -0.82828367 -0.8767957
000060 3c e2 0b bf 3c f9 b8 be bd 0b 51 be da a4 42 be
       -0.5464208 -0.3612765 -0.20414634 -0.19008198
000070 6b 5e 80 be 3f c6 5d be 0f 5e 9d be 5d 08 4e be
       -0.25072035 -0.21657656 -0.30735824 -0.20120378
000080 7f a4 50 3e 67 b2 7b be 68 34 8b be d2 e1 ef bd
       0.2037525 -0.24579774 -0.2718842 -0.11712994
000090 cb 9b e6 3d 9d 6e 50 3e 1c 20 fb be 25 89 aa 3d
       0.11260184 0.20354696 -0.49047935 0.083269395
0000a0 0a 3a a4 bc b6 3a b8 be 8f e7 27 bf 59 95 21 be
       -0.020047206 -0.35982293 -0.65587705 -0.15779628
0000b0 53 ab fc be a2 b7 0b be b9 aa 0a 3d 10 a1 d4 bd
       -0.4934946 -0.13644269 0.03385422 -0.10382283
0000c0 bb 19 00 bf 01 6f a8 bd 0d 4f 5a bc 35 67 b0 be
       -0.5003926 -0.08224297 -0.013324511 -0.3445374
0000d0 5b fa 82 bf bb 3b 34 3c 20 f7 08 bf 15 71 5b bd
       -1.0232652 0.011000569 -0.5350208 -0.05357464
0000e0 3e f7 e8 be 24 ef 3f bf 32 34 d7 bd 6d 3b ad 3d
       -0.4550113 -0.74974275 -0.10508002 0.084586
0000f0 f7 b4 ec be 03 64 1e bf d4 b9 2d be a3 14 c0 be
       -0.46231815 -0.61871356 -0.16965419 -0.37515745
000100 f8 f9 52 bd 7f 9f 49 bf e5 67 f5 bf 75 62 a4 be
       -0.05150792 -0.78758997 -1.9172331 -0.32106367
000110 08 2b a2 bc 30 42 fb bc 3c e8 50 3d 5b df 0f bd
       -0.01979591 -0.03067121 0.051002726 -0.035125118
000120 02 2a 70 bd af 37 04 be 59 0d 08 3e fc 58 a0 be
       -0.05863381 -0.12911867 0.13286342 -0.3131789
000130 6a 50 1d bf 7c d0 48 bf d3 54 a3 bf 37 40 91 be
       -0.6145083 -0.7844312 -1.2760261 -0.28369305
000140 30 f2 9f be f7 de 09 bf 92 53 86 be 52 32 de 3d
       -0.31239462 -0.5385584 -0.26235634 0.108494416
000150 a4 a3 1e be db d1 91 bd fd 18 03 bf c9 07 19 bf
       -0.15492111 -0.07120105 -0.51210004 -0.59777504
000160 a7 86 24 3d 26 a4 c6 3d 89 28 96 bf d0 6c 2d bd
       0.040167477 0.096992776 -1.173112 -0.0423401
000170 be a1 1c bf e7 b2 8b be fe b1 8b be 79 21 1b be
       -0.611843 -0.2728493 -0.27284235 -0.15149488
000180 c4 d1 2e bf 92 d8 62 be 64 09 14 bf f9 af 85 bf
       -0.68288827 -0.22152928 -0.5782683 -1.0444328
000190 bf 0f 7e be ae 00 85 be 30 60 23 bf b5 8e 59 bf
       -0.24810694 -0.2597708 -0.63818645 -0.8498338
0001a0 8a 77 b7 3c 86 49 a2 be ba 09 2a be af 3e 09 bf
       0.022395868 -0.3169672 -0.16605273 -0.5361127
0001b0 cb 0a d7 be 0e 13 aa 3e 13 b4 f3 bd 48 7d c7 be
       -0.42000422 0.33217663 -0.11899581 -0.3896277
0001c0 a3 dc e2 3c e5 7b b9 be bd e2 0b 3e 3c e7 0e bf
       0.027693098 -0.36227337 0.13660713 -0.55821586
0001d0 a5 48 89 be c7 54 2e bf 77 19 89 be 0c 4b 01 3e
       -0.26813236 -0.6809811 -0.2677724 0.12626284
0001e0 88 3d 45 bf cf 08 2b 3e b2 8b 26 bf cd b1 16 bf
       -0.77047014 0.16702579 -0.6505691 -0.5886505
0001f0 0d f7 c7 bd d6 3e 97 be c6 f5 13 bf 85 2c eb bd
       -0.09763918 -0.29540128 -0.57796896 -0.11483101
000200 94 ab dd 39 d3 cd cb be 24 ad 00 be 6d c5 cc 3e
       0.0004228024 -0.3980547 -0.12566048 0.39994374
000210 84 4b c9 bd c9 90 07 bf f1 79 ce be b4 23 a1 bd
       -0.098288566 -0.529553 -0.4032741 -0.07868138
000220 7b 61 2b be b9 b2 16 3f 4c db 3a be eb b9 c8 be
       -0.16736405 0.5886646 -0.18247718 -0.39204344
000230 40 04 e1 be b8 86 f0 be f8 5e e9 3e c1 da d5 be
       -0.43948555 -0.46977782 0.45580268 -0.41768458
000240 8a ef 7f be 34 17 aa bd fd aa 25 3c 2d ae 81 be
       -0.2499372 -0.08305207 0.010111568 -0.25328198
000250 b6 f8 1a be d1 9a c4 be 3f d6 ef be 1f 58 34 bf
       -0.15133938 -0.38399366 -0.46843144 -0.7044696
000260 f0 23 f2 be ac d8 40 be 17 42 d3 bd 65 13 e7 bd
       -0.47293043 -0.18832654 -0.1031534 -0.11282996
000270 21 4a 1a be e6 0c 46 be 4d 2f e3 bd 18 a0 80 be
       -0.1506734 -0.19340858 -0.11093006 -0.25122142
000280 b4 ae d3 3d 28 2b 48 be 7b cf 98 be ad f2 91 be
       0.10336056 -0.19547713 -0.29845795 -0.2850546
000290 e0 f9 d2 3d 06 a7 87 3e 95 bc a2 be 09 d9 e2 3c
       0.10301566 0.26494616 -0.31784502 0.027691381
0002a0 c7 e0 a6 bd ee e9 db be 64 34 b7 be db 89 f3 bd
       -0.081483416 -0.42951912 -0.35782158 -0.11891528
0002b0 5c 8d a0 be 45 63 d8 bd 7f 36 1d 3e 61 16 92 bd
       -0.3135785 -0.10565809 0.1535282 -0.07133175
0002c0 d1 40 d4 be 58 5f e0 bc ea 99 06 3e 60 f8 94 be
       -0.414557 -0.027389213 0.13144651 -0.29095745
0002d0 bc 55 3b bf 3e a6 cf bd 20 99 f0 be f3 06 05 be
       -0.73177695 -0.1013913 -0.46991825 -0.12990932
0002e0 22 fb ad be 5b 35 d5 be b4 f1 0c bd d5 71 48 bb
       -0.33980662 -0.4164227 -0.034410194 -0.0030585427
0002f0 d6 16 5a be e4 5d be be 61 ca 22 bd 16 b7 b0 be
       -0.21297774 -0.37181008 -0.039743785 -0.34514683
000300 c3 73 eb 3b 58 2c 20 bf 15 e7 ec bf e8 2e 4c be
       0.0071854307 -0.62567663 -1.8508021 -0.19939768
000310 0b aa 11 be ba 9e 91 be 92 8c 90 3c 62 8a 55 bd
       -0.14225022 -0.2844141 0.017645154 -0.052133925
000320 0c 46 00 bc b9 b8 0e bd 6f d1 ff 3d 8d 32 9f be
       -0.0078292005 -0.034844134 0.12491118 -0.31093255
000330 dc 31 c9 be 1c d8 1d bf 9b 07 52 bf 5b 72 83 be
       -0.39295852 -0.6165788 -0.82042855 -0.25673184
000340 19 93 70 be c0 23 c3 be 1d 41 fe bd 29 54 28 bd
       -0.23493613 -0.38113213 -0.12414763 -0.041095886
000350 52 b4 ef bd b8 26 bf bd 7b 4d 7b be 1c 19 ea be
       -0.11704315 -0.09333557 -0.24541275 -0.45722282
000360 33 af 25 3e bb 74 1d 3e af 6a 53 bf ae 4e d2 be
       0.16180114 0.1537656 -0.8258466 -0.41075653
000370 2b 4d 1a bf 9c 4d a7 be 84 07 57 be 28 e8 38 be
       -0.60274 -0.326764 -0.2099896 -0.1805731
000380 57 6b 0c bf f0 a9 50 be 6d 53 d6 be 1e 93 39 bf
       -0.5485129 -0.20377326 -0.41860524 -0.7249011
000390 78 4e 29 be cc e6 88 be 75 bb eb be 15 bf 31 bf
       -0.1653384 -0.26738584 -0.46041456 -0.69432193
0003a0 b4 93 ef 3c 44 7a 82 be 76 04 0d bc c5 75 99 be
       0.029245235 -0.25483906 -0.008607021 -0.29972664
0003b0 41 1e 1c be c9 95 8f 3e 09 3b d2 3b 5d 0a 6f be
       -0.15245916 0.28043965 0.006415729 -0.23343797
0003c0 97 66 37 3b 5d 47 35 be 5f e5 90 3d 9d 2c 9a be
       0.0027984732 -0.17703004 0.07074999 -0.30112162
0003d0 b1 e9 fe bd d0 0e e2 be fa 2c a6 bd a1 b4 fc 3d
       -0.12446917 -0.44151926 -0.08114047 0.1233914
0003e0 da 82 10 bf d1 25 94 3e ed e0 0e bf 18 da e2 be
       -0.56449664 0.28935102 -0.5581196 -0.44307017
0003f0 a6 cd d4 bd cc da a1 be d2 88 f7 be b1 17 bb bd
       -0.10390787 -0.3161224 -0.48346573 -0.09135378

lstm.weight_hh_l0 f4 [512, 128]
000000 27 a6 ec 3d 8d b8 c6 bd 58 3c 54 3e fb 45 b4 be
       0.115551285 -0.09703169 0.20726144 -0.3520964
000010 cb 57 19 3d 82 da ac bd 19 85 1b be 50 5c f7 bd
       0.03743724 -0.084401146 -0.15187491 -0.12078154
000020 06 e2 2b 3d 95 73 03 3e 4f 6d 12 3e 79 5e a1 bd
       0.0419636 0.1283706 0.1429951 -0.07879347
000030 38 88 60 be 23 c8 31 be b8 37 66 3e ad b0 25 be
       -0.21926963 -0.17361502 0.22482193 -0.16180678
000040 0a e7 b4 3c 6e 7d 70 3e 02 fc 4e 3c 5b ec af bd
       0.022082824 0.23485348 0.0126333255 -0.08590003
000050 f2 ad d7 bd 57 f9 c8 3d d6 52 bd bd 13 5d bb 3e
       -0.10531224 0.09813183 -0.09244315 0.36594447
000060 14 74 d8 be f3 c3 4a bd 5a 13 dc be 43 b5 87 3d
       -0.4227606 -0.049503278 -0.42983514 0.0662637
000070 16 96 80 38 c4 cc 77 bd b4 28 ed be af bb d0 bd
       6.131471e-05 -0.060498014 -0.46320117 -0.10192048
000080 cd d9 09 be 10 60 b1 bb 7a 1d 16 3d c3 46 10 3d
       -0.1346199 -0.005413063 0.036649205 0.035223734
000090 e5 15 b6 bd c9 27 15 3e 16 2b b9 bb c8 9c 4b bd
       -0.08890895 0.14565958 -0.005650888 -0.049710065
0000a0 60 05 f9 bd 4c 5f e7 bd 6d 09 6e 3a a9 41 20 3e
       -0.12159228 -0.11297473 0.0009080384 0.15650047
0000b0 42 37 e4 bb 73 dd eb 3c bd 82 8e 3e ab 5a 01 3e
       -0.006964595 0.028792119 0.2783412 0.12632243
0000c0 11 04 81 be 49 ee b0 3c 7b eb 88 3d d9 20 af bd
       -0.25198415 0.021597998 0.06685539 -0.08551187
0000d0 f9 bb 0b be 1f 49 12 be e5 0d 0f 3e cb fe aa be
       -0.13645925 -0.14285706 0.13970144 -0.33397517
0000e0 ac 80 77 3d eb 0e f2 bc 45 1d 78 3c 83 33 1b be
       0.060425445 -0.029548129 0.015143697 -0.15156369
0000f0 4f 7c 18 3e a0 ad 15 3e ac 81 23 3e 47 9b 8b bd
       0.1489117 0.14617014 0.15967435 -0.06816726
000100 ca 12 d2 3d df 17 d2 3d fd c5 ed 3c 68 50 44 3e
       0.1025749 0.10258459 0.029025072 0.19171298
000110 78 c0 a1 3c d5 55 e1 3d 7d ab ba bd 91 a0 ff bd
       0.019745097 0.11002699 -0.0911474 -0.124817975
000120 2b eb 65 3d 3b 41 5e bd 28 87 85 bd 54 5b 27 3d
       0.056132477 -0.054261427 -0.0651992 0.04085858
000130 3c f8 0e 39 16 b6 c9 be 5c c8 80 3d e5 f4 b8 3e
       0.0001363465 -0.39396733 0.062882155 0.3612434
000140 77 bf 7c 3e 51 5f ab 3c b4 84 78 3e 05 3b 92 3d
       0.24682413 0.020919474 0.24269372 0.07140163
000150 2a e0 01 3e 07 ad 8b bc 46 0b f8 3d 61 c5 09 be
       0.12683168 -0.01705028 0.12111525 -0.134542
000160 4f 08 17 bd c6 d4 17 3e a7 30 3d 3e b2 c4 b8 bd
       -0.036873158 0.1482726 0.1847559 -0.09021892
000170 6d 7a 24 be 38 53 7c 3d 03 0a f0 bd 2e 54 09 bc
       -0.16062327 0.0616028 -0.117206596 -0.008381886
000180 55 47 c6 bd 00 41 03 be b9 2c e5 bd 53 57 bf 3d
       -0.09681574 -0.12817764 -0.11190171 0.09342828
000190 1c 92 0a be 22 63 13 be f7 f9 dc bb 43 93 81 3c
       -0.13532299 -0.14393285 -0.0067436653 0.01581729
0001a0 e8 76 9a 3d e8 d2 1c 3a 4b 9e 22 3c 84 e2 0f 3e
       0.07542211 0.0005982355 0.009925435 0.14051253
0001b0 8c 45 e3 3d 7a b8 08 be 04 86 11 bb 95 ec 30 3e
       0.110972494 -0.13351622 -0.0022205124 0.17277749
0001c0 30 7b 4f bd 07 74 95 3d 1e 84 a5 bc b8 87 da bc
       -0.05065459 0.07297521 -0.0202046 -0.026676044
0001d0 b5 0f 94 3d 06 c6 49 bd 6a ae 8f 3e 52 c4 d0 3d
       0.072295584 -0.049261115 0.28062755 0.10193695
0001e0 51 11 4f bd 34 ac 8e be a6 ab 44 3e c0 ce 2e be
       -0.050553624 -0.27865756 0.19206104 -0.17071056
0001f0 c2 b8 b4 3d e9 55 17 3e b0 dc dc be 12 0f e9 3d
       0.08824302 0.14778866 -0.4313712 0.113798276
000200 c8 18 79 3c e5 11 49 be 9f f4 02 3e 1e ed ac be
       0.015203662 -0.19635732 0.12788628 -0.33774656
000210 7b 27 10 3e 75 0a 0c be 7c 0a 97 be 60 e8 e7 bd
       0.1407756 -0.13675864 -0.29500186 -0.11323619
000220 2c 10 28 3e f5 18 52 3e 36 e5 8f 3e 61 48 70 3d
       0.16412419 0.20517333 0.28104562 0.058662776
000230 a3 27 74 bd f7 79 5c bc da c1 d1 3d ce b2 2c be
       -0.059608113 -0.013456813 0.102420524 -0.16865084
000240 83 ba cb 3d 24 de 8e 3e 3a a5 e7 bd ba 2f 0b be
       0.09947684 0.27903855 -0.11310811 -0.13592425
000250 e0 9b c6 bd 39 7d 82 3d f4 85 27 bd a7 e4 ec 3e
       -0.096976995 0.063715406 -0.040899232 0.46268198
000260 32 53 9c be 27 35 4e bd 98 48 e0 be bf 2b 2e be
       -0.30532223 -0.05034366 -0.43805385 -0.17008875
000270 31 d6 b8 bc 54 58 3d be ec 24 2b be 14 1b 9a bd
       -0.022563072 -0.18490726 -0.16713303 -0.07524696
000280 b4 e7 90 3c 62 9e 3c be cc ad c2 3c 57 5d 3e 3e
       0.01768861 -0.18419793 0.023764513 0.18590294
000290 14 7c 9e 3d f3 89 1f 3e ca 55 3e be 26 d1 3b 3e
       0.0773851 0.15579967 -0.18587413 0.18341503
0002a0 f4 66 aa 3d d8 50 92 3d b2 f8 81 bc 39 7f cb 3d
       0.08320418 0.07144326 -0.015865657 0.09936375
0002b0 da 1b 59 bc b4 85 95 3c c7 59 3b 3e f3 3a f8 3d
       -0.013251269 0.018252231 0.18295966 0.12120619
0002c0 5f 7f 86 be bc 32 34 3d a6 7d 5e 3b 87 13 2a 3e
       -0.2626905 0.043993697 0.0033949404 0.16609012
0002d0 e0 fe 23 be 5b 9d b0 bd 1b e8 45 3d 23 42 eb bd
       -0.16015196 -0.08623763 0.048317056 -0.11487224
0002e0 54 f2 c2 3c 85 a1 db bd d0 14 eb bd 19 71 05 3e
       0.023797192 -0.10724167 -0.11478579 0.13031425
0002f0 eb ac 15 3e 48 e7 66 3e 98 33 5f 3e 4d fb 09 be
       0.14616744 0.22549164 0.21797025 -0.1347477
000300 66 3e 40 bd eb 8d e9 3d e4 7d af bc c8 e0 41 3d
       -0.046934508 0.11404022 -0.021422334 0.04733351
000310 40 39 ef 3c d3 30 5e be 5f 5e a6 bc 6c d3 48 3c
       0.029202104 -0.21698312 -0.020308672 0.012257438
000320 44 03 94 bd 52 69 14 3e 72 bd 68 3d 66 08 62 3e
       -0.07227185 0.14493302 0.056821294 0.22073516
000330 22 1d 4c 3e b2 ab 78 bd 26 5f cb 3d 1d e3 45 3e
       0.19932988 -0.060710616 0.099302575 0.19324918
000340 4c 3a 40 3e f9 d6 08 be 6e a3 64 3e 15 7d 0e be
       0.18772238 -0.13363256 0.22327968 -0.13914903
000350 41 b0 a8 3d ee d6 a6 3d 65 dc 1c 3d 40 c1 d5 bd
       0.08236743 0.08146463 0.038296122 -0.1043725
000360 a5 b0 55 3d f4 ea 35 bd b3 bd 47 3e 0c d6 50 be
       0.052170414 -0.044413522 0.19505958 -0.20394152
000370 c7 b0 ec bd 2e 7e 81 3d e4 d4 17 be 9f 74 2a be
       -0.11557155 0.06322895 -0.14827305 -0.1664605
000380 9e 88 16 bd 30 b0 08 bd c9 43 76 3d a6 cb 15 3e
       -0.036751382 -0.03337115 0.06012324 0.14628467
000390 8b d9 44 3d e4 83 84 3a ae 5a 16 3e 3b 33 5f bd
       0.048059028 0.0010110107 0.14683029 -0.054492217
0003a0 ea 42 89 3e a4 b7 eb bb 0a 82 0b 3d c7 64 2c 3e
       0.26808864 -0.0071935225 0.03405956 0.16835319
0003b0 68 4f 0c 3e 5c 3b 0b be 84 23 03 3e 55 f5 0e 3e
       0.13702166 -0.13596863 0.12806517 0.13960774
0003c0 27 b5 bf bd fc f8 15 3e 94 4f 16 be c1 a7 3d bc
       -0.09360724 0.14645761 -0.14678794 -0.01157564
0003d0 7b f0 0d 3e 96 11 4b 3d 27 45 52 3e 88 7a de 3c
       0.13861267 0.049577318 0.20534192 0.027158037
0003e0 40 d0 05 be a9 4a 66 be 86 7a 94 3e 2d 27 3a bc
       -0.13067722 -0.22489418 0.28999728 -0.011361879
0003f0 b2 bb f0 bc f6 b3 37 3e d7 14 83 be 96 33 33 bd
       -0.029386375 0.17939743 -0.25601837 -0.043750368

lstm.bias_ih_l0 f4 [512]
000000 03 4e de be 3f 48 18 bf 30 8d ed be 02 21 c1 be
       -0.43418893 -0.5948524 -0.4639678 -0.37720495
000010 8c a9 c0 be cc 59 a2 be 94 3f 1b bf 3a 37 9e be
       -0.37629354 -0.31709135 -0.6064389 -0.3090151
000020 7b f4 56 be c4 3a 57 be cc f3 13 bf bb 59 12 bf
       -0.209917 -0.21018511 -0.5779388 -0.5716817
000030 75 e1 d1 be 30 09 e4 be 7f 4b 86 be 8a 0c ae be
       -0.40992323 -0.4453826 -0.26229474 -0.33993942
000040 47 89 99 be b5 d8 8f be 0c 51 39 be ff 09 49 bf
       -0.29987547 -0.28095022 -0.18097323 -0.7853088
000050 90 a2 d2 be cc b5 bf be 25 d6 e0 be ea 44 2a bf
       -0.4113965 -0.37443388 -0.4391338 -0.66511405
000060 65 e9 c7 be c9 6e ea be 6e ca 14 bf 0f 74 09 bf
       -0.39045253 -0.45787647 -0.58121383 -0.53692716
000070 d7 28 95 be ba 40 84 be 45 d3 cc be fb 7b 06 bf
       -0.2913272 -0.25830632 -0.40004936 -0.5253293
000080 2a f1 56 be cb 3f b7 be cf d5 a6 be ca 2f 94 be
       -0.20990434 -0.35790858 -0.32584998 -0.2894271
000090 6c d1 3e be 0d 83 b2 be cd 62 c6 be d4 61 8e be
       -0.18634576 -0.3486561 -0.38747254 -0.27809012
0000a0 ee 3c 79 be fe d7 c6 be e5 36 fc be 0b c2 c2 be
       -0.24339649 -0.38836664 -0.4926063 -0.38038668
0000b0 68 fe d1 be 36 8f 26 be 5d 11 4c be 95 f9 cc be
       -0.4101441 -0.16265568 -0.19928499 -0.40034166
0000c0 90 ef 05 bf f2 1f e3 be 08 54 2a be fa 44 8f be
       -0.5231867 -0.4436031 -0.16633618 -0.27982312
0000d0 db 14 05 bf 8c 0e c5 be 9d be dd be 3e 8f 9b be
       -0.5198495 -0.3848766 -0.4330949 -0.30382723
0000e0 9f cf bf be 5a 53 0f bf 88 fa 17 bf f1 5e 90 be
       -0.3746309 -0.5598656 -0.59366655 -0.28197435
0000f0 cb 4d 8f be 76 45 00 bf bf c5 0a bf cb 4a 1d bf
       -0.2798904 -0.5010599 -0.54207987 -0.6144225
000100 46 3c 36 be b6 f7 e5 be 19 54 06 bf 23 9f df be
       -0.1779643 -0.4491555 -0.5247207 -0.436761
000110 cf 64 3c be 8b ac c1 be c0 0e e3 be d4 8d 00 be
       -0.1839783 -0.37826952 -0.4434719 -0.12554103
000120 1b 74 c5 be ec 39 63 be 5f 09 70 be 96 6f ff be
       -0.38565144 -0.22190064 -0.23441075 -0.4988982
000130 53 3d e4 be dc e6 ed be 97 3f 19 bf 35 41 bd be
       -0.44578037 -0.46465194 -0.59862655 -0.36963812
000140 0a d2 89 be 91 80 19 bf 61 ff 99 be e2 7e 8a be
       -0.2691806 -0.599618 -0.3007765 -0.2704993
000150 dc c4 9c be 03 85 3e be ed 4a b3 be 9a 8e b0 be
       -0.30618942 -0.18605427 -0.350181 -0.34483796
000160 b4 f5 94 be 09 0e b4 be 8b 42 0a bf f5 27 d2 be
       -0.29093707 -0.35166958 -0.54007787 -0.4104611
000170 6e f6 24 bf 36 ad be be b0 02 04 bf 5e 31 02 bf
       -0.6443852 -0.37241524 -0.515666 -0.5085658
000180 f8 19 da be 5f ff ea be 37 14 a3 be 0e c0 f4 be
       -0.42597938 -0.45897958 -0.3185136 -0.47802776
000190 8e be 15 bf 41 13 cb be 86 c4 c3 be e0 42 12 bf
       -0.5849389 -0.39663127 -0.38235873 -0.57133293
0001a0 2c 6d 73 be c3 91 a3 be ee 87 b8 be fd c8 93 be
       -0.23772115 -0.31947145 -0.36041206 -0.2886428
0001b0 16 df ad be b3 f6 77 be 42 4c 9c be 1a 81 0c bf
       -0.33959264 -0.24215202 -0.3052693 -0.54884493
0001c0 4d 50 1b be 31 7c c2 be 24 9d 05 bf 7a 09 26 bf
       -0.15167351 -0.37985376 -0.521929 -0.6485821
0001d0 d3 51 c8 be 9e 8a c5 be 86 82 c3 be 3a e7 b0 be
       -0.39124927 -0.3858232 -0.3818552 -0.34551412
0001e0 4e d7 ff be 7d 1d 95 be f9 9f c3 be 36 7f c3 be
       -0.49968952 -0.2912406 -0.38207987 -0.38182992
0001f0 df 84 d0 be c2 40 07 bf 74 cd 24 bf c4 81 78 be
       -0.40726373 -0.5283319 -0.64375997 -0.24268252
000200 fd 0c 6e be 60 17 d2 be 35 45 b2 be 2b 13 9a be
       -0.23247142 -0.4103346 -0.34818426 -0.3009275
000210 8d cd 4a be 16 34 9b be 20 6f bc be c1 2b 8a be
       -0.19804974 -0.30313176 -0.36803532 -0.26986507
000220 42 b3 32 be 8c 42 c6 bb 05 4f ef be 2c a8 a6 be
       -0.17451194 -0.0060504135 -0.46739975 -0.3255018
000230 8f 1a d7 be ee 82 aa be 44 e7 05 be 18 7e ae be
       -0.4201245 -0.33303016 -0.13076502 -0.34080577
000240 71 2c 3b be 40 3d 30 be 77 5f 1f be 42 ee 25 bf
       -0.18278672 -0.17210865 -0.1556376 -0.6481668
000250 81 39 1e be f3 a6 7a be cc d4 d4 be 52 4c 05 bf
       -0.15451623 -0.24477749 -0.415686 -0.5206958
000260 d4 29 9c be b6 35 ea be 22 d0 b2 be 55 72 c9 be
       -0.30500662 -0.45744103 -0.34924418 -0.3934504
000270 61 0a 4c be a9 b7 c4 be 74 fe a9 be 37 04 06 bf
       -0.19925834 -0.38421372 -0.33201945 -0.5235018
000280 71 c6 15 be 44 b4 88 be f3 27 d2 be 08 8f 77 be
       -0.1462648 -0.26700032 -0.41046104 -0.24175656
000290 6f bb 01 be ef bb 37 bd 27 06 d7 be d1 16 5f be
       -0.12669156 -0.04485696 -0.4199688 -0.21786048
0002a0 6c 0c 66 be d4 ee dc be dd 61 c2 be 73 25 69 be
       -0.22465676 -0.4315096 -0.3796529 -0.22768192
0002b0 23 e0 90 be 58 2e 51 be 1f aa 38 be 6d 09 49 be
       -0.28296003 -0.20427835 -0.18033646 -0.19632502
0002c0 93 a8 09 bf 78 b8 b5 be 66 96 14 be 9c d2 7d be
       -0.5377285 -0.354923 -0.14510497 -0.24787372
0002d0 c2 05 aa be ab 2a 3d be 0b 6d a2 be bc 6d 62 be
       -0.33207518 -0.18473308 -0.31723818 -0.22112173
0002e0 3c 73 af be 5a 35 d8 be 64 99 d2 be 33 2a 2b be
       -0.34267604 -0.42228204 -0.41132653 -0.16715316
0002f0 a1 a6 21 be dd 23 33 be 9e 6b ce be 98 e7 04 bf
       -0.1578622 -0.1749415 -0.4031648 -0.51915884
000300 e3 f0 27 be 56 cc c6 be 3f 33 43 be ac a9 a3 be
       -0.16400485 -0.3882777 -0.19062518 -0.31965387
000310 76 2a 7a be 01 ee ac be 39 57 44 be e0 77 61 be
       -0.2443026 -0.33775333 -0.19173898 -0.22018385
000320 93 82 64 be b6 07 0a be ec 11 da bd c2 d8 13 bf
       -0.22315435 -0.13479504 -0.106479496 -0.5775262
000330 5c c2 11 be d0 d2 d3 be 0b 70 e3 be 4a 46 9b be
       -0.14234298 -0.41371775 -0.4442142 -0.30327064
000340 2c 54 3b be 12 78 c1 be 1f e3 1d be 2c c4 6d be
       -0.18293828 -0.3778692 -0.15418671 -0.23219365
000350 b2 45 2a be bf dc f8 bd 45 68 62 be 25 6f ab be
       -0.16628149 -0.12151479 -0.22110088 -0.33483234
000360 62 0d 74 be dc bb 56 be a1 94 f1 be 2a db 0a bf
       -0.2383323 -0.209701 -0.47183707 -0.5424067
000370 e7 e8 20 bf f7 08 f0 be fd f4 c1 be e6 65 b0 be
       -0.6285538 -0.4688184 -0.37882224 -0.34452742
000380 b5 66 d7 be 4b 0c e2 be 9a 47 93 be 82 c7 b5 be
       -0.42070547 -0.44150004 -0.28765565 -0.35503775
000390 b5 b6 fc be 5b 30 88 be 3a 8c b2 be e7 e6 cf be
       -0.49358144 -0.26599392 -0.3487261 -0.40605852
0003a0 ff b5 8e be 9c 3a 67 be 35 15 0e be 4f 3d b3 be
       -0.27873227 -0.22580951 -0.13875277 -0.35007712
0003b0 a0 3d 2b be 93 e8 19 be a9 57 1c be 5d 35 c5 be
       -0.16722727 -0.15030126 -0.15267815 -0.38517275
0003c0 62 e5 4f be 82 5d d0 be 89 f5 6e be 70 2d ed be
       -0.20302346 -0.4069634 -0.23335852 -0.4632373
0003d0 94 82 34 be 9b 3d 78 be a3 56 85 be da c9 62 be
       -0.17627937 -0.2424225 -0.2604266 -0.22147313
0003e0 54 db aa be d0 ef 02 be da bb 88 be e3 c6 83 be
       -0.3337046 -0.12786794 -0.2670582 -0.25737676
0003f0 97 0d ae be 26 f7 fe be 16 e4 10 bf ff 6d 5f be
       -0.33994743 -0.49797934 -0.5659803 -0.21819304

lstm.bias_hh_l0 f4 [512]
000000 ce 63 ed be e0 d2 0a bf 44 1b d4 be 1a c8 f6 be
       -0.46365207 -0.5422802 -0.41427052 -0.4819954
000010 6e f9 da be a9 3f ab be 30 1c 21 bf b6 8c e5 be
       -0.42768425 -0.33447006 -0.62933636 -0.44833916
000020 bc 86 87 be 3c 9e cb bd 1a db 07 bf a8 8a f3 be
       -0.26469982 -0.0994229 -0.530687 -0.47566724
000030 7f 89 e5 be 7e 10 e2 be e0 5c ac be 7a 60 ab be
       -0.44831464 -0.44153208 -0.33664608 -0.33472043
000040 8a 35 96 be 30 0b c8 be 70 88 a7 be 56 60 55 bf
       -0.29337722 -0.39071035 -0.3272128 -0.8335012
000050 2a 2f d4 be 3a f8 f3 be 58 68 f5 be bc ac 21 bf
       -0.41442233 -0.4765032 -0.4793117 -0.63154197
000060 d0 b5 e9 be 84 1a 02 bf ed 72 e3 be 4e a5 1d bf
       -0.45646524 -0.5082171 -0.4442362 -0.6158036
000070 a9 23 6e be 25 d9 a0 be f0 95 07 bf 1e 24 dc be
       -0.23255791 -0.31415668 -0.5296316 -0.42996305
000080 92 d4 05 be 14 e2 e7 be 8c 99 af be f0 03 66 be
       -0.1306937 -0.4528967 -0.34296834 -0.2246244
000090 a4 7b a7 be e9 54 81 be e5 40 e6 be e0 21 9a be
       -0.32711518 -0.25260094 -0.44971386 -0.3010397
0000a0 64 4f 92 be 2d a1 e5 be 8f 17 ca be 11 fa d5 be
       -0.28576195 -0.4484953 -0.394711 -0.41792348
0000b0 fb d7 a6 be 23 d4 84 be 53 9a 82 be 54 c7 94 be
       -0.32586655 -0.25943097 -0.25508365 -0.29058325
0000c0 4d 8d 00 bf f7 54 fb be 0e de 89 be 3f 79 b5 be
       -0.5021561 -0.4908826 -0.26927227 -0.35444066
0000d0 3f d1 15 bf 4f fa 82 be ab 5d be be f4 5d a5 be
       -0.5852241 -0.25581595 -0.37180838 -0.32298243
0000e0 25 ab de be 6a 7d 0c bf b9 51 0b bf ed c6 93 be
       -0.43489948 -0.54878867 -0.54421574 -0.28862706
0000f0 75 74 c1 be ff 0d d1 be e1 f9 00 bf 76 4b 2c bf
       -0.37784162 -0.4083099 -0.50381285 -0.67302644
000100 7b ba 70 be 1e 0b bf be b4 00 18 bf 70 ca ca be
       -0.23508637 -0.3731317 -0.5937607 -0.39607573
000110 c6 53 4e be 07 ee 85 be 6f 59 96 be f7 26 83 be
       -0.20149145 -0.26158163 -0.29365107 -0.25615665
000120 aa b7 b5 be a0 3e 81 be af 6b 56 be 7f 49 23 bf
       -0.35491687 -0.25243092 -0.20939516 -0.6378402
000130 3f 3a b3 be 50 c0 d9 be 97 68 16 bf be ec e9 be
       -0.35005376 -0.42529535 -0.5875334 -0.45688432
000140 4b 24 bd be 4b 48 28 bf 1d 97 96 be 20 7b 4c be
       -0.36941752 -0.6573531 -0.29412165 -0.19968843
000150 e4 5c 87 be 8c fa 3c be b4 ed 00 bf bd d0 99 be
       -0.26438057 -0.18454951 -0.50362706 -0.30042067
000160 84 86 a5 be 49 28 c0 be c8 43 04 bf cd 2f c0 be
       -0.3232919 -0.37530735 -0.51665926 -0.3753647
000170 32 21 27 bf 77 7d c3 be f2 03 f6 be d8 a2 08 bf
       -0.6528503 -0.3818166 -0.48049885 -0.5337348
000180 ce 88 05 bf 17 3c 0f bf 28 42 a3 be 85 c7 f4 be
       -0.5216187 -0.55951065 -0.3188641 -0.4780847
000190 99 7c 2d bf 0f de e8 be 1c e5 ec be 06 8a ee be
       -0.67768246 -0.45481917 -0.46268547 -0.4658968
0001a0 96 5d b6 be e3 b2 ab be d9 26 ac be 89 a3 b6 be
       -0.35618275 -0.33534917 -0.33623388 -0.35671642
0001b0 e5 b6 ad be 34 68 53 be b7 48 8a be 9d 64 07 bf
       -0.339286 -0.20645219 -0.27008602 -0.528879
0001c0 fe 8b 80 be 5d ec 04 bf f7 db 08 bf 91 7a 0d bf
       -0.25106806 -0.5192316 -0.5346064 -0.55265146
0001d0 57 05 02 bf b8 43 da be da 4a e0 be ec 48 ba be
       -0.507894 -0.4262979 -0.43807107 -0.3638376
0001e0 98 af f1 be 48 b0 cf be a4 b0 c5 be e0 26 a6 be
       -0.4720428 -0.4056418 -0.3861133 -0.32451534
0001f0 35 08 d0 be e4 e7 0f bf 14 aa 15 bf 4b c7 47 be
       -0.4063126 -0.5621321 -0.58462644 -0.19509618
000200 40 7b 76 be 60 40 da be 94 b2 e0 be 86 a1 9e be
       -0.24070454 -0.4262724 -0.43886244 -0.30982608
000210 8b cd 46 be de e5 98 be 45 4d 9f be dd ed 8b be
       -0.19414346 -0.29862875 -0.3111364 -0.27329913
000220 e1 a7 ed bd 6f ce 23 bd 01 8d b7 be 89 e2 90 be
       -0.11604286 -0.039991792 -0.35849765 -0.28297833
000230 a5 5b a1 be d9 3e a6 be a4 62 d0 bd 74 73 bc be
       -0.31515232 -0.32469824 -0.10175064 -0.36806834
000240 bd 8a a3 be 49 97 48 be a1 2e 46 be a2 c8 0b bf
       -0.31941786 -0.1958896 -0.19353725 -0.54603016
000250 c2 aa 3b be b2 e6 bb be d4 92 df be 27 05 e4 be
       -0.18326858 -0.36699444 -0.43666708 -0.4453518
000260 a7 3f 76 be 58 83 db be 72 68 df be c3 bd a4 be
       -0.24047719 -0.42873645 -0.43634373 -0.32176027
000270 58 cc 84 be 15 c7 9a be a5 97 bf be ce 64 e6 be
       -0.25937152 -0.30230013 -0.37420383 -0.44998783
000280 4e 62 6c be 29 72 51 be fa 69 db be de 9d 79 be
       -0.23084375 -0.20453705 -0.4285429 -0.24376628
000290 bc f9 62 be 1f fc 4e be e4 28 85 be f7 f0 65 be
       -0.22165579 -0.20213364 -0.2600776 -0.22455202
0002a0 e9 85 80 be 47 97 98 be f7 d4 ad be b8 9c ad be
       -0.25102165 -0.29802915 -0.33951542 -0.3390863
0002b0 38 bb 8d be 39 c5 ae bd 48 ec 90 bd 1e f5 a7 be
       -0.276819 -0.08533711 -0.07076317 -0.32804197
0002c0 83 9c ca be 4c b3 6a be 72 1e 59 be d9 ba 54 be
       -0.39572534 -0.22919959 -0.2120302 -0.20774402
0002d0 1c c9 a7 be 08 f0 70 be 77 1f 91 be 9e c5 60 be
       -0.32770622 -0.23529065 -0.28344318 -0.21950385
0002e0 4a 36 c3 be 67 4e ef be 01 00 c0 be 7a 78 7b be
       -0.38127357 -0.46739504 -0.37500003 -0.24557677
0002f0 58 05 68 be 38 52 a9 be 03 ca a7 be c0 e9 11 bf
       -0.22658288 -0.3307054 -0.3277131 -0.569973
000300 ed 7d 23 be 30 3c d9 be f7 d4 95 be 9e c4 c2 be
       -0.15966006 -0.42428732 -0.29264042 -0.38040632
000310 25 87 39 be 6a 4b bf be 56 11 18 be 9b ab 65 be
       -0.1811796 -0.37362224 -0.14850363 -0.22428744
000320 cf f1 83 be 90 3c d6 bd 20 01 b8 bd 09 25 ee be
       -0.25770423 -0.1046077 -0.089845896 -0.4651263
000330 f7 a7 28 be b8 56 a5 be 68 f8 9d be e5 f7 b4 be
       -0.16470324 -0.32292724 -0.3085358 -0.3534538
000340 be 83 75 be 11 6e 98 be 26 aa 54 be 6a ce 70 be
       -0.23976037 -0.29771474 -0.20768031 -0.2351624
000350 c9 42 5b be 36 ea 2b be d5 93 91 be c1 1f a4 be
       -0.21412195 -0.16788563 -0.284331 -0.32055476
000360 18 19 b3 bd c7 03 d0 bd 96 d2 b7 be 6c 5c 12 bf
       -0.08745021 -0.101569705 -0.35902852 -0.57172275
000370 54 59 21 bf c7 13 e2 be ba 77 d7 be e3 f6 bf be
       -0.6302693 -0.44155714 -0.42083532 -0.37493047
000380 4b ee e9 be d5 91 d3 be dc d9 a6 be c0 70 7f be
       -0.45689616 -0.413222 -0.3258809 -0.24945354
000390 40 f6 07 bf af 16 ac be 4f d5 b1 be b5 dc be be
       -0.5311012 -0.33611056 -0.34733054 -0.3727776
0003a0 a8 d0 8f be cc 2f 41 be 51 a3 18 be b7 df 91 be
       -0.2808888 -0.1886589 -0.1490605 -0.28490993
0003b0 36 22 e8 bd 31 d4 9d be a1 d4 6a be 98 94 c4 be
       -0.1133465 -0.30825952 -0.22932674 -0.38394618
0003c0 45 75 24 be b8 63 89 be 7f b0 ac be e8 9d d6 be
       -0.1606036 -0.26833892 -0.33728406 -0.41917348
0003d0 ec f5 a3 be 17 e7 9a be a1 cb c5 be e5 31 6b be
       -0.3202356 -0.30254433 -0.3863192 -0.22968252
0003e0 13 9f 98 be 57 c4 ce bd 69 33 7c be f0 4a a2 be
       -0.29808864 -0.100960426 -0.24628986 -0.31697798
0003f0 47 3b a0 be ee d3 17 bf 46 e6 08 bf 3c 02 69 be
       -0.31295225 -0.59307754 -0.5347637 -0.22754759

lstm.weight_ih_l1 f4 [512, 128]
000000 6b b0 64 be 8d 60 ce bd 05 59 17 be 8b 21 bb 3d
       -0.22332923 -0.10077009 -0.14780052 0.09137257
000010 0a dc b4 3e 34 61 98 3d b1 34 d9 3d 4a 3b d8 3d
       0.35324126 0.07440415 0.10605753 0.105581835
000020 a9 c9 33 3e ec 64 40 3d f3 89 42 3e b7 14 1f be
       0.17557396 0.046971247 0.18997936 -0.15535246
000030 c5 58 77 3e 70 12 bd bd 19 f1 34 bd af d7 5f be
       0.24154957 -0.09232032 -0.04417524 -0.2185962
000040 0a bb 0f 3e e2 3e fb 3d e0 8e 1f be ab 35 74 be
       0.14036193 0.12267853 -0.15581846 -0.23848598
000050 ec f5 88 3e 23 e2 0e 3e fa 46 1c be 67 83 8f 3e
       0.26750124 0.13953452 -0.1526145 0.2802994
000060 08 36 7a be 4e de d7 bd 1c 86 83 be 32 d1 2c be
       -0.24434674 -0.10540448 -0.25688255 -0.16876677
000070 8b 58 9a bd f4 62 35 be a4 3b b5 be dc 88 4c 3e
       -0.075364195 -0.17713529 -0.35397065 0.19974083
000080 34 e7 7b 3e 03 25 41 be 7c 25 3c bd 8b d1 20 3e
       0.24599916 -0.18861775 -0.045934185 0.15704934
000090 28 87 e4 bd b5 8c 58 3d d3 73 d9 bd 32 3e 83 3e
       -0.111585915 0.052868564 -0.10617795 0.2563339
0000a0 aa 16 c0 3d f7 90 e0 bd 3e cc 6a 3e df 74 ff bd
       0.09379323 -0.1096515 0.22929475 -0.12473463
0000b0 cc 1c b1 be 92 01 30 bd 92 a0 01 3e 6e fe 49 3d
       -0.34592283 -0.042970248 0.12658909 0.04931491
0000c0 b3 98 16 be e1 63 21 be c8 a5 db bd c4 00 4a 3e
       -0.14706688 -0.15760757 -0.1072498 0.19726855
0000d0 10 93 cc be 12 3f 52 be 72 78 d9 be 51 15 25 bd
       -0.3995595 -0.20531872 -0.42474705 -0.040303532
0000e0 f1 ab 80 be b6 3c 0b be e1 62 94 be 2b a2 3c 3e
       -0.2513118 -0.13597378 -0.2898169 0.18421237
0000f0 3e 54 f5 3d a9 0c 34 3e 5c da a3 3d 8e eb 98 bd
       0.119789585 0.17582954 0.08000633 -0.074668035
000100 b9 b0 73 be d0 4c 28 3e 2f 4a 74 be f5 49 4a 3c
       -0.23797883 0.16435552 -0.23856424 0.012346734
000110 1b 96 28 3e f8 77 57 be 75 fc 69 be 51 66 e8 3d
       0.1646351 -0.21041858 -0.22850211 0.1134764
000120 bc 2c 7d be 03 11 57 3e 4e e2 3c bd 97 63 4f 3e
       -0.24724096 0.21002583 -0.04611426 0.20252834
000130 7a dd e8 3e e9 2b 19 be ab d1 5f 3e cb de 2e 3e
       0.45481473 -0.14958157 0.21857326 0.17077176
000140 24 73 ff 3d 28 ed 07 bd 90 f2 57 3e 43 b8 1e 3e
       0.12473133 -0.033185154 0.21088624 0.15499978
000150 f0 23 89 be 92 56 53 3d e7 ca 47 be 44 ae 81 3e
       -0.2678523 0.05159623 -0.19510995 0.25328267
000160 f5 fe 8a 3c 0b 3d f6 bc 66 4a dc bd 67 9c 9b bd
       0.016967276 -0.030058404 -0.10756378 -0.07598191
000170 a3 a3 a7 3c 20 be 07 be 6c e5 73 3c d8 bf 52 be
       0.02046377 -0.1325612 0.014886241 -0.20580995
000180 6d 62 02 be a6 f3 a1 3d 16 60 3b 3d 1a ae e5 be
       -0.12732859 0.079078004 0.04574593 -0.4485939
000190 75 15 93 3c 17 76 31 3d 16 cf 32 3e 86 4a b3 3e
       0.017954567 0.04332551 0.1746181 0.35017794
0001a0 4b f1 ed 3d 01 6a df 3d a2 93 20 3e 7e 06 cf 3d
       0.116182886 0.109088905 0.15681317 0.1010866
0001b0 85 07 99 3e 6a 2f 79 bd 18 bf 2f 3e 01 d0 10 3e
       0.2988855 -0.060836233 0.1716274 0.14141847
0001c0 b6 fb d2 bd 6f c7 61 bd 46 93 1c be 73 b8 82 3d
       -0.10301916 -0.055121835 -0.15290555 0.06382837
0001d0 6f 26 b1 3d cb 65 ec 3e fb 23 1c 3e c5 6a 65 3e
       0.08649909 0.46171412 0.152481 0.2240401
0001e0 e0 6c a0 3e 81 60 8d 3c bc b6 3c 3e 55 de 9b 3e
       0.31333065 0.01725793 0.18429083 0.30443063
0001f0 b6 52 ed bc 81 30 2b 3e ee b3 7b be 7a 2e a5 bd
       -0.028970104 0.16717722 -0.24580356 -0.08065505
000200 61 6c 78 be 20 00 40 be 33 bb 32 be 07 bf a0 bd
       -0.24260093 -0.18750048 -0.17454223 -0.078489356
000210 13 4b 4f 3e a4 14 8d 3e 3e 10 38 3e 80 38 0f 3d
       0.20243482 0.2755481 0.17974946 0.034965992
000220 ea 05 dc 3c 34 32 70 bd fb a9 87 bd 69 f0 26 bd
       0.026858289 -0.058641627 -0.06624218 -0.040756617
000230 20 52 46 3e c8 4a 14 bd 76 91 f3 bd ad 52 0e be
       0.19367266 -0.03620413 -0.11892979 -0.13898726
000240 70 50 da bb 73 cd 13 bd 0d f1 c4 bd 76 d3 68 be
       -0.006662421 -0.036084604 -0.09616289 -0.22736916
000250 5f 3b ca 3e 1a 85 8e 3d eb 14 5c bd 3b f0 0b bd
       0.39498422 0.06958981 -0.053730886 -0.03416465
000260 8b 2c 7a 3d 85 9f 0d 3d 82 82 78 3d c5 81 39 be
       0.061077636 0.034575958 0.060671337 -0.1811591
000270 32 12 fd 3c eb 83 04 be 83 b8 6a bd 51 5a 09 3c
       0.030892465 -0.12940948 -0.05730487 0.0083833495
000280 95 c2 a7 3c bf 62 5a 3b ba 0a dc 3d a8 8b 2b bc
       0.020478526 0.0033323017 0.107442334 -0.010470308
000290 18 50 0f 3c 88 1d 77 3d fb c1 48 be cb 5e 2e 3e
       0.008747123 0.060330898 -0.19605248 0.17028348
0002a0 e4 2c b4 3b b4 59 6d 3d fa c4 19 3e f7 14 e4 bd
       0.0054985154 0.057946876 0.15016547 -0.11136811
0002b0 49 bc 1e 3c e2 17 a5 3a 18 b5 cb 3d 52 0f 80 3d
       0.009688445 0.0012595619 0.0994665 0.06252922
0002c0 2c 75 32 3e 22 7b ba bd fe 9b 21 bd ad 6d 7c 3d
       0.1742751 -0.09105517 -0.039455406 0.061628032
0002d0 34 56 9e bd 7c 87 33 3d 94 75 c4 be 75 af 8d bd
       -0.07731286 0.04383038 -0.38370955 -0.069182314
0002e0 20 54 42 be fc 92 5d 3d f0 2f 88 be 4f 0e e8 3d
       -0.18977404 0.054095253 -0.26599073 0.11330854
0002f0 ac 29 89 bd 1e 27 10 bd 0a 62 c3 bd 72 68 c8 3b
       -0.066974014 -0.035193555 -0.09540184 0.0061159665
000300 b8 cf 6e be f5 d8 7f bd e0 16 06 be a4 dd d3 bd
       -0.23321426 -0.062462766 -0.13094664 -0.10345009
000310 0b a3 7b 3d 7e 41 b0 bd bf e7 cc bb cd 7d 4d 3c
       0.061434787 -0.08606242 -0.006253212 0.0125422
000320 61 33 e2 bd ca 99 b3 3d 56 b3 ae bd b8 3e de 3d
       -0.11044956 0.08769567 -0.08530299 0.108518064
000330 4b 5d 0d 3e 61 29 ef 3b 0a ba 48 3e e9 fa 46 bd
       0.1380512 0.007298634 0.19602218 -0.04857913
000340 ee e0 8c 3d ac 79 cf 39 a5 36 8a bd a1 01 28 bd
       0.068788394 0.0003957277 -0.06748704 -0.04101718
000350 82 70 b2 bd ee c8 a5 3d 11 f3 c1 bd 57 4f 97 3e
       -0.087128654 0.08094965 -0.09470189 0.2955272
000360 ac 1c ce 3c 6b 4c b5 bc 2c 4e 8b be 54 a5 c2 3d
       0.025160156 -0.022131165 -0.27208078 0.0950419
000370 5b 3d 4d bb 5d ef 90 3d 97 9c 8d 3d ac 52 1b be
       -0.0031317088 0.07076905 0.06914633 -0.15168256
000380 24 95 0a bd 72 e7 a2 3d 38 0d f9 bc a1 e4 2a be
       -0.033833638 0.07954301 -0.030401811 -0.16688778
000390 51 0d b0 3b 2a bc e9 bd 28 78 d7 bd 3a 3f 12 3e
       0.005372681 -0.114128426 -0.10520965 0.14281932
0003a0 7d 94 34 bd 48 4f 87 3d 88 e5 c3 bd 21 db fb 3c
       -0.044086922 0.066069186 -0.09565264 0.030744137
0003b0 b4 83 65 3d 9e fd 38 bd 5c 25 29 bd e0 7e 18 3d
       0.056033805 -0.045163743 -0.041295394 0.037230372
0003c0 a1 38 65 bd 5b 9c 0e be 69 d7 ac bd 8d b2 74 bd
       -0.05596221 -0.13926832 -0.08439524 -0.05974059
0003d0 f4 ac e2 3d e0 59 1b 3e 8e f7 bf 3c d7 d2 21 3e
       0.110681444 0.15171003 0.023433473 0.15803085
0003e0 8c a1 81 3d 56 7f 52 3c 51 bc 3c be 44 3b c3 3e
       0.06329641 0.012847742 -0.18431212 0.38131154
0003f0 e7 4f b1 bd 9f 56 8b bd 49 24 e6 bd 78 03 b1 bc
       -0.08657818 -0.06803631 -0.112373896 -0.0216081

lstm.weight_hh_l1 f4 [512, 128]
000000 4d 93 d2 3d a3 69 27 be af b3 bd 3d be 16 a0 3c
       0.10282002 -0.16348891 0.092627876 0.019542094
000010 84 d6 03 3d 7b 79 31 3e ef 86 62 3e 69 76 6a 3e
       0.032187 0.17331497 0.22121786 0.22896732
000020 78 da b4 bc 17 cd 94 bd b4 76 5d 3c 91 09 80 3e
       -0.02207683 -0.0726568 0.013517071 0.250073
000030 9c c4 53 3e 74 cc 07 be 95 78 a5 be b9 a3 4e be
       0.2068047 -0.13261586 -0.3231856 -0.20179643
000040 88 d4 45 bd 3b 85 4b 3d 7d 5a 8a bd e8 75 17 3e
       -0.04829839 0.049687605 -0.067555405 0.14791071
000050 1a 69 4c 3e 23 01 4b 3e 45 18 d8 3d 0d 92 9b bd
       0.19961968 0.19824652 0.10551504 -0.07596216
000060 e5 40 da 3c 03 3f 54 be 9a 42 5e 3e c7 53 1e bd
       0.026642272 -0.20727162 0.21705094 -0.038654115
000070 a5 78 a2 3c c2 d6 3e be e5 78 2e 3a 1c 70 de 3d
       0.019832918 -0.18636611 0.0006655588 0.10861227
000080 43 d9 da bd 27 69 8c 3e a6 88 85 3d a4 20 86 3e
       -0.10685971 0.27423975 0.06520204 0.26196778
000090 38 98 88 3d 52 5a 80 bc 11 8e ee bd ea 8d 48 bd
       0.066696584 -0.015668068 -0.11648191 -0.048963465
0000a0 50 0f 08 3e 15 34 9e bd 95 97 15 3e 5c d4 53 3e
       0.13287091 -0.077247776 0.14608605 0.20686477
0000b0 a9 86 0d 3d 6e 20 4e 3e 70 b6 ed bd 56 d0 8d bc
       0.03455225 0.20129558 -0.11607063 -0.017311256
0000c0 77 a4 c4 bd 27 b0 2e be a5 c5 a9 3d 32 2e 27 3d
       -0.09601682 -0.17059384 0.08289651 0.04081554
0000d0 e9 eb 0b be ad 8d 94 bd 3a 86 b6 bd 7b 99 5e bd
       -0.13664211 -0.07253585 -0.089123204 -0.05434559
0000e0 6f 87 dd 3d ef 8b 8a 3e 67 d1 d2 bc 2a 75 de bd
       0.108168475 0.27059886 -0.025734616 -0.10862191
0000f0 53 c2 8e 3e 3b 85 93 3e 89 25 f6 3d 72 35 8c be
       0.27882633 0.28812584 0.12018878 -0.27384526
000100 17 dd 87 bb 8b 61 50 be 08 e5 2e be 5e ee c2 3d
       -0.004146229 -0.2034971 -0.17079556 0.09518121
000110 7b c2 ad 3c b7 6a ff bc d7 d1 0e be b3 3b a1 3d
       0.0212109 -0.031178815 -0.13947235 0.07872715
000120 be a2 7e 3c 46 b6 a3 3d ea f7 1f 3e 5a 6e 67 be
       0.01554173 0.0799375 0.15621915 -0.2260069
000130 c4 95 a1 bd 98 9a a1 3d 81 f2 a4 be 41 aa be 3d
       -0.07889894 0.078908145 -0.32216266 0.09309817
000140 59 df 16 be 1a a5 1d 3d 8e 3c 58 3e ab 3f 05 bd
       -0.14733638 0.03848753 0.2111685 -0.03253142
000150 7c 5b fa 3d 3e e9 42 3e d5 bf 8e bc c8 93 3d be
       0.122244805 0.19034287 -0.017425457 -0.18513405
000160 da ba 80 3d f2 f3 07 3e de 9b 6d be 99 6b 91 bd
       0.06285639 0.13276652 -0.2320399 -0.07100601
000170 f9 9f cc ba 9a 86 13 be 30 40 6c bc 73 09 a7 bc
       -0.001561164 -0.14406815 -0.0144196 -0.020390248
000180 f1 04 56 3e 3a e1 6b 3e a8 43 0a 3e bd 21 66 3d
       0.20900322 0.23035136 0.13502371 0.05618452
000190 7d 94 2b 3e 4f d2 03 be 94 0b 8e bd 3d 33 bd bd
       0.16755863 -0.12873195 -0.06935802 -0.092382886
0001a0 54 59 35 3e 3e 8d 6d be f4 39 8c 3d eb 9a d7 bc
       0.17709857 -0.23198411 0.06846991 -0.026318988
0001b0 b3 71 b2 bd e9 df bb bc 6b d5 71 3d 00 da b6 be
       -0.08713093 -0.022933917 0.05904142 -0.35713196
0001c0 b4 e4 77 bd a2 d2 40 bd ba 43 a6 bd f5 e6 7c 3d
       -0.060520843 -0.047075875 -0.081183866 0.061743695
0001d0 e9 c8 d6 3a ae 07 09 be 9c e8 b9 bd 0c 27 9b 3d
       0.001638678 -0.13381836 -0.0907757 0.07575807
0001e0 59 9c c0 bd 45 67 d2 bc 70 b6 24 3e ae 37 a5 3d
       -0.09404821 -0.025684008 0.1608522 0.08067261
0001f0 f3 83 37 3d 1f 3f 18 3e 88 99 39 be 6a 15 17 3e
       0.04480357 0.14867829 -0.18124974 0.14754263
000200 bd 80 a4 3d 5b c9 28 bc 06 bc 15 bd 8d 95 a2 3c
       0.080323674 -0.010301913 -0.036556266 0.019846702
000210 9f 4c f0 bd 10 b7 67 bd 45 4c d0 3d 3c 26 59 3e
       -0.11733364 -0.056571066 0.10170797 0.21205992
000220 ae e8 48 bd ea a2 98 3c d9 7d b8 bd 8e 48 55 bd
       -0.049050026 0.018632371 -0.090083785 -0.052071147
000230 0f 19 91 bd 69 f8 05 3e 88 0f 93 bd 33 16 c0 3c
       -0.07084858 0.13083042 -0.07180697 0.023448085
000240 b8 95 96 3d ca 7e f0 bd f0 58 cd 3d 25 a5 57 3d
       0.07352775 -0.11742933 0.10026729 0.05264773
000250 b9 75 7d 3c 81 fb 9a 3e ba 69 e2 3c 81 30 15 3e
       0.015469962 0.30270007 0.027638305 0.14569284
000260 0a 43 7c 3b b9 5e 16 3e 9e 9c 14 bd 7b b2 1b bd
       0.0038492107 0.14684571 -0.036282174 -0.03801201
000270 bd ea 5e bc 76 8c fd bd f7 95 9c 3d 2e a7 46 3d
       -0.013605771 -0.123803064 0.07645791 0.04849928
000280 93 7b d7 bd 32 7e d4 bc f6 65 4b bd 69 06 97 bd
       -0.10521617 -0.02593908 -0.049657784 -0.073742695
000290 59 27 f7 3d 62 9a 13 bd 01 ad 88 3d 8e 2c ba 3e
       0.12068052 -0.036035903 0.06673623 0.36362118
0002a0 af b3 af bd 7a 78 c3 bd e6 e2 aa 3d 3c e7 7b bd
       -0.08579194 -0.095444635 0.08344059 -0.06149982
0002b0 56 c9 0d be d3 31 00 bd b8 e2 0d 3e 83 98 31 bd
       -0.13846335 -0.031297516 0.13856018 -0.043358337
0002c0 6c 9a 1e 3d c0 a5 e0 3c 31 44 3c 3d db 6d 2f bb
       0.038721487 0.027422786 0.04596347 -0.002676836
0002d0 eb 7d 00 bd 50 ba be bc c2 2b 07 3e 13 13 c4 3d
       -0.031370085 -0.0232822 0.13200286 0.095739506
0002e0 09 a6 04 bd 30 66 74 bd 2a c7 81 3e fc 1e 2e 3e
       -0.032384906 -0.059667766 0.25347263 0.17004007
0002f0 48 60 81 3c 3e cf b4 bd d2 69 26 bd a9 4f ed bd
       0.01579298 -0.08828591 -0.040628262 -0.115874596
000300 31 34 83 3d 70 db a0 3d 31 6c 10 bd 56 04 8b bd
       0.06406439 0.078543544 -0.03525943 -0.067879364
000310 87 26 8c 3c 59 98 90 3c cd 7f 28 3e d1 6d 97 bc
       0.017108215 0.01765077 0.16455002 -0.018484982
000320 49 ca 1f 3d d1 49 db bb 7d 97 5a be ff c2 56 3d
       0.039011274 -0.006692149 -0.2134685 0.052432057
000330 12 56 f8 bc 85 b6 04 3e 66 d2 95 3c f9 b9 8e bd
       -0.030314479 0.1296025 0.018288802 -0.06969065
000340 25 64 97 bd 79 0f 50 3e 32 be 17 bd 2d 0c f9 3d
       -0.07392148 0.20318402 -0.03704662 0.121605255
000350 ff 38 a4 3d 20 12 49 bd ea da 8a bc 09 a9 f6 3d
       0.08018684 -0.04908955 -0.01695009 0.1204396
000360 f5 55 f9 3d ff a1 8b 3d 33 e5 04 bc 28 4c f2 3d
       0.12174598 0.06818008 -0.008111286 0.11830932
000370 79 b5 3e bc 61 48 e3 3c 8c 43 cc 3c 18 42 69 3d
       -0.011639946 0.027744474 0.024934553 0.056947798
000380 bd 1a 14 3e 0c a1 22 3d 7b 2c a0 3d 13 02 e3 bd
       0.14463325 0.039704368 0.07820984 -0.1108438
000390 e7 7c 82 3d 1c 19 e7 3d 72 62 d6 bc a3 df 72 bb
       0.063714795 0.11284086 -0.02616999 -0.0037059567
0003a0 df c9 73 bd c5 77 b1 3d 9f 26 8c 3d 5d 1a e9 3b
       -0.05951869 0.08665422 0.06843304 0.0071137385
0003b0 9d 01 33 be 1b 52 b8 bd b7 f6 ee 3d d0 a2 1d bd
       -0.17481084 -0.090000354 0.11668151 -0.03848535
0003c0 ca 4d 4a be e9 ed df 3c be 9a 33 3c 2f 1c 2a 3d
       -0.19756237 0.027335124 0.010962186 0.041530784
0003d0 22 f6 42 be 07 28 a2 bb 5b fd ee 3d a0 97 88 be
       -0.19039205 -0.0049486193 0.116694175 -0.2667818
0003e0 f0 fc 06 be bb 08 45 bc 85 20 09 3e f3 0b f3 3d
       -0.13182425 -0.012026007 0.13391311 0.118675135
0003f0 5f 4c 0d 3e 23 ce 09 3e 87 93 8a be 27 85 82 bd
       0.13798665 0.13457541 -0.2706568 -0.06373053

lstm.bias_ih_l1 f4 [512]
000000 c6 39 37 bf 01 51 19 bf 66 94 37 bf d3 1a 34 bf
       -0.7157253 -0.5988923 -0.71710813 -0.7035343
000010 6c 75 1f bf 32 37 18 bf 5f 7f 19 bf c3 72 3f bf
       -0.62288547 -0.5945922 -0.5995998 -0.7478449
000020 f0 ec 1d bf 5e fa 58 bf 0d f6 1d bf d4 65 05 bf
       -0.6168966 -0.8475703 -0.6170357 -0.521085
000030 48 48 38 bf e3 29 0e bf b9 2e 38 bf f4 d0 36 bf
       -0.7198529 -0.55532664 -0.71946293 -0.7141259
000040 44 4a 24 bf ed d4 11 bf ef f7 17 bf 83 04 13 bf
       -0.6417582 -0.56965524 -0.5936269 -0.5742876
000050 7b 86 18 bf 88 55 77 bf f6 e4 21 bf 0a 11 2c bf
       -0.595802 -0.96614885 -0.6323999 -0.672135
000060 40 e6 09 bf 28 d7 be be c2 0f 47 bf 2e 9e 30 bf
       -0.5386696 -0.37273526 -0.7775842 -0.68991363
000070 73 44 1f bf 23 77 3c bf df 4c 29 bf a1 15 22 bf
       -0.6221382 -0.7361929 -0.6613292 -0.63314253
000080 db 17 0c bf a5 5b 48 bf 60 66 59 bf 35 89 01 bf
       -0.547239 -0.7826484 -0.84921837 -0.50599986
000090 d3 b9 4e bf d7 d8 23 bf 01 30 2d bf d6 a6 21 bf
       -0.80752295 -0.64002746 -0.67651373 -0.63145196
0000a0 df 58 0d bf 8f 7f 44 be b3 de 4b bf ae 38 08 bf
       -0.5521373 -0.19189285 -0.7963669 -0.53211486
0000b0 d3 7c 11 bf 24 85 34 bf 24 d2 1c bf 3d 7f fe be
       -0.5683109 -0.70515656 -0.6125815 -0.4970645
0000c0 35 c0 39 bf aa 17 1e bf ca 7e 30 bf 45 3b 1c bf
       -0.7255891 -0.6175486 -0.68943465 -0.6102794
0000d0 10 6f 18 bf 93 6f 19 bf 35 ee 1e bf ec 27 31 bf
       -0.5954447 -0.59935874 -0.62082225 -0.6920154
0000e0 98 68 04 bf a5 b8 2d bf 5a 7a 1b bf 17 27 29 bf
       -0.517221 -0.6785987 -0.6073357 -0.6607527
0000f0 28 8a 47 bf 64 75 3d bf e7 61 38 bf 41 d0 2b bf
       -0.77945185 -0.7400725 -0.7202439 -0.67114645
000100 87 dc 40 bf 3a d4 33 bf 25 1b 37 bf 2d 20 26 bf
       -0.753365 -0.7024571 -0.71525794 -0.64892846
000110 91 c4 f3 be 49 4a 2c bf a0 b2 5f bf f1 95 20 bf
       -0.47610906 -0.6730085 -0.87381935 -0.6272879
000120 19 5f 3b bf 58 a6 30 bf 77 7d 51 bf 38 bf f8 be
       -0.7319198 -0.6900382 -0.8183207 -0.48583388
000130 5b 13 1f bf b3 8b 33 bf fb 07 12 bf 22 47 70 bf
       -0.6213891 -0.7013504 -0.5704343 -0.9385854
000140 3e b1 27 bf 92 77 1c bf 3d e3 55 bf bf cc 4d bf
       -0.65504825 -0.6111995 -0.83549863 -0.8039054
000150 d6 3a 1d bf 41 41 da be 91 4c 02 bf 46 06 f6 be
       -0.614179 -0.4262791 -0.5089808 -0.4805166
000160 05 03 2b bf 96 86 4b bf ae 11 21 bf dd 04 3f bf
       -0.6680148 -0.79502237 -0.629176 -0.74616796
000170 ff 1f 2c bf 78 a5 32 bf 45 c3 20 bf ad f3 30 bf
       -0.6723632 -0.69783735 -0.6279796 -0.6912182
000180 7f 01 05 bf e4 31 25 bf 89 c8 2c bf 53 2f 0e bf
       -0.5195541 -0.6452925 -0.6749349 -0.5554096
000190 30 3b 4b bf 9d 1d 22 bf ab 0f 1a bf 42 4e 2f bf
       -0.7938719 -0.63326436 -0.6018016 -0.68478787
0001a0 c8 c6 36 bf 0b 69 2f bf ce 35 24 bf d6 09 18 bf
       -0.71397066 -0.6851966 -0.641446 -0.5939001
0001b0 0b f1 2b bf 7f e5 24 bf 81 98 14 bf ce 9b 21 bf
       -0.6716468 -0.64412683 -0.580452 -0.63128364
0001c0 7e 27 30 bf 0b 49 32 bf 6a 59 3b bf 99 8e 34 bf
       -0.6881026 -0.69642705 -0.7318331 -0.70530087
0001d0 1a 17 4a bf ee 8e 4d bf f5 6d 29 bf 75 9c 32 bf
       -0.789415 -0.8029622 -0.66183406 -0.69769984
0001e0 5e 6d 39 bf a3 9b 40 bf a0 79 66 bf 09 5f 42 bf
       -0.72432506 -0.7523748 -0.90029335 -0.7592626
0001f0 83 69 20 bf 4b 59 32 bf d6 d0 58 bf a0 4d 19 bf
       -0.62661 -0.696675 -0.8469366 -0.5988407
000200 79 04 cb be a8 61 b4 be 69 3e 05 bf f4 77 ee be
       -0.3965185 -0.35230756 -0.52048355 -0.46575892
000210 68 4e c4 be a0 c7 e0 be 01 d7 a6 be 51 0b 2a bf
       -0.3834107 -0.43902302 -0.3258591 -0.6642352
000220 09 5e e0 be 05 32 06 bf bb a6 ce be 48 b1 93 be
       -0.43821743 -0.52420074 -0.4036158 -0.28846192
000230 f5 67 20 bf af 61 03 bf 55 86 c9 be 14 06 12 bf
       -0.62658626 -0.5132093 -0.393603 -0.57040524
000240 6f 44 f2 be 02 02 d7 be 1e c4 9a be a5 1a e8 be
       -0.47317836 -0.4199372 -0.3022775 -0.45332828
000250 43 ff 08 bf 26 11 15 bf 7c 6d a5 be bd 69 08 bf
       -0.535145 -0.5822929 -0.32310092 -0.53286344
000260 e8 f2 c8 be 98 04 87 3a a9 16 04 bf 5a 11 09 bf
       -0.39247823 0.0010301052 -0.51597077 -0.535421
000270 c2 2f bb be c5 ae c3 be 83 37 1a bf 0d 2a 03 bf
       -0.36559874 -0.38219276 -0.60240954 -0.5123604
000280 e9 0b 08 bf fd 72 28 bf 91 f1 1e bf cf 66 8a be
       -0.53143173 -0.6580046 -0.6208735 -0.27031562
000290 26 95 24 bf 99 58 c7 be f2 48 eb be 2f 76 db be
       -0.6429008 -0.38934782 -0.4595409 -0.42863604
0002a0 d6 bf b6 be 95 e0 9b be bd d0 24 bf 17 b2 e2 be
       -0.35693234 -0.3044478 -0.6438101 -0.44276497
0002b0 5e 9f d8 be 08 bd c4 be 21 31 09 bf 1f a5 cd be
       -0.42309088 -0.3842547 -0.5359059 -0.4016504
0002c0 a2 c6 13 bf ad 4f c8 be 47 2f 1a bf fb 34 c3 be
       -0.57724965 -0.39123288 -0.6022839 -0.38126358
0002d0 8b 22 f9 be 34 61 d7 be b7 8c e2 be e6 89 f6 be
       -0.48659167 -0.42066348 -0.44247982 -0.48152083
0002e0 7c d1 88 be 73 8e c3 be b0 77 04 bf 78 71 0c bf
       -0.26722324 -0.38194618 -0.5174513 -0.5486064
0002f0 45 2f d6 be f5 83 d8 be 74 55 f9 be fa 12 f2 be
       -0.4183294 -0.42288175 -0.48698008 -0.47280103
000300 ba a7 ba be 15 30 eb be 5a 94 02 bf e8 31 06 bf
       -0.3645609 -0.4593512 -0.51007617 -0.524199
000310 a7 b7 84 be f3 2d a8 be 1c 5e 33 bf 6b 1b df be
       -0.25921366 -0.32847556 -0.70065475 -0.43575606
000320 5c 3e 23 bf 03 f4 bf be 8f 24 d5 be ea f9 e2 be
       -0.6376703 -0.37490854 -0.41629454 -0.44331294
000330 3d c2 d5 be dc ac 13 bf c0 6d c3 be 2b f4 18 bf
       -0.41749755 -0.5768564 -0.3816967 -0.5974757
000340 cd b4 2c bf 5d ec ff be 41 ce 08 bf 0c 34 22 bf
       -0.6746338 -0.49985018 -0.5343972 -0.6336067
000350 3c 2c 09 bf f0 70 6e be 37 53 a2 be 69 de b7 be
       -0.5358312 -0.2328527 -0.31704113 -0.35911873
000360 cd 58 d8 be 9f 7a f4 be b5 9e f5 be a1 dd 00 bf
       -0.4225525 -0.47749802 -0.47972646 -0.5033818
000370 ed 10 00 bf 92 7a d0 be 65 ba ce be 96 ad fb be
       -0.50025827 -0.40718514 -0.40376583 -0.49155873
000380 db d8 99 be 3e 0b b8 be 14 e3 cf be 87 2f af be
       -0.3004826 -0.35946077 -0.40602934 -0.34215948
000390 71 54 02 bf b1 9c 13 bf e9 63 ea be 07 03 da be
       -0.509101 -0.5766097 -0.4577935 -0.42580435
0003a0 24 62 29 bf fc 8f f0 be e2 54 c9 be 26 8f c9 be
       -0.66165376 -0.4698485 -0.39322573 -0.39367026
0003b0 f4 38 e2 be 25 c5 ee be 58 90 ff be 13 2e d4 be
       -0.44184077 -0.46634784 -0.49914813 -0.41441402
0003c0 3d c0 19 bf 79 db f8 be 0e 11 d3 be 9c a1 f9 be
       -0.6005896 -0.48604944 -0.4122395 -0.4875611
0003d0 a3 f1 03 bf a5 48 b9 be 44 79 fa be 73 97 02 bf
       -0.51540583 -0.36188236 -0.48920643 -0.51012343
0003e0 d8 02 26 bf 99 d1 e7 be 46 1d 0c bf 9e a0 06 bf
       -0.6484809 -0.45277098 -0.5473217 -0.5258883
0003f0 d5 b0 ed be 2e 7a fb be bf e2 c8 be 29 dc b0 be
       -0.46423975 -0.49116653 -0.39235494 -0.3454297
