model_window2_dim4.pt (torch_old, 864997 bytes, 11 tensors)

lstm.weight_ih_l0 f4 [512, 1]
00000000: 9522 f43d 48c7 383d 099c b8bc 584b 2bbe
00000010: d0e0 a6bd 18b7 bdbd c538 f83c aa41 a33c
00000020: 93c3 2abd 067d babd 40d7 c1bd e088 123d
00000030: d936 a1bd 5f3a 43be 8291 00bd 8bed b6bd
00000040: 99b7 b9bc fee0 4bbd 1639 54bc 4add edbd
00000050: 832a 27be e0b8 993d a015 d23d c9e4 6ebc
00000060: 1d4f 8dbd 2b70 a1bd 3236 eabd 207d 9abd
00000070: a277 093b a6b5 23be 9bd3 aebd 1cb8 1a3d
00000080: ab79 c6bd 9622 05bc 0dd7 b5bc da67 be3d
00000090: 0775 d53c 8c00 bfbd 1a8b 013c 3e6c 1fbc
000000a0: cb00 873e 489e d1bd a2b6 babc a867 f93d
000000b0: 0302 2c3d 463b 6c3d b3cb a5bd f61f 58bd
000000c0: 828d 9bbd 6e9b d43c 8dfb a7ba 2d46 abbd
000000d0: e574 30bd 543f 0fbe 19c8 d33c e379 ab3b
000000e0: 8cc2 eebd 24db ddbc 02dc 89bd bc8f aabc
000000f0: a6e6 293c ad89 e9bd 5b6d b1bd b5fa a5bd
00000100: acf0 ff3c 269d 11bd 0d85 f6bc 19a2 cebb
00000110: 7551 bbbd 17e4 a2bd eb1a a13d d812 ed3c
00000120: 6993 163e 00ad b43c 392b b1bd 2bb8 37bd
00000130: c868 ecbd 4bb8 f3bd eb71 223e d184 3cbc
00000140: 3471 49bd 446c f53c 7687 2fbe 81c8 b0bd
00000150: cae0 48bd e57f 0ebe 94ac 323d adbc 903c
00000160: 1c41 3fbd b53c 48be 2766 07be dd7d 3ebe
00000170: 72e3 36be 7ac6 0bbd dc5e c83e c9fc 123d
00000180: cdbc a7bd f71a fcbd a993 003d f2f6 b0bd
00000190: e01f 90bc f4cf 923d d909 a5bd 7cb7 4fbd
000001a0: 452f 983d 7e30 aa3d 6659 34bd 488c 6cbd
000001b0: 83b0 b9bd 4a77 ed3c 29e7 f23d d04a 77bb
000001c0: 5c75 84bd ce04 86bd 9263 6c3c eead 8b3c
000001d0: 5130 ad3c 35ad 82bb 9861 d4bd 73b1 15bd
000001e0: 394a c0bd 6579 96bd 3635 1b3d 57da d13d
000001f0: 079d 213d 4245 3fbe 8fdb 243e e6e4 b1bd
00000200: 20b5 94bc 5d57 29ba 0174 d9bd 6246 13be
00000210: 6783 3a3d f12c 18be b118 1d3d b6c3 f4bc
00000220: 6c37 a6bd 3938 40be 3444 01bd d4e3 b2bd
00000230: 0bff abbd 5e59 4bbe f226 4a3d 9f61 a2be
00000240: f492 1a3d c8ad 02bb 348b 923d df35 153c
00000250: dd90 21be 88ed f4bc 3c44 3abd 1d2d eebd
00000260: 6829 e2bc 12fb 293d abf1 32bd ea95 69bd
00000270: ab96 a13c 8e8f 5cbe 8b0a f0bd b369 cbbc
00000280: a9a9 99bc bc07 b6bd c5b7 00bd 511c 66bd
00000290: 6c65 14ba 5007 36bd a070 83bd 3455 12be
000002a0: a4d9 43bd 545e f4bc 1063 6f3c 8f14 c3bd
000002b0: 5833 b8bd 921c a2bd 566c acbd 7d80 17be
000002c0: 9502 aebd cf67 81bd 8edb 0fbe 9e0e b5bd
000002d0: 3c74 77bd 8f06 8e3c cb3e 8abc 3104 c83b
000002e0: 1f41 0abb 28e3 523a 37a7 a5be 23b8 bdbc
000002f0: c3a1 eebc e54c 81bc a4b4 d43d aba0 8ebd
00000300: 8a6a 32bd 27fc 63bd cace 5ebd 2834 aabd
00000310: 4ea9 a13b 3a96 aebd b28a 133d 604e 34bd
00000320: f565 5d3d 93b0 6c3d fb3f 44bc 4420 283c
00000330: e55f 06bd 1dc5 163d 2e8f 6b3d 0ca8 68bd
00000340: ba5e 2fbd 5405 ee3c 150c 87bd 4afb 8fbb
00000350: 0771 9d3d e4f8 c0bd 13a7 66bd 1334 2cbd
00000360: 970a 6d3b 5603 6fbe 6660 a3bd a694 8abd
00000370: 39c8 acbd 4852 1abe 3d7e a33d cf08 273d
00000380: 4f37 9bbd 2be8 ce3c 47a3 5f3d c4dd cbbd
00000390: bf12 b03b 9cc6 413d d09d a7bd 88cf d3bd
000003a0: 68ef 01bc b79b 043e ba6a 67bc de8e 11be
000003b0: 8de5 19bd 8a99 703d 16cf 3a3d 9c80 dabd
000003c0: 8726 debc e8b8 49be c6ec fabd 7ee6 cbbc
000003d0: 2701 bebc 3331 cbbc f7e7 073c 7d8a efbd
000003e0: 0c9d 1cbe f65d 6f3d 5142 d13c b3f2 25bd
000003f0: b0ac 543d 06e4 3e3d 7b62 0abc 92ae adbd
0.119206585 0.045111924 -0.02253534 -0.1672796 -0.08148348 -0.09263438 0.030300507 0.019928772
-0.04169042 -0.091058776 -0.09464884 0.035775065 -0.078717895 -0.19065236 -0.031388767 -0.089320265
-0.022670554 -0.049775116 -0.0129530635 -0.11614473 -0.1632481 0.07505965 0.10258031 -0.014580914
-0.06899855 -0.078827225 -0.11436118 -0.07543397 0.0020975848 -0.15987262 -0.08536454 0.037773237
-0.09691175 -0.008125922 -0.02219727 0.09297152 0.02605678 -0.09326276 0.0079067 -0.009730397
0.26367792 -0.10235268 -0.022792164 0.12177974 0.041994106 0.057673715 -0.08095493 -0.052764855
-0.0759535 0.02595302 -0.0012816057 -0.08362994 -0.04308023 -0.13989002 0.02585225 0.005233036
-0.116582006 -0.027082033 -0.06731416 -0.020820491 0.010369932 -0.11403213 -0.08663436 -0.08104459
0.031242691 -0.03555026 -0.03009274 -0.0063059446 -0.09146396 -0.07953661 0.07866462 0.02893965
0.1470467 0.02205515 -0.08650822 -0.04485337 -0.11543423 -0.119003855 0.15863769 -0.011506275
-0.049180225 0.029958852 -0.17141518 -0.08631993 -0.0490425 -0.13915975 0.043621615 0.017668093
-0.046692953 -0.19554408 -0.13222562 -0.186027 -0.17860201 -0.03412483 0.39134872 0.035885606
-0.08190308 -0.12309831 0.03139082 -0.08640851 -0.017593324 0.0716857 -0.08058519 -0.050712094
0.07430891 0.083100304 -0.04403057 -0.05775097 -0.0906687 0.028987546 0.118604966 -0.00377338
-0.06467697 -0.06543885 0.014428036 0.01705071 0.021141203 -0.003987933 -0.10370177 -0.036546182
-0.09389157 -0.07347373 0.037892543 0.10246723 0.039456394 -0.18678764 0.1609938 -0.08686237
-0.018152773 -0.00064598565 -0.10617829 -0.14382318 0.04553547 -0.14860894 0.038353626 -0.029878478
-0.0811604 -0.18771447 -0.031559184 -0.08734861 -0.08398255 -0.1985831 0.049353547 -0.31715104
0.0377378 -0.0019940007 0.07155457 0.009107082 -0.15777917 -0.02989842 -0.04547523 -0.116296984
-0.027607635 0.041499205 -0.043687504 -0.057027735 0.019725164 -0.21539137 -0.11720761 -0.024830675
-0.018757658 -0.08888194 -0.031425256 -0.05617935 -0.0005660865 -0.044440567 -0.06417966 -0.14290315
-0.04781498 -0.029830135 0.014611021 -0.095254056 -0.08994168 -0.079156056 -0.08419101 -0.14795108
-0.08496586 -0.06318628 -0.14048597 -0.08840679 -0.060413584 0.017337112 -0.016875645 0.0061040153
-0.0021095944 0.0008044713 -0.32354137 -0.023159092 -0.029129868 -0.015783736 0.10386017 -0.06964239
-0.043558635 -0.055660393 -0.05439643 -0.08310729 0.004933513 -0.08524747 0.036020942 -0.044020057
0.054052312 0.05778558 -0.011978145 0.010261599 -0.032806296 0.036809076 0.057509594 -0.056800887
-0.042814948 0.029055275 -0.06594101 -0.0043939697 0.07687574 -0.09422472 -0.05631168 -0.04204185
0.0036169642 -0.23341116 -0.07977371 -0.06766634 -0.08436627 -0.1507045 0.079830624 0.040779885
-0.07578909 0.02525719 0.054599073 -0.09954408 0.0053733285 0.04730855 -0.08184397 -0.10342318
-0.007930614 0.12950025 -0.014124567 -0.14214656 -0.037572432 0.058740176 0.04560765 -0.106690615
-0.02711798 -0.19699442 -0.12252192 -0.02489018 -0.023193909 -0.024803733 0.008295051 -0.116963364
-0.15294284 0.058439218 0.025544317 -0.04051466 0.0519225 0.04660418 -0.008446331 -0.08480562

lstm.weight_hh_l0 f4 [512, 128]
00000000: 41f8 ec3c 16c4 f83c 560c b73b bd6e a8bd
00000010: 70f0 82bd d4e2 1fbd 5918 b03c 1ed4 c93d
00000020: f258 743c e294 d4bc 12c9 313d f511 cebd
00000030: 0db5 263d a920 bb3c 1f39 243b b918 d1bc
00000040: 6dc5 d6bd 46fc f63c 76ff ea3d 7b34 1338
00000050: 6428 6e3d 3bac 683d bde4 163d 8075 0cbe
00000060: 8c58 98bc 728d c73c da7a f33c 84aa 633c
00000070: 2069 b73c eb57 60bd f18c cdbd 11e1 f9bb
00000080: 0581 843d 8aa2 e73d 8c8b edbc 9302 5fbd
00000090: a5c5 3e3d b16e a3bd b59c 87bd 3611 cf3c
000000a0: ff80 17be 478b d23b 3f85 023d 661f 403e
000000b0: 1b94 793d 163e c0bc 914d cfbd 806a 023e
000000c0: 2c39 7cbd 31f1 a93d d65a 993d c419 72bd
000000d0: 7306 f8bc a76c 603d 5ad1 0cbd f58f 563c
000000e0: 7cf8 e93b c830 1fbd 2732 2b3b 19ee 8e3d
000000f0: fcfe 513c 3300 e33d b7bc 4b3c c4fc 2f3c
00000100: 0313 023e f950 443d a5fd 25bd 6bf7 b93d
00000110: c9b7 05be c604 b73d c6e7 95bd d152 f53c
00000120: daf5 b03d b1ae 7dbd f633 bd3c 2891 a3bd
00000130: f97b b83d 4733 003e dc80 91bd 534e 07bc
00000140: 6550 eebd 9558 053d 98d4 94bc 46ae 9b3d
00000150: f851 b3bd 75b2 96bc aa0e cdbd 3d82 053d
00000160: 451b 3fbc a8aa 0dbe 4a36 21bd e4a3 7a3c
00000170: 3aa2 bdbd c5b3 1dbd 527f 0f3d dd29 043d
00000180: b9ae 8fbb ad9e c2bd 8d7d 083e f88c eb3b
00000190: 0cc6 013d 70fc 3fbc e750 71bb bfbd c13d
000001a0: b70b 773c 60dd c93d 73f7 e43d 9b6d 2cbd
000001b0: 80bf db3d 3486 edbc ff35 f03c 08ee 0e3d
000001c0: 8943 92bc 9120 67bc 2bde dabc 1558 853b
000001d0: bbef a23d 3911 dcbd 8c61 71bc 9291 cc3c
000001e0: 42f1 943d 5b7e 6b3c a7f6 b2bd 0e99 bf3b
000001f0: 7485 02be a05d dfbd 67da 8a3d ad62 2c3c
00000200: 2b76 4a3d 45eb c5bd ad48 533d b217 0bbe
00000210: 8986 24bd 93d5 b7bd a9ad 5a3a 5034 fb3d
00000220: 105b 343b c6ce 043c a56f 29bd 6011 d2bd
00000230: ce57 a7bc 614d 1cbd 75fa af3c 8acd 843d
00000240: 4a43 4ebd ccea babd 2e22 523d 616c c8bd
00000250: 3d4a 65bc 77e1 353c ed60 f93d 7415 83bd
00000260: aa81 60bd 411f a4bc 0d45 56bd 3ef3 b4bb
00000270: 527b e5bd 7e92 07be 9318 a8bd 404e 6b3c
00000280: a32d 86bd 19c5 9f3d eb78 f13d 01cf 573d
00000290: 978d c1bd 4c5f 203d fb18 c13a 4885 f7bd
000002a0: 108a 0bbd 4da1 46bc 0b39 f6bd f0e2 0e3e
000002b0: 0e66 f1bc 6909 fdbc f1d2 cabc 7e90 c53d
000002c0: 5ccf eebc 984b 18bd 8c36 263c c37a f4bd
000002d0: 5b3e 97ba df75 473d 9ac1 b53b e295 bdbd
000002e0: e920 c3bc 602e f3bb e436 0e3d d914 463d
000002f0: ac41 fe3c acbd 3a3d 5c21 b03d 3f75 fc3c
00000300: f18c 9ebd 0f4b 5fbc 4294 c6bd 6ee4 7b3d
00000310: 8391 bebd f79c 2dbd b6f2 95bc 3c5b dcbd
00000320: 8b09 743d 5bed c7bd d56e 77bd 756b 92bd
00000330: 0cc0 5cbd 3600 593d ef37 cfbb 3990 57bd
00000340: 5b0c fabb 5364 1ebd ea0d a03d 4e59 a8ba
00000350: 93d9 58bc 3483 943d 3f58 b3bd 61a3 d23b
00000360: 18cc 883d 3ec3 a6bc b9f5 f8ba 6950 28bc
00000370: 5b02 0ebe 47a9 15bd 2324 99bb 9da2 fcbd
00000380: 1b32 b1bd b6fe 69bd 51b9 96bd 0305 33bd
00000390: 5d3a 83bc 9090 ccbd 8398 303d 626a 833d
000003a0: 0cb2 3b3d 7b18 3c3d 4d93 c23d 7c58 a73d
000003b0: 0c3b 42bc 6ba4 22bd e495 273d 6ba6 a13d
000003c0: 378c f33b 42bc 393d 0a52 063d 43f0 c13c
000003d0: 4993 ba3d dfbf 8fbc bd97 e33b 838b 26bc
000003e0: 27ad 8b3c c47a 5dbd 04e2 24bc 5d53 a33d
000003f0: 4f5e 48bd 728c 493d 319c cf3d 5ba9 f0bd
0.02892697 0.030366939 0.0055861874 -0.08224247 -0.06393516 -0.03903468 0.021495985 0.09854911
0.014913784 -0.0259499 0.043404646 -0.10062019 0.040700007 0.022842722 0.002505846 -0.025524484
-0.10486875 0.03014959 0.114745066 3.5096407e-05 0.05814399 0.056804877 0.036839236 -0.13716698
-0.01859691 0.024359439 0.029721666 0.013895635 0.022388995 -0.054771345 -0.10036648 -0.007625707
0.06469921 0.11310299 -0.028997205 -0.054445814 0.046575207 -0.07980097 -0.06621686 0.025276762
-0.14795302 0.0064252946 0.031865355 0.18761978 0.06093226 -0.023467105 -0.101222165 0.12735939
-0.06157796 0.08297957 0.07488029 -0.059106603 -0.030276513 0.05479112 -0.03437934 0.0130958455
0.0071402173 -0.03886488 0.0026122422 0.06979007 0.012817141 0.110840224 0.01243513 0.010741416
0.12702565 0.047928784 -0.040525097 0.09080394 -0.1305839 0.08936457 -0.07319598 0.029946717
0.086406425 -0.061934177 0.023096066 -0.07986671 0.09008021 0.12519561 -0.07104656 -0.00825842
-0.11636428 0.03255518 -0.018167779 0.076015994 -0.08755869 -0.018395642 -0.100125626 0.032594908
-0.011664216 -0.13834631 -0.039358415 0.015297864 -0.09259458 -0.03850152 0.03503353 0.032266486
-0.0043848422 -0.09502921 0.13329144 0.0071884356 0.031683013 -0.011717901 -0.0036821903 0.09460019
0.015078477 0.09856677 0.1118001 -0.042096715 0.10729885 -0.028994657 0.029322622 0.034894973
-0.017854469 -0.0141068855 -0.026717266 0.004069338 0.07955881 -0.107454725 -0.01473273 0.024971757
0.07272579 0.014373387 -0.087384515 0.005847103 -0.12746221 -0.109065294 0.06779938 0.010521573
0.0494291 -0.09664015 0.05158298 -0.13583258 -0.040167365 -0.08976283 0.00083419174 0.12265837
0.0027520098 0.008105939 -0.04136624 -0.1025722 -0.02042761 -0.03815973 0.021481732 0.06484516
-0.05035714 -0.09126815 0.051302128 -0.09786297 -0.013994751 0.011101118 0.1217669 -0.06400576
-0.054811157 -0.020034434 -0.052311946 -0.005522161 -0.11205162 -0.13239476 -0.08207812 0.014361918
-0.06551673 0.07801265 0.117906414 0.05268765 -0.09450834 0.039153382 0.0014732176 -0.12085968
-0.034067214 -0.012123418 -0.12022599 0.13953757 -0.029467609 -0.030888276 -0.024758788 0.096467
-0.029151611 -0.037181467 0.010144841 -0.119374774 -0.0011538969 0.048696395 0.0055467607 -0.092571035
-0.023819404 -0.0074213 0.034720317 0.048359726 0.031037174 0.04559104 0.08600113 0.030817626
-0.07741726 -0.013628735 -0.09696247 0.061497144 -0.09305098 -0.04238602 -0.01830421 -0.10759589
0.059579413 -0.09762069 -0.060408432 -0.07149402 -0.053894088 0.052978717 -0.0063238065 -0.052627776
-0.0076308674 -0.038669895 0.07815154 -0.0012843998 -0.0132354675 0.072515875 -0.08757066 0.0064281677
0.06679553 -0.02035677 -0.001899413 -0.0102730775 -0.13868086 -0.03653839 -0.0046734973 -0.123357035
-0.08652135 -0.057127677 -0.07359565 -0.04370595 -0.01601904 -0.099885106 0.043114197 0.06416775
0.045824096 0.045921784 0.09500752 0.08171174 -0.011854898 -0.039707582 0.04091443 0.0789307
0.0074324864 0.045345552 0.032793082 0.023674136 0.09110124 -0.017547546 0.006945579 -0.010165098
0.017050339 -0.054072157 -0.010063652 0.07974885 -0.048918065 0.049206205 0.10137213 -0.11751052

lstm.bias_ih_l0 f4 [512]
00000000: df1e 82bd 2163 15bd ad9d 2cbd 4afb 5cbd
00000010: 6411 1bbd 8ad9 80bd d610 6ebd 118e 9bbd
00000020: d57b 8abd f75c 8cbd 63eb 3dbd fc7f a13b
00000030: a397 97bd 78fe 07bd 24f3 17bd 28f9 ad3d
00000040: 6acd 07be fc8f 423d 5a4a bf3b a27b 83bd
00000050: 6195 783d c134 52bd 6ba2 f0bd 8b0f b1bd
00000060: 5425 e6bc 7a4f 82bc 63ba ccbd 4443 d4bd
00000070: 7231 dabd 7d9b 5cbe dd2c a9bd cd4d aabd
00000080: 645a efbd d45e ddbc 04ef 583d 5b2f f2bd
00000090: 1185 09be 9f1a 50bd 9b54 44bd dca7 a9bc
000000a0: fd08 483e 0b0a e33c 1770 2cbd e45e 203e
000000b0: de27 8bbd 625d 1cbd 4cef f6bd 9fbb 04be
000000c0: 0da2 aabd 479f fdbd 9ca9 d3bd 9b68 edbd
000000d0: d3e6 a8bd 3d07 85bd 5d6e f0bd 52f9 edbd
000000e0: a758 dbbd eec4 303b 8743 aebc 1e26 01be
000000f0: 53ab 05bb 0c6a fc3c 5676 f7bd 4db0 bb3c
00000100: 9cb3 d2bd fa6f 44be 6b33 45bd 14c6 b3bd
00000110: 03b5 4dbd 1528 d4bd d25a 72bd ec7e 4abd
00000120: 9509 b5bd 7b02 863a 2dbc cfbd 73b2 6bbd
00000130: 8298 44bd e295 4dbd 58da b53b e5a9 b0bd
00000140: 384c d4bd 7014 9ebc 6b4e 22be d5ba 4c3d
00000150: 7db6 77bc 689a 02be 382b b4ba cfbd 80bb
00000160: ccd4 97bd 4fd7 1dbe d3fd c5bd 5ab7 0cbd
00000170: d3ce 04be 8e82 06be 8b71 ab3e fa7e c43c
00000180: b136 ebbd 6773 653c c6bb 4bbd bb87 b9b7
00000190: af51 b2bd 8e85 0139 6684 0cbe 1676 a0bc
000001a0: 8e23 42ba 5d0c 18bc c25d 33bd 065b 81bd
000001b0: c452 99bd 8234 d0bd e573 c03b c8be bcbd
000001c0: fd01 113d 9eb3 1f3d d962 733c 74fd 04be
000001d0: 4b1d c83c faf4 11be 5433 0abe 412d ef3c
000001e0: a6b2 fd3a 665f 1d3b 532f 23bc 438f bdbc
000001f0: 2878 67bc c9dd 4ebd d406 d7bc af1b a83b
00000200: b4f1 a9bc b737 8abd 642e 543d 2063 e8bd
00000210: 0b21 163d 398b 86bc 3145 5dbd a0a9 97bc
00000220: f06a febd e2d2 c2bd 353d 31bd 520f 28bd
00000230: 34d9 77bd 9a3b 31be 2783 d73c 5260 41be
00000240: c703 b83c 3d1a 2fbd a9f6 04bd b057 17bd
00000250: 4dd3 5cbe e9b7 76bd 3eb1 273c a0fb d0bd
00000260: adb4 87bd 7cfc 38bc e081 9bbd c19b fb3c
00000270: 2d35 9a3c 6740 b9bd f9e7 c93c c239 e33c
00000280: 49c3 93bd 23a7 dfbd 1037 bebd 20f8 05be
00000290: e670 5ebd 280e d83a a97c 66bd ee24 0ebd
000002a0: 7d9d 48be 90d1 c53c 5e9e b6bc 4081 f6bd
000002b0: a0fd fabd 259e 673c c26a d6bc a76a 07bd
000002c0: f1da 09be fe69 0abd b00f a8bd 1787 debb
000002d0: e485 eebd 60f4 c9bc 87ab 05be b891 6abd
000002e0: 5561 50bd 3a59 d6bc 9e6b 58be 9c57 253c
000002f0: a5a8 d53c 4017 883c 8837 543d 2d74 12bc
00000300: 3214 12bd e216 22be a8be f8bd a7d9 df3c
00000310: c73f 7f3d 3377 a1bd 0e02 78bc 9bdf ccbd
00000320: 0c76 cebd 0f1a d0bd c2b3 66bc 6895 c0bd
00000330: 2588 a1bd 2efc c9bd 41f6 d7bd 9324 05bd
00000340: b5d4 753c 8acd 683d 9790 8fbd 54ac 493c
00000350: 3fd0 da3a 7627 cabd b1c6 25be c16f 27bb
00000360: 5efe 43bc a9b7 f9bd 8228 6ebc 8097 07be
00000370: e3b2 02be c380 27bc f69f b5be 8b6a e23b
00000380: 9472 05be 26e1 44bd 1d7d 23bd 2525 dfbd
00000390: b246 07be 4313 f6bb 2de6 fcbb a5cf 8abb
000003a0: f4c1 eabd 3770 c93d 958f b0bb a667 a2bd
000003b0: b28f 18be 701d 03be 269c cabc cb35 f0bc
000003c0: 5519 b9bd 51d1 84be df46 62bc 24ed 04bd
000003d0: efc9 65bc 7616 45be 3fce 113c 9229 3dbd
000003e0: da4d 54be 89cb 39bd a54e 703c 7228 05bc
000003f0: b6a0 cabd 2a1a 6dbd 34ba f1bc def4 94bd
-0.063535444 -0.03647149 -0.04214256 -0.053950585 -0.037858382 -0.06291492 -0.058121525 -0.075954564
-0.067619 -0.06853669 -0.04636706 0.004928587 -0.07401969 -0.033201665 -0.03709711 0.084947884
-0.13261953 0.047500595 0.005837721 -0.064200655 0.060689334 -0.05131984 -0.11749729 -0.08645543
-0.028093971 -0.015907038 -0.09996488 -0.103643924 -0.10653962 -0.21543689 -0.0826051 -0.083156206
-0.116871625 -0.027022757 0.052962318 -0.118254386 -0.13429667 -0.050806638 -0.04793225 -0.020709924
0.19534679 0.02771475 -0.042099085 0.15661198 -0.067947134 -0.038174994 -0.12057361 -0.12962197
-0.0833169 -0.12383895 -0.10335085 -0.115922175 -0.08247151 -0.06495521 -0.117398 -0.1161982
-0.107102685 0.0026972848 -0.021272434 -0.12612197 -0.0020396307 0.030812286 -0.12083118 0.022911215
-0.10288164 -0.1918334 -0.04814474 -0.08778015 -0.050221454 -0.103592075 -0.059168644 -0.04943745
-0.08839718 0.0010224128 -0.101433136 -0.05754323 -0.047997005 -0.050191768 0.0055497102 -0.08626155
-0.103661 -0.019296855 -0.15850227 0.049982864 -0.015119192 -0.12754214 -0.001374579 -0.003928877
-0.07413635 -0.15414165 -0.09667554 -0.034354545 -0.12969522 -0.1313574 0.33485064 0.023986328
-0.11485041 0.014004565 -0.04973962 -2.2116923e-05 -0.08706986 0.00012352152 -0.13722381 -0.019587558
-0.0007405811 -0.009280291 -0.043790586 -0.063161895 -0.074864894 -0.10166265 0.0058731907 -0.09216076
0.035402287 0.038989656 0.01485511 -0.1298731 0.02442803 -0.14253607 -0.13496143 0.029196383
0.001935561 0.002401316 -0.009960013 -0.023139602 -0.014127769 -0.05050448 -0.026248373 0.0051302533
-0.020745136 -0.06748908 0.051802054 -0.113470316 0.036652606 -0.016423808 -0.054021064 -0.0185135
-0.124227405 -0.09512879 -0.043271262 -0.041030236 -0.060509875 -0.17307892 0.026307655 -0.188844
0.022462739 -0.042749632 -0.032461796 -0.03694886 -0.2156498 -0.060233984 0.010235129 -0.10204244
-0.06626258 -0.011290666 -0.07593131 0.030713918 0.018824184 -0.09045487 0.024646746 0.027737502
-0.07214982 -0.10920551 -0.09287846 -0.13082933 -0.054306887 0.0016483711 -0.05627123 -0.034703188
-0.19591327 0.024147779 -0.022292312 -0.12036371 -0.122554064 0.014136826 -0.026173953 -0.033060696
-0.13462426 -0.03379249 -0.08206117 -0.0067910063 -0.11646631 -0.02465266 -0.13053714 -0.057267874
-0.050874073 -0.026165593 -0.21134803 0.0100916885 0.026081393 0.016612649 0.05181077 -0.008938831
-0.03566379 -0.15829042 -0.1214574 0.027325464 0.062316682 -0.078840636 -0.015137209 -0.10003587
-0.100811094 -0.1016122 -0.014080944 -0.09403497 -0.07887296 -0.098625526 -0.10545016 -0.032505583
0.015004327 0.056836642 -0.0701 0.012309153 0.0016694142 -0.09870808 -0.16189076 -0.0025548788
-0.011962501 -0.121932335 -0.014536025 -0.13241386 -0.12763552 -0.01022357 -0.35473603 0.0069096736
-0.1303199 -0.04806628 -0.03991424 -0.10895757 -0.13210562 -0.0075096204 -0.007717869 -0.004236179
-0.11462775 0.098358564 -0.00538821 -0.079299256 -0.14898565 -0.12804198 -0.02473266 -0.029322525
-0.09038035 -0.25940946 -0.013810842 -0.032452717 -0.0140251955 -0.1924685 0.008899271 -0.046182223
-0.20732823 -0.045360122 0.014667188 -0.008127319 -0.098939344 -0.05788628 -0.029507734 -0.07273267

lstm.bias_hh_l0 f4 [512]
00000000: e533 ce3c 45b5 753c 19fc c6bd 3b64 44bd
00000010: a2fb 97bd 6ebb 4bbd 436e 0cbe 7395 86bd
00000020: d0e7 94bd 7779 a6bd 5b06 59bd d813 533d
00000030: 44a7 583d 5607 12be d9eb c5bd 1c2e 99bd
00000040: 0a66 60bd 8a9b cdbd 1f86 b4bc 4447 8ebd
00000050: a564 1f3b 48ea 823b a0ef e2bd 8d8c 87bd
00000060: 451e e8bd 1ddc fabd f8b4 c0bd f98a 07be
00000070: 2318 763c bb2d cbbd 8d84 d93c ee8a 883c
00000080: 0c15 19be 49d6 80bd 822d a6bd 2685 b6bd
00000090: 1032 c8bd 7b86 4dbd 197f 9fbd c896 2ebc
000000a0: 8388 6a3e d5ba dbbd cfa2 a5bd 9e16 aa3c
000000b0: 2d09 743d 00d9 47bc 79fc f1bd b771 5cbd
000000c0: 438c 06be 395c f1bd 8a51 f8bd 4e92 0dbe
000000d0: 2140 acbd 5faa 24bd 281d 17bd f0b1 eebd
000000e0: f93f 103c b912 ecbd 49a5 0f3d 7730 2ebd
000000f0: 74ff 8abd 8aeb dabd 8e0e 6ebd 8f67 4bbd
00000100: 5bff 923c 6e8c e7bd 0384 c3bd d076 00bd
00000110: 7803 37bd cc53 fcbc 9393 253d 3d56 813d
00000120: 861f f63c 5729 abbd ed3e ff3b e291 07bd
00000130: 6385 67bd 7d28 c9bb 6f01 0c3e e905 b9bd
00000140: e02a 133d d07a cebb 1c63 cdbd 9993 e13c
00000150: 3883 513c b621 2bbe f067 853c f052 9dbc
00000160: af5d 46be 6678 11be 9423 7abd a7dc f0bd
00000170: 2ada 26be 0710 383c 857d 803e 51d7 e3bd
00000180: 70e3 88bc dd4d 09be 3a1f 8fbd a63b d4bd
00000190: a9fc a7bd 30db 37bd c7d9 05be ac17 56bd
000001a0: a484 c03c 54fa b6bc b73c c5bd 1e36 05bc
000001b0: 9497 bd3c f40f 8e3c d7d0 793d 0688 e4bd
000001c0: 44ba 3cbd f637 593d ed90 17be 7945 4ebd
000001d0: 1adf a5bd e50c 24be d4bc 193d fb4a bfbc
000001e0: eac4 9c3b 0131 d2bc 1e4a eabc 2521 c2bd
000001f0: 6052 393d 2a46 c3bd a240 283d 2478 39bc
00000200: 04ed 87bd 5247 74bc a97f 443d e3c7 8fbd
00000210: 12db 083d 3b77 be3c e1e7 5c3d b062 54bd
00000220: ae2c ab3c 9ce0 2dbe bc45 c1bd bb2d e5bb
00000230: 04ba a0bd 70ad 00bd d2e9 453d d884 3ebe
00000240: 67a4 55bd 63d1 70bc 8371 30bd aad9 debc
00000250: 1036 8cbe d052 e23c a8a2 08be d542 9e3c
00000260: b69b 1dbe 3227 c33c fc94 53bd ecd3 b0bc
00000270: c7aa 12bd 867e 5bbe 8f60 83bd c67e 48bd
00000280: b93a dd3c 8070 26be 44e1 7dbc e663 dc3c
00000290: b0f6 7fbc e045 a03c 4365 c6bd d601 02be
000002a0: 264e e4bd 4cef 393d 7286 d0bd bd13 bebd
000002b0: 9497 00bd 1d16 04be 93c8 86bd e977 c4bd
000002c0: d4dc a43a cb96 193c 16fb cdbd 8359 03bd
000002d0: dcd5 afbd bee4 d8bd 2f19 e33c 5e9c b9bd
000002e0: 5928 58bd 5284 5abd d0fc a3be b6ce bebd
000002f0: 0c19 09be 9fcf c7bd ed66 613b 221d 87bd
00000300: 7832 21bc 2018 93bd cd14 19bd 2be6 68bd
00000310: 9abf 223c 0bb6 303d 1f13 02bd 020b b8bd
00000320: 0b5e debd 30b5 5c3d bc1b 473d 8390 6d3b
00000330: 10e3 86bd b2b5 02be a813 20be f267 cdbd
00000340: 4f6e 9f3b e682 95bd 7737 5dbe 5589 7abd
00000350: c133 bebc 4e2f cfbc 6803 febd e739 08be
00000360: 1839 98bc fab5 5dbe 4111 95bc 409b 49be
00000370: 7606 87bd b901 fcbd 73a2 93be dd8e 09be
00000380: 7134 a3bc 08e3 b23c 356e e2bc 4bc2 173c
00000390: d80e 9a3c 5859 713d f307 e2bd 29de bc3b
000003a0: 9367 2cbd a023 6b3c 0ada 3cbd 768d 913c
000003b0: 62bd 34be d572 cdbd 3ece 3abd 59a1 ccbb
000003c0: c839 08be 1572 50be db7b e7bd 273f bfbd
000003d0: fa0c 1fbb 5901 3abe af91 e63b 51a4 ae3c
000003e0: f370 0dbe e155 3cbd dd89 973c 0535 acbd
000003f0: 0da3 5dbd e556 d9bd 2bbe 00be f537 b73c
0.02517123 0.014996831 -0.097160526 -0.04794715 -0.07421042 -0.049739294 -0.13713937 -0.06571474
-0.07270777 -0.08128636 -0.052984577 0.051532596 0.052893892 -0.14260611 -0.09664125 -0.07479498
-0.054784812 -0.10039432 -0.02203661 -0.069471866 0.0024321463 0.0039952137 -0.11080861 -0.06618605
-0.113338985 -0.122490145 -0.09409517 -0.13236608 0.015020403 -0.09920832 0.026552463 0.01666781
-0.14949435 -0.06290872 -0.08114149 -0.08912115 -0.09775174 -0.05017708 -0.07787914 -0.010656066
0.22903638 -0.10728995 -0.08087694 0.020762738 0.059579063 -0.012197733 -0.118157335 -0.053819384
-0.13139443 -0.11785168 -0.12124927 -0.13825342 -0.08410669 -0.04020154 -0.03689304 -0.11655033
0.008804315 -0.115270086 0.035069738 -0.04252669 -0.06787005 -0.10689457 -0.05811935 -0.049659308
0.017944029 -0.11306082 -0.095466636 -0.03136331 -0.044681042 -0.030801676 0.04042394 0.06315277
0.030044328 -0.08357494 0.0077894838 -0.03309811 -0.056523692 -0.00613886 0.13672422 -0.090343304
0.03592956 -0.0063012615 -0.10028669 0.0275362 0.012787633 -0.16712078 0.016284913 -0.019204587
-0.19371675 -0.14206085 -0.061069086 -0.11760836 -0.1629416 0.01123429 0.25095764 -0.11125053
-0.016710013 -0.13408609 -0.06988378 -0.103629395 -0.08202488 -0.044886768 -0.13071357 -0.05226867
0.023500748 -0.022336163 -0.09630721 -0.008130578 0.023143567 0.017341591 0.06099018 -0.11158757
-0.046076074 0.053031884 -0.14801379 -0.050359223 -0.08099194 -0.16020544 0.037533596 -0.023351183
0.004784216 -0.025658133 -0.028599795 -0.09478978 0.045244575 -0.09534867 0.041077264 -0.011320148
-0.06637004 -0.014909582 0.04797331 -0.07020547 0.033412047 0.023250213 0.053932074 -0.05185193
0.020895328 -0.16980213 -0.09437129 -0.006993977 -0.0784798 -0.031415403 0.04831869 -0.18605363
-0.05215874 -0.014698359 -0.043077003 -0.0272034 -0.27384996 0.027627379 -0.13343298 0.019318977
-0.1539143 0.0238224 -0.051655754 -0.021585427 -0.035807397 -0.21434984 -0.064149015 -0.048949026
0.02700554 -0.16253853 -0.015495602 0.026903104 -0.01562278 0.019564569 -0.09687283 -0.12696013
-0.11147718 0.045394227 -0.101818934 -0.092811085 -0.031394556 -0.1289906 -0.06581225 -0.095931835
0.0012578019 0.009374331 -0.100576565 -0.032067787 -0.08585712 -0.10590504 0.02772197 -0.09063028
-0.052772854 -0.053348847 -0.32028818 -0.09316771 -0.13388461 -0.097563975 0.0034393624 -0.065973535
-0.009838693 -0.07182336 -0.037373353 -0.05686013 0.009933377 0.04314236 -0.031756517 -0.089864746
-0.10857781 0.05388373 0.048610434 0.0036249466 -0.065862775 -0.12764624 -0.15632498 -0.100295916
0.0048654447 -0.073003575 -0.2160319 -0.061166126 -0.023218038 -0.025291111 -0.124029934 -0.13303338
-0.018581912 -0.2165145 -0.018196704 -0.1968813 -0.06593029 -0.12305016 -0.28834876 -0.13433404
-0.019922467 0.021836773 -0.027640441 0.009262632 0.018805906 0.058923095 -0.110366724 0.0057637882
-0.042090964 0.014351755 -0.046106376 0.01776765 -0.17650369 -0.10031668 -0.045606844 -0.00624482
-0.13303292 -0.20356019 -0.113029204 -0.09338217 -0.002426921 -0.18164577 0.00703641 0.021318587
-0.13812618 -0.045980338 0.018498356 -0.0840855 -0.054110575 -0.10612277 -0.12572543 0.02236555

lstm.weight_ih_l1 f4 [512, 128]
00000000: 2ce2 a1bc 9c95 b73d 48f0 bebd 111f 94bc
00000010: ced9 b83d 2ced a73d e526 c93c c01e f33b
00000020: 8ef4 bfbd 80e3 2f3d dd10 8bbd 84dc 133e
00000030: c8d9 c0bd 4d92 ffba 8a55 8b3d 8c7b 9dbb
00000040: 7cc2 3e3d 1381 7dbd 00d9 0dbe 5683 9bbb
00000050: 634b 54bd 32c5 b2bd c972 a4bc e371 4cbc
00000060: 1e24 863d 34d3 583b ae7c 33bd 419c 8ebd
00000070: 5633 ab3d 1aa3 3e3d 2b1b e33d b60f 82bc
00000080: ce13 b4bd 1b71 babd cf9f b1bd 9bf9 98bd
00000090: 5b12 183b 67ee 003e 4033 3abd 32ef ff3d
000000a0: 546b a3bc b4ff bcbc 3520 d83d b414 0fbd
000000b0: 1189 60bc 0655 eebd 2624 043c a0cd b1bd
000000c0: 5649 983c 4d67 dfbd 8ce7 c3bd 4ac3 223e
000000d0: 5cf9 fd3d 6cb1 c2bc 1502 a93d 6420 703d
000000e0: b5e0 a13d f749 f63d 2401 033e 496d c93d
000000f0: f24c bebb 78ac bfbd 9b90 18bd d489 b1bd
00000100: 4c73 f03c 02c3 3cbd 941e 043e d075 b6bd
00000110: 3528 c93c d53c 9c3c 2ae3 193d e28e 283d
00000120: bae2 f3bd eeb7 933a e4da a63d 1788 9a3c
00000130: ff9c faba da6d 02bd 3554 993d 11ab a93c
00000140: eab6 943d bf57 ab3d 51d5 07be b786 64bd
00000150: da33 fbbc 26ab bdbd 49cf 683d acf2 aebd
00000160: 7243 a43d 9779 833d 81fe 8e3d fa80 4e3a
00000170: 63d5 1b3c 494c aabd 4817 06be c188 573d
00000180: 8491 de3d fed5 d53d 3861 10bc 632e 7abc
00000190: bb7a d8bc 9e5c ac3c 9cd8 0e3e 101d d1bd
000001a0: ea1e 9a3d db7d 46bd 788a 0cbe 6e6c d1bc
000001b0: 3110 b2bc 41da 7fbd cfda 5a3d 90e4 393d
000001c0: d4e3 0bbe e03e 1cbe 1d31 b23d 84cb 02bd
000001d0: 022f 97bc b9e3 003e f51b e43d 38b7 c23d
000001e0: ad2b 713d c135 ab3d 954e 653d a10b 08bd
000001f0: 2c31 9c3d 9507 a13d 80bc 2fbd 0078 713c
00000200: a65b b33d 78da bebc 9cf5 56bd 30ad 06be
00000210: 376e 8c3c e7d8 4a3d acec ba3d 1b7a 773d
00000220: 1d84 edbd b96a c43c 33fe 903d 794d d2bd
00000230: 2c3a e73c b06b 19bc 5d8d 9e3c 6f34 df3d
00000240: 7c2f 2c3d 4b18 a7bb 1d1c 7f3d 00b0 98bd
00000250: 8a79 c0bd 9577 e0bb 37f4 37bd 39e9 d43d
00000260: 2613 14bd 6c65 b53c 3acd ccbc 7772 46bd
00000270: 4f18 8fbd 0e63 243c 8849 87bc 9149 70bd
00000280: 03be 07bd 57fd 74bd 6236 21bc 07ff 4bbb
00000290: f769 16bd a6c9 733d 5efd 95bd 055a 973d
000002a0: d0fc a3bb dbaa 553d efdd 303b c59c ad3c
000002b0: e2a3 19bd c390 b4bc 2f51 c7bc fa10 dbbc
000002c0: 183e 3c3d 1cb4 37bd d5a6 0ebd 09c7 973d
000002d0: ed94 49bd 771d 4f3c 6529 7d3c fc94 8fbb
000002e0: 0628 203c c5dc 4e3d 6242 073d c620 5cbc
000002f0: 52c6 19bd af76 24bc b286 c1bc 6832 69bd
00000300: 254f b33d 7d90 113d d3f2 933d e16f d3bc
00000310: 33fe 7b3d 550f 48bc 3ff9 61bd 1ed2 233c
00000320: 1e13 45bc 0227 0dbc 28d8 84bd 873b a6bd
00000330: b569 b63c 1b48 74bd 5b64 1bbe a589 613d
00000340: e3da d7bd 859d c7bd 9e1d fbbc 66a4 94bd
00000350: a64d 853c 0bec 0abe b252 a03d dd9a a9bd
00000360: 6884 b6bd f6d6 5d3d 0c64 743d 5795 9fbc
00000370: 0f38 4a3c 7061 dc3b afa2 bebc 9b0a 24bd
00000380: 5d02 983d 236a 24bd 26e3 67bd 4392 a6ba
00000390: 3a95 193d 0c22 44bc 8b74 713d c0e6 ab3d
000003a0: 87cc 9b3c a077 1bbd 2d2e dfbd e182 58bd
000003b0: 5722 05be 3c1e cf3d cada d9bd 5c4d 5abd
000003c0: 94d5 d63d d3b8 ebbc f568 5f3d 7090 ca3d
000003d0: aef9 4d3c 61dc 31bd d4f3 4b3d 72c9 5f3d
000003e0: 7548 a1bd 1c1c 523d 44dc 9cbc 4784 863d
000003f0: 4735 883d a284 87bd 4762 bc3c bb75 22bd
-0.019761167 0.089640826 -0.09323174 -0.01808122 0.09025918 0.08199534 0.02455468 0.007419437
-0.09372817 0.04294157 -0.06790326 0.14439589 -0.094165385 -0.0019498557 0.06803425 -0.0048059877
0.046572194 -0.061890673 -0.1385231 -0.004745881 -0.051829707 -0.08729018 -0.020074265 -0.012478325
0.065498576 0.0033084871 -0.043820076 -0.06963397 0.08359401 0.046542265 0.11089166 -0.015876632
-0.0879284 -0.091036044 -0.08673059 -0.074694835 0.00232043 0.12590943 -0.045459032 0.12496795
-0.019948639 -0.023071148 0.10553018 -0.034931853 -0.013704554 -0.11637311 0.008065259 -0.08681798
0.018589657 -0.10908375 -0.095656484 0.1589481 0.12401077 -0.023766242 0.0825235 0.05862464
0.079041876 0.120258264 0.12793404 0.098352976 -0.0058075124 -0.09359068 -0.03724728 -0.08668867
0.029351853 -0.04608441 0.1290229 -0.0890919 0.024555305 0.019071976 0.037570156 0.04115189
-0.11908479 0.0011270025 0.08147219 0.01886372 -0.0019120275 -0.031843044 0.07486764 0.020711454
0.072614506 0.083663456 -0.13264968 -0.055792537 -0.030664373 -0.092611596 0.056838308 -0.0854238
0.08020677 0.06419676 0.069821365 0.00078774954 0.009511325 -0.083153315 -0.13094819 0.052620653
0.10867599 0.104412064 -0.008812241 -0.0152698485 -0.02642571 0.021040257 0.13949817 -0.10210621
0.07525428 -0.04845987 -0.13724697 -0.025564399 -0.021736236 -0.062464003 0.05343133 0.04538399
-0.13661128 -0.1525836 0.08700774 -0.03193237 -0.018455032 0.1258687 0.11138145 0.095076025
0.058879543 0.08359862 0.055983145 -0.033214215 0.07626566 0.07862774 -0.042904377 0.014738083
0.08757715 -0.023297533 -0.052480325 -0.13152003 0.017142398 0.04952326 0.09127173 0.060419183
-0.11597464 0.02397667 0.07079735 -0.10268683 0.02822598 -0.009364054 0.019354517 0.10898673
0.042037472 -0.0050993315 0.06228267 -0.07455444 -0.09398182 -0.006850193 -0.044910636 0.10396046
-0.036151074 0.022143088 -0.025000203 -0.048449006 -0.06987058 0.010033382 -0.016514555 -0.05866391
-0.033140194 -0.059811916 -0.009839626 -0.003112735 -0.03672215 0.05951848 -0.073237166 0.07390217
-0.005004503 0.052164894 0.0026987751 0.021192918 -0.037509806 -0.022041684 -0.024330704 -0.026741493
0.045957655 -0.0448495 -0.034827072 0.0741101 -0.049214292 0.012641302 0.015451764 -0.004381774
0.009775167 0.05050351 0.033022292 -0.013435548 -0.03754265 -0.010038062 -0.023623798 -0.056932837
0.0875533 0.035538185 0.072240494 -0.025810184 0.06152172 -0.012210687 -0.05516934 0.009998826
-0.012028484 -0.008615257 -0.06486541 -0.08116823 0.022267202 -0.059639078 -0.15175001 0.05506291
-0.10539796 -0.09746841 -0.030653771 -0.07257919 0.016272377 -0.13566606 0.07828273 -0.08281491
-0.08911973 0.05416008 0.059665725 -0.01948039 0.012342467 0.0067254826 -0.023270933 -0.040049177
0.07422326 -0.040140282 -0.05661311 -0.0012708384 0.03749583 -0.011971008 0.058949035 0.083936214
0.019018425 -0.03795588 -0.10897479 -0.05285919 -0.13001381 0.101131886 -0.10637434 -0.053296432
0.104899555 -0.028774654 0.054543454 0.098908305 0.012571735 -0.04342306 0.04979308 0.054635473
-0.07875148 0.05129634 -0.019148 0.06568199 0.06650787 -0.066170946 0.022996081 -0.039663058

lstm.weight_hh_l1 f4 [512, 128]
00000000: 6e37 bf3d 1632 dbbc 2137 42be 5507 283c
00000010: 7548 203e 6121 2bbe 33f0 783b 5936 413e
00000020: d1ea 333c c805 cd3d 5299 393e 58dd 0d3e
00000030: 1e16 e43d 3ec9 383e b8c0 2abd d5fa dd3d
00000040: 0c79 cebc 75cb 0fbe 4aed a83c 2461 2f3e
00000050: dda6 003e 17cb 9e3d b3d1 bf3d 2194 e03d
00000060: 2068 f0bd 7094 073e 249e 843c 5e09 46be
00000070: efa8 bdbc f58e e53c 2d8e 4abd 1d9b fcb8
00000080: 477e 2bbe 9696 0e3c 1e87 1abe f0fc d23d
00000090: 7f3a 0ebe 5757 983c 5d7b 033e 0919 233e
000000a0: fdd2 e13d ec06 8f3d 5b95 91bd aaaf 30be
000000b0: 7dba 5fbc 9bf7 c73c 2652 f23d fcd5 acbd
000000c0: c0eb 9c3d fff9 a0bc 6551 1d3d 89a7 473b
000000d0: 181e 3e3e 0507 e63c 2ee5 003e 118c ddbd
000000e0: 842d f93c ec46 8c3d 849a edbc 0bee 993a
000000f0: d032 27be ad46 1b3c 243d 413c 373a db3d
00000100: 02b8 33bd 5360 e2bc c2b7 36bc f670 18be
00000110: 48ea 683d d38e 0c3e 9ba7 0c3e b7e4 0f3d
00000120: dfdb f73d e674 babb a26b 5bbd ff90 1d3e
00000130: e3f0 8d3d a26a dd3c b4b2 4d3e 6ab7 c7bb
00000140: 8a4b 06be f82e 9c3d ee6d 06be b4c4 883d
00000150: b7b8 bd3d acbd bfbd bffd b1bd d8ca 013e
00000160: 3c96 6a3c 2f1d 09bd d836 1b3e dfde bcbd
00000170: 7118 4fbd 80f5 383d acde 4b3d 7c37 6d3c
00000180: 11da 1e3e ffd0 763d 9fc3 d3bd ce2f 1fbe
00000190: 4e30 fb3c c2e8 06be 17d1 b1bd 9dd2 cfbd
000001a0: 1bad 3f3d a8c0 68bd 664f 24bb 6bad 153e
000001b0: 1cc9 1a3d 5109 29be 794d 593d bd4a 11be
000001c0: 79a4 14be dfae 763d 4df9 f7bb a7ba c53d
000001d0: e202 583e a8b2 a83d 107d 943d fbaf f7bd
000001e0: 9567 233e 7961 ebbd 8fe1 573d 1ec7 b4bd
000001f0: 440c 2f3d 7586 573d 67d1 b23d d1f6 23bd
00000200: a723 aa3d 3e6e 0e3b 8cb6 b4bd b8df d6bd
00000210: cceb b63c 0268 6bbd 7f0d d4bd 2e3e 063e
00000220: 0b42 39bd 2d58 7abd d107 393d 0662 883d
00000230: 2fcb c03c 0c42 fd3d 294c 8f3b a559 a43d
00000240: be6b 1cbd b709 5cbb 3a25 b6bd 7c7a 3fbd
00000250: 2e6a 92bd afe4 053e c7b1 a33d 4288 99bc
00000260: f319 6abd cdc0 013e 9d11 323d 512f 8cbd
00000270: e4a5 a83d 2131 27bd 812c 07bc 0eb1 6a3d
00000280: 9259 8dbd b9fb 723d eb39 2d3d 7ad4 1a3d
00000290: 0a81 0abe bfb4 8c3d 266d cb3d 23ee 3f3c
000002a0: 0e86 e53d 5a4f a5bd e7a3 7ebd 94ea 40bc
000002b0: e068 a73d a808 923d 60dc ba3d 92b1 353d
000002c0: 3137 c0bd ce96 813c 94cc 3e3d de9c 993c
000002d0: 312d e73c a057 f03c 9f2a 4b3c d958 ca3b
000002e0: 7e39 3cbd f589 123e 71a7 2c3d 58cb 9e3d
000002f0: c12f 9dbd 80f2 b2bd 3e12 24bc 0e7a ff3d
00000300: aaeb 0dbe 9999 4f3d 8442 92bc 1e35 53bd
00000310: 61f9 e43c 8a9f ef3c 0314 793c 5b82 4abd
00000320: 3d6c 963c 006c 8bbc 1767 1c3d 5e5e 0a3c
00000330: 0557 433c 9b76 a4bc 83b2 8f3d 975d 2bbd
00000340: 5233 5c3d d2a2 003d 593e e73c a23f 073e
00000350: 4d75 163e fe5a d2b9 6eb8 01bd 3c19 e7bc
00000360: 9ff8 ff3c f12f 64bd f3d1 153d 2b1c efbd
00000370: a20d c23d 865b ddbc 1882 a33d cbbc 7e3d
00000380: 7d51 a03d 852d 353d 6b21 d1bd 0178 d83c
00000390: d368 cc3d 6a16 18be 4798 a43b 4fe0 0dbd
000003a0: d603 8b3d eb2e c9bd 5d2b 7cbd ab2e 253e
000003b0: 7043 2b3e ec1a a2bb 0603 8abc 7b8a d3bd
000003c0: 7d38 3fbd e7c1 083d 489a 9a3c b31a bb3c
000003d0: 1d6f b63c 7759 d0bd 9c20 66bd f571 683a
000003e0: 8016 af3d a23e 11bd 06b1 fe3c 76f1 25bd
000003f0: 857e 903d c655 963c 3fa9 0c3e 2890 223d
0.09336744 -0.026757281 -0.18966343 0.010255654 0.1565264 -0.16711952 0.0037984967 0.18868388
0.010981278 0.10010868 0.18124893 0.13853967 0.11137031 0.18045518 -0.041687697 0.10838858
-0.025204204 -0.14042456 0.02062096 0.171269 0.12563653 0.0775358 0.09366169 0.10965753
-0.1173861 0.13240218 0.016188689 -0.19339511 -0.023151843 0.028022269 -0.049451996 -0.000120451885
-0.1674739 0.008702895 -0.15090606 0.1030215 -0.13889502 0.018596334 0.12840028 0.15927519
0.11026571 0.06983742 -0.071085654 -0.1725451 -0.013655302 0.02441006 0.11832075 -0.08439252
0.07662153 -0.019650457 0.038407702 0.003046485 0.18566167 0.028079519 0.12587425 -0.10817731
0.030417211 0.06849465 -0.029004343 0.0011743916 -0.16327977 0.0094773 0.011794362 0.10704463
-0.043876655 -0.027633822 -0.01115221 -0.14886841 0.056864053 0.13726358 0.13735811 0.03513023
0.12102484 -0.005690205 -0.053569444 0.15387343 0.06930711 0.027028386 0.20087701 -0.0060948627
-0.13114753 0.07626146 -0.13127872 0.06678143 0.09263747 -0.09362349 -0.08690976 0.12675035
0.014318045 -0.033475097 0.1515764 -0.09222197 -0.05056042 0.045156002 0.049772903 0.014478561
0.15512873 0.060257908 -0.10340046 -0.1554558 0.030662682 -0.13174728 -0.08682459 -0.10147593
0.046795946 -0.056824356 -0.002507174 0.14616935 0.03778945 -0.1650746 0.0530524 -0.14188667
-0.14515866 0.060225364 -0.0075675608 0.09654742 0.2109485 0.08237201 0.07250416 -0.120941125
0.15957482 -0.11493201 0.052705344 -0.08827041 0.042736307 0.052618463 0.087313466 -0.040030304
0.083075814 0.002173319 -0.088238806 -0.1049189 0.022329234 -0.057472236 -0.10354137 0.13109657
-0.045229 -0.061119247 0.04517347 0.066593215 0.023534385 0.12366113 0.0043730927 0.08024911
-0.03818869 -0.0033575126 -0.08893819 -0.04674767 -0.071491584 0.13075517 0.07992893 -0.01874173
-0.057153653 0.12671204 0.04347383 -0.068449624 0.08234766 -0.040818337 -0.008250357 0.05729776
-0.0690185 0.059322093 0.042291563 0.03780029 -0.13525787 0.06870412 0.09932928 0.011714491
0.112072095 -0.08071776 -0.06216803 -0.011774678 0.081743 0.07130557 0.091240644 0.044358797
-0.09385527 0.01581898 0.04658182 0.018751558 0.028219791 0.029338658 0.012400298 0.0061751422
-0.045953266 0.14310439 0.042151872 0.077536285 -0.07675124 -0.087376595 -0.010014115 0.12474452
-0.1385943 0.05068359 -0.017853983 -0.05156433 0.027950944 0.029250879 0.015202525 -0.049440723
0.018362159 -0.017019272 0.03818425 0.00844535 0.011922603 -0.020076087 0.0701647 -0.0418373
0.05375988 0.031405278 0.028227972 0.13207868 0.14693184 -0.00040122116 -0.031670026 -0.028210275
0.031246481 -0.055709783 0.036577176 -0.116752945 0.094752565 -0.02702118 0.07983798 0.062191766
0.07828043 0.044232864 -0.10211452 0.02642441 0.09980931 -0.148523 0.0050230357 -0.034637745
0.06787841 -0.09823402 -0.061564792 0.16131084 0.16724944 -0.004947057 -0.016847145 -0.103291474
-0.04668473 0.033388045 0.018872395 0.02283988 0.02226978 -0.10173314 -0.056183442 0.00088670786
0.085492134 -0.035460122 0.03109027 -0.04051348 0.07055382 0.018351447 0.13736437 0.03968826

lstm.bias_ih_l1 f4 [512]
00000000: bc54 e9bc a744 3ebe ddf5 8d3b c583 a4bd
00000010: 2478 c4bd 936d 4a3c 2b4b d6bc 9dbb 93bd
00000020: b624 1a3c 272a d7bd 801e bebd 9727 de3c
00000030: d2f4 c6bc 3fee 383c 6d79 0e3d 9ebf 00be
00000040: 2ae3 70bd 433b 0fbd 3a1f 723b 1cac d3bd
00000050: 333e 80bc 0b5f 0dbd 8dce b4bc 260d ffbd
00000060: ec72 82bd 7c25 c3bd b588 09be c75d 21bc
00000070: 182e 513d ebca b23c ad67 b7bd 3076 86bb
00000080: c651 00be 64e1 97bd fe0d f8bd a4f7 5ebb
00000090: fdc3 7dbd 13ff 1fbe e4af c1bd 8cba 043d
000000a0: 5d7d 503c 3eaa 87bc fb4a 03be 3603 aabd
000000b0: 5caa ecbc 0a4d b43c 3dfc d73d b01e 2ebd
000000c0: 1a22 43bd cb95 9d3d 7a2f 34bd 5805 acbb
000000d0: 89be 9fbd ee9a ff3b 351d a33b d2f2 c03c
000000e0: 4f73 693c 7369 6c3d d5a4 5b3c 7d70 9abc
000000f0: ad33 f7bc 185e 8ebd 7d41 1c3d fbd5 23bc
00000100: 0d89 913b 877b 00be 4c17 7d39 8bb5 bfbd
00000110: ad9b 4cbe 8924 bdbb adbd 583c 928e e1bd
00000120: 57d3 3e3d 6b6c c5bb ae55 47be 4779 15be
00000130: f582 653c 5a4f 1f3d 1424 d93d cdcb a2bd
00000140: 5ec0 dd3c 05bd e93c 338c 5a3c 8484 803d
00000150: a97d 1ebe 16ee 543b 6884 d9bd 4464 013d
00000160: 9b9c 3ebd 8337 1dbd 9cfe a2bd af6d c53c
00000170: 69d2 17bd e9f9 7b3c b5fc 87bd c585 b8bd
00000180: d0d8 c63c 2524 bdbd 3db3 dbbd 2400 45bd
00000190: 6693 aebd fc43 db3c 7aa4 d13b aef3 813d
000001a0: 4eed 46bd 150d e5bd 7322 efbc 86d3 69bd
000001b0: b432 b5bd 5d70 af3c b803 b1bd 1f06 a43b
000001c0: 8677 7fbc 7780 f0bc 2027 df3c 6634 393e
000001d0: c529 853d ff6a 06be 1f2d 243c e0fb 19bd
000001e0: ae8a 323c f490 ae3b d112 02be f90e d13c
000001f0: c4b7 b5bd 92ef 1e3c 755e 48be 0b4b e8bc
00000200: 4552 02be 4271 9abd 50c7 49bd 2c6b dfbd
00000210: 6a42 31bd 3f28 aebd c1b4 93bd 2f1d 56be
00000220: a00c d3bc a336 81bd de7b 5bbc 8473 e8bd
00000230: fced 8d3b 7192 9f3d c622 38be 97bd bfbc
00000240: ac12 45be 080c 25be c3f3 573c 4c73 5ebe
00000250: 5b74 f8bd a736 bfbb eda2 80bd 9864 c2bd
00000260: 9f67 19be 94ce b1bd fb19 24be 5a67 90bd
00000270: 51ec a03c 17f8 fb3c c9d3 54bd 3af2 b9bd
00000280: d447 1cbd 816f 12be 39cb b9bd 1ed2 0bbc
00000290: 4081 d9bd b3f3 ffbd 2901 6a3b f7f8 dabd
000002a0: a5f4 01be 5b63 39bb 677a 4b3c 71e8 d4bc
000002b0: 0d51 c83c 95fe 99bd 29f4 963d 876e dc3b
000002c0: af86 e0bc 090e 86bd aa05 08be 8a0c 0dbd
000002d0: 91e4 8fbd 2cfe 0e3d 5f18 a6bd 953b cf3c
000002e0: 57d8 fdbd 0e6f 05be 76a8 013d bdfd c0bd
000002f0: 344b 053b f310 56bb 2d43 81bc 02a5 7ebd
00000300: 1bb2 bb3c 6d2e 8cbd 1b57 da3c 7983 43bb
00000310: 15c0 95bd b0d5 f9bc c30b 56bd 390b dfbc
00000320: d25e debd 3603 dbbd ca8b 20be 433d 683b
00000330: b8e6 d4bd 4c3e 12bd 526d 1c3c 12fe 89bd
00000340: b2ca 8bbd 9a7b e1bd ef58 55bd 5e68 72be
00000350: 4280 17be a251 3bbe 4c1b 1bbe f747 ddbd
00000360: 8214 19be 2756 42bd c150 aebd 9f3e 453d
00000370: 51fb 83bd 95ac a53b 474b 163d 0753 efbd
00000380: 8daa 33be 2592 9bbd 84ad ad3c 94c4 cfbd
00000390: e8a5 4fba 55df 95bd f80d 04be ebb1 98bd
000003a0: 5b5c 06be 3215 f83b 9cf2 dcbc aab8 83bd
000003b0: 718f 013c d674 7cbd 306b 763b 112f e9bd
000003c0: 1521 0cbe c7b2 06be 93f8 35be 01c3 febd
000003d0: 89a5 093e ff10 84bd 3512 023d a8b9 a8bd
000003e0: bcff bdbd a804 0ebe a106 10be 5c07 fcbd
000003f0: c70b a1bd 6ed4 eb3c 966b a0bd 4913 e7bd
-0.028482787 -0.18580876 0.0043322877 -0.080329455 -0.095932275 0.012355226 -0.02615889 -0.07213519
0.009408167 -0.10506087 -0.09283161 0.027118487 -0.024286661 0.011287271 0.03478377 -0.12573096
-0.05881039 -0.034968626 0.0036944882 -0.10335562 -0.015654659 -0.03451447 -0.022071147 -0.1245368
-0.06369576 -0.09528634 -0.13431056 -0.009849018 0.05106935 0.021825274 -0.089553215 -0.0041034445
-0.12531194 -0.07416037 -0.12112044 -0.0034022117 -0.061954487 -0.15624647 -0.094573766 0.032404467
0.012725201 -0.01656067 -0.12821572 -0.08301394 -0.028889827 0.022009391 0.105461575 -0.042509735
-0.047639944 0.07694586 -0.04399059 -0.0052496605 -0.078000136 0.0078004515 0.004977847 0.023553286
0.014248683 0.05771775 0.013405998 -0.018852467 -0.030176008 -0.06951541 0.038148392 -0.009999747
0.0044413866 -0.12547122 0.00024136639 -0.093607984 -0.1998126 -0.0057721776 0.013228816 -0.11013521
0.046588268 -0.0060248873 -0.19466278 -0.14597045 0.014008273 0.038894035 0.106025845 -0.07949028
0.027069267 0.028532514 0.01333909 0.06275275 -0.15477623 0.0032490543 -0.106209576 0.03158976
-0.04653607 -0.03838302 -0.07958719 0.024100153 -0.037065897 0.015379407 -0.06639997 -0.090098895
0.024273306 -0.0923541 -0.10727546 -0.048095837 -0.08524208 0.026765816 0.006397781 0.06345306
-0.048566155 -0.11184136 -0.029191231 -0.05708649 -0.088475615 0.021415884 -0.086432874 0.0050056125
-0.015592461 -0.029358132 0.027240336 0.18086395 0.065021075 -0.13126753 0.010020523 -0.037593722
0.010897322 0.0053273384 -0.1270249 0.025519835 -0.08872941 0.009700673 -0.19567282 -0.028356096
-0.12726696 -0.075411335 -0.049262345 -0.10909113 -0.043276228 -0.0850377 -0.072122104 -0.2090957
-0.025762856 -0.06309249 -0.013396231 -0.11350158 0.0043313485 0.07791603 -0.17982015 -0.023405833
-0.19245404 -0.16117871 0.013180676 -0.2172367 -0.12131568 -0.0058353725 -0.062810756 -0.09491843
-0.14980935 -0.0868198 -0.16025536 -0.07050963 0.019643934 0.030757947 -0.051959787 -0.09079404
-0.03815444 -0.14300348 -0.09071965 -0.008533983 -0.106203556 -0.12497654 0.0035706258 -0.106920175
-0.1269098 -0.002828798 0.01241932 -0.025989743 0.02445271 -0.07519261 0.073707886 0.006727043
-0.027407972 -0.06545646 -0.1328341 -0.034435786 -0.070260175 0.034910366 -0.08110117 0.025296966
-0.12394779 -0.13030645 0.031654797 -0.09423397 0.0020339014 -0.003266391 -0.015779102 -0.062169082
0.022912076 -0.068447925 0.026652863 -0.0029833002 -0.07312027 -0.030497402 -0.05225731 -0.027227031
-0.10857929 -0.10693972 -0.15678325 0.0035436905 -0.103955686 -0.035703942 0.009547548 -0.06737913
-0.068257704 -0.11009903 -0.052086767 -0.23672625 -0.1479502 -0.18292859 -0.15147132 -0.10804742
-0.1494923 -0.047445443 -0.08511496 0.048155423 -0.06444419 0.005055974 0.036692884 -0.11685758
-0.17545529 -0.07596234 0.021200903 -0.10144916 -0.00079211453 -0.07317988 -0.12895954 -0.0745581
-0.13121168 0.007570886 -0.026971154 -0.06431706 0.007907734 -0.06163486 0.003760051 -0.1138593
-0.13684495 -0.13154136 -0.17770605 -0.12439538 0.13442053 -0.06448554 0.031755645 -0.08238536
-0.09277293 -0.13868964 -0.14065029 -0.12306091 -0.078635745 0.028787818 -0.078330204 -0.11282975
