model_window2_dim4.pt (torch_old, 864997 bytes, 11 tensors)

lstm.weight_ih_l0 f4 [512, 1]
00000000: f9be 2f3c d930 b0bd af55 29bd bada 463d
00000010: 40ef 05be 9138 35be 7025 8a3d 651f 33be
00000020: c75f 3cbe 9552 f63c a169 f9bd 8336 82bc
00000030: 1962 68bd e23f e8bb 15ab cebb 2508 133e
00000040: 8613 40bd 1566 f43d b316 16be e6c5 aabd
00000050: aa4e 03be eae6 92bc 0bae 17be 1d6d 02be
00000060: 5233 b03a 4228 24be 9920 6cbe 6c03 c93d
00000070: febc a73d 2244 0fbd 3ecb 28bd 1f42 c4bd
00000080: f3a1 01be 5b56 dbbd 8c93 17bd f3a7 33bd
00000090: 2e28 8ebd d519 c8bd b534 bfbd 7696 d33c
000000a0: c028 17be 3172 19be 165c 0ebe a3be d3bd
000000b0: dcab 623d e35b bbbd 048b cf3c eda8 dcbd
000000c0: 560c 46be 7dd4 853d bd7b 45bc 0f56 e2bd
000000d0: a9c3 95bd ea28 ffbd ae2a 0bbd 8cbb d93d
000000e0: 03d6 63bc 9bdc d7bd 90dc 9f3d ba0e 0dbe
000000f0: 39a4 14bd 19b2 4abc 266c abbc 1287 d83d
00000100: 2a75 5a3d 702a 23bd 773b 16bd 8ae4 c5bd
00000110: e6ed f8bd d47f aa3d caae 2abe 2ace 053a
00000120: e079 a3bd 5afc 95bd 8fbf cdbd 5ab8 0ebe
00000130: d8d8 60be c8dd 12be 8468 17be e6aa 813d
00000140: b929 123c 7d4d 063d 100a 2ebd bf9c 49be
00000150: ffca 21bd 93b8 333e f3cc c2be 1baa 52bd
00000160: b732 4ebe ce5b 07be 62ae 38be 70ce 9e3d
00000170: 52f4 4abd 7bc5 d43d b5ba d5bd c336 f9bd
00000180: 26ae 303d b75f d4bd d421 08be 6c64 88bb
00000190: 2dab 0e3e afed 30be 955a a9bd a7ee c0bd
000001a0: 4c9b d8bd a369 a7bd 21a5 ab3e 9479 e4bc
000001b0: be21 613c 2cf6 62be 7008 d6bd 623b 4fbe
000001c0: 4933 88bd 5a94 22be aaa4 a3bd e327 07be
000001d0: 04ea 413c be74 8bbd 5543 85bc cfb9 963d
000001e0: 0cac 1cbe 806b e3bd a4b2 2abe 2729 eabd
000001f0: 19d2 62be 8cd4 02be 62d2 abbd 3f02 bcbc
00000200: 6e45 c8bd 6f8d 9cbc 6f79 09bd 34c2 1d3e
00000210: 2a55 36be bda7 81be 7c8e db3c 6f1a 38be
00000220: 72b4 ffbd 3481 e9bd 3f26 60be a507 c1bd
00000230: 0244 37ba 9f8c 153d bfb2 23be 7b67 fe3d
00000240: 1326 7a3d eede 2b3d ec96 61bd 8789 f2bd
00000250: 535c 45bd a434 23be a626 203d 2c9b 27be
00000260: 0e62 bebd 1375 55be 962d 43be 86f4 1abd
00000270: ecb7 1dbd 1519 3bbe a5f0 14be 397c cfbd
00000280: fe3d d2bd 6da2 8bbd 18fe 07be 888c bcbd
00000290: 8b62 2ebe b487 3ebe f2bc dcbd 382d 34be
000002a0: 3978 28be 2b61 14be 7824 83be 05f4 7ebd
000002b0: 6764 f6bd a5df 90bc 3700 c3bc c7d2 b13c
000002c0: 03fe 65be 05f1 1abe 4b1f 313d cc7d c1bb
000002d0: 2b03 cfbc 8b52 36be 632f 12bd cd0b 9b3b
000002e0: 7c8e 92bd 6bc7 8cbd 0981 583b 6989 d6bd
000002f0: 36ca 74bd 1441 c3bd 3c86 fcbd eab7 813d
00000300: b654 97bc f2f7 3abd 902a 063d ce57 9cbd
00000310: 57a4 b1bd 23b5 4e3b af23 4cbe af3b 5dbe
00000320: d46f c1bd c8b3 f9bd 8390 74bd 6aac 8a3d
00000330: dfc7 17be 1b0e 1cbd c2f6 8f3d 6219 c2bd
00000340: a6d2 ff3d 0322 8e3c 97b5 dc3c 3b2c 64be
00000350: 608b 16be cdfa e63d 77f3 bbbe f4e6 4ebd
00000360: fcd7 4abe 3442 05be 38bf 50be 065c a03d
00000370: c022 a9bd 7c50 413d 6852 d9bd 269a 04be
00000380: bb2d b13d 377d a9bd ed6d 69be 9008 d8bd
00000390: c181 5c3d 62b4 11be 7dff 76be 8d7d 03be
000003a0: 5de8 39be 1767 33be b4ed 1fbe 1fa0 95bd
000003b0: 9921 f4bc bfe5 14be 0aa1 63bd b213 aabc
000003c0: 261b 38bd da57 dbbd 4035 16bd 5624 a3bd
000003d0: 25f4 1dbe bc6b b3bd fbd7 39be 98b5 1ebd
000003e0: 6dc2 1ebe 1d91 a7bd df66 5abe 2017 c6bd
000003f0: 44ae 0fbe 8012 2ebe 8167 8bbd fd0e ffbd
0.010726684 -0.08603067 -0.04134148 0.048548438 -0.13079548 -0.1769736 0.06745422 -0.17492445
-0.18395911 0.030068675 -0.1217835 -0.015895134 -0.05673418 -0.0070876935 -0.0063070157 0.14358576
-0.04689362 0.11933533 -0.14657097 -0.083385274 -0.12822977 -0.017932374 -0.14812486 -0.12736936
0.0013443029 -0.16030982 -0.2305931 0.09815106 0.08190344 -0.034977086 -0.04120945 -0.09582924
-0.12659435 -0.107098304 -0.037005946 -0.04386134 -0.069412574 -0.09770552 -0.09336225 0.025828581
-0.14761639 -0.14984967 -0.13902315 -0.103390954 0.05533968 -0.091483854 0.025334843 -0.107744075
-0.19340643 0.065346695 -0.012053427 -0.110515706 -0.0731271 -0.124589756 -0.03397625 0.10631475
-0.013906005 -0.10540124 0.07805741 -0.13775149 -0.036289427 -0.012371563 -0.020925593 0.105726376
0.053334393 -0.039835393 -0.036677804 -0.09662731 -0.121547505 0.083251625 -0.16668239 0.0005104268
-0.0798223 -0.07323523 -0.100463025 -0.13937512 -0.2195772 -0.14342415 -0.14785963 0.063314244
0.00892108 0.032788742 -0.042490065 -0.196887 -0.039500233 0.17550878 -0.3804699 -0.051431756
-0.20136534 -0.13218614 -0.18035272 0.077542186 -0.04954941 0.10389229 -0.10436002 -0.12168648
0.04313483 -0.10369819 -0.13294154 -0.004162362 0.13932486 -0.17278169 -0.0826923 -0.09420519
-0.105764955 -0.081744455 0.3352442 -0.027890004 0.013740955 -0.2216422 -0.10450828 -0.20237496
-0.06650407 -0.15876904 -0.079903916 -0.1319881 0.011835579 -0.06809376 -0.016267458 0.07359659
-0.15300006 -0.111044884 -0.16669708 -0.114336304 -0.22150458 -0.12776393 -0.08389737 -0.02295029
-0.09778868 -0.01911041 -0.033563074 0.15406114 -0.17805925 -0.25323287 0.02680134 -0.17978834
-0.12485589 -0.11401597 -0.2188959 -0.09425286 -0.000699103 0.03651106 -0.15986155 0.12422081
0.061071467 0.04196065 -0.05507557 -0.118426375 -0.04818375 -0.1593805 0.039099358 -0.16367787
-0.09296046 -0.20845442 -0.19060358 -0.037830852 -0.03850548 -0.18271287 -0.14544924 -0.101311155
-0.1026573 -0.0681809 -0.13280523 -0.09206492 -0.17029779 -0.18606454 -0.10778226 -0.17595375
-0.16452111 -0.14490192 -0.2561376 -0.062244434 -0.12030869 -0.017684767 -0.023803813 0.021706952
-0.22460179 -0.15131004 0.043242734 -0.0059048887 -0.025270065 -0.17804925 -0.035689723 0.0047316314
-0.07156083 -0.068739735 0.0033035895 -0.10475428 -0.059763156 -0.09533897 -0.12330291 0.06333907
-0.01847301 -0.045646615 0.032755435 -0.07633935 -0.086739235 0.0031541071 -0.19935487 -0.21604799
-0.09445158 -0.12192494 -0.05970813 0.067711666 -0.14822339 -0.03809939 0.07029487 -0.09477498
0.1249135 0.017350202 0.026942058 -0.22282498 -0.14701605 0.11278305 -0.36709186 -0.050513223
-0.19808954 -0.13013536 -0.20385444 0.07830052 -0.08258581 0.047195897 -0.10611421 -0.12949428
0.086513005 -0.08275836 -0.2279584 -0.10548508 0.05383468 -0.14228967 -0.24120899 -0.12840863
-0.18155046 -0.17519794 -0.1561802 -0.07305931 -0.029801177 -0.14540766 -0.0555735 -0.020761345
-0.044947766 -0.10710116 -0.036671877 -0.07965915 -0.15425165 -0.08760783 -0.18148796 -0.0387474
-0.15503855 -0.08181975 -0.21328305 -0.096723795 -0.14031321 -0.16999245 -0.06806851 -0.12454031

lstm.weight_hh_l0 f4 [512, 128]
00000000: 5854 133e 6d29 1c3d 04f3 f53d a85a 703d
00000010: 10fe 243d 3b4c 183d 66f0 04bd d07c 7cbd
00000020: 13e7 253d 436f 45bc f9f4 68bb aeaf e5bc
00000030: e6ee a1bd dbcf 993d 5e72 0e3c cc08 8d3c
00000040: 50b7 aabc dcb7 f03d 4f98 3b3d f5b0 f33c
00000050: ea31 da3c fee8 ea3d deb3 8bbc 25d8 a8bd
00000060: cc43 e0bb 0ae6 453d 004c 093d fe78 b93d
00000070: 3de8 343b c5d7 8ebd 334f 8fbc 9936 ecbd
00000080: 042d 89bd 9b04 88bd 0633 073e ba16 dd3d
00000090: f7d6 6b3d ce7a cc3d 5365 aa3c 6713 06bd
000000a0: aa15 433c c81e 32bd 102f 18be 2258 44be
000000b0: 3419 01bd 3606 d23d d8c5 d3bd 34a5 9dba
000000c0: 250f bf3c 916d 013e 1c3c 0c3d 6527 40be
000000d0: e7c0 273e 5f79 4fbd c9f6 eabd fdb6 0bbe
000000e0: 4534 cbbd 1120 2dbd 64ec d1bd 6d8e 013b
000000f0: dc97 39be 282b 4b3d e477 8a3d b51e 19bb
00000100: f163 213e 0d27 0c3e ae87 d4bc 94d0 1f3e
00000110: 9bde 8b3d 2cc7 0ebe b8ab 2f3d 96db 74bd
00000120: 6078 d1bd d2f7 1b3d d08a 843b d4b9 743d
00000130: f0d6 4fbd 6e4a 2bbd 502a 67bd 7e0a 903d
00000140: 3189 453c 3cd8 19be 149b bc3c 1279 ee3d
00000150: cdad c83c c731 4b3c d154 6b3d bd67 bfbd
00000160: cfb2 cc3c 8418 b4bd 59c3 06bd 28ba 92bd
00000170: 6472 cd3c 7bd4 833d 7c0c bbbd e953 833d
00000180: 7987 ea3d dae6 24be d255 123d 60f5 2cbe
00000190: 3823 f7bd e567 d5bc 2efa a8bd 8a69 5dbd
000001a0: 9a6d 63bd e75d 6f3d 901b da3c add7 a13d
000001b0: 6055 f6ba b800 e5bc d1e2 a1bd 9077 d8bc
000001c0: 425a 6f3b 79f5 3b3e f0a1 0abb 38ff 1e3e
000001d0: 5871 633c 16da d03d 43de 2b3d 5cd8 a43d
000001e0: 0883 67ba f120 a13d 7416 263b 2874 0a3d
000001f0: 642f 7cbc 339d 38bd 6c62 903d 72f5 743d
00000200: d262 793b 4474 eb3d 7050 dabd 9219 ac3a
00000210: baaf 10be 2d85 403c e810 6e3d d342 4abe
00000220: 59a1 21be 987d 933c 43ff bb3d 870a cd3d
00000230: 6659 bf3d 8be6 173d e453 72bd abfe 7c3d
00000240: 7bb6 d73d c9f9 81bd 860e bbbd 0648 06bd
00000250: 75b6 bbbb 8020 c4bd 6e9f d0bd eca6 0f3e
00000260: 0d0a 173e e16f 23be 1924 9abd 523a 8cbd
00000270: 8d51 3b3d c804 173d 7f86 943c 9c8d a03c
00000280: 58d6 49be c6ff b83d 4bd3 36bd 0e65 32bd
00000290: 07ff f7bd 331e 0bbe 5593 f6bc 4fce 493d
000002a0: 99c7 12be 1c3f 2a3d 51cc 853b f613 acbc
000002b0: 9347 123e e1a2 a63c 1ebc 383e c161 8d3d
000002c0: 6ebd c7bd 875c 123c cc16 6abc e4ca e73d
000002d0: aa9e 9e3b 52c4 27be 8039 0c3e 8f05 9d3d
000002e0: fb44 723d 07ba 003e 80cf 4dbc 713d 28be
000002f0: 8dea 59bd f5f3 a6bd 93e9 7cbd 5701 37bd
00000300: 4f31 cabb a485 ccbb d521 9dbc c1df a73d
00000310: 85a6 97bb ea42 c63c ac50 ff3a b5ac 02be
00000320: 1479 573d 2f9d 0ebe 6fa9 183e e974 27bd
00000330: 0432 053e 5748 bdbc 0d0f b0bd 1f5f 69bd
00000340: 6320 e1bd c771 11bc 5ba7 243d 5239 4cbe
00000350: 89c9 e7bc 514f 9d3d 9a67 d53d 144f bb3d
00000360: 6b29 173b bde8 d03d ebc9 0d3e f729 65bd
00000370: 95f5 2ebe f1ea 1cbe f7ce 153e f0af edbb
00000380: 134f a3bd 0363 bb3d 0f40 473e d165 a4bd
00000390: 6006 f43c a524 373e c152 a2bb 91d5 5abd
000003a0: ef5a 113e 309f 5fbd 577e a9bb a20a 1bbb
000003b0: 1b6c 683b f675 fdbd 67aa eb3d 4199 d9bc
000003c0: f547 ac3d e903 9abc 9c5a e3bd cd9c 28be
000003d0: 0086 e23d 95da a33c dc44 fbbd d2f2 103d
000003e0: baa2 a43c 2521 163e 5e54 1dbe 1e96 e9bc
000003f0: 816a 0d3e 8357 b1bd d202 abbd 9c1e ce3d
0.14387643 0.038125444 0.12009242 0.058680207 0.040281355 0.037182074 -0.032455824 -0.061642468
0.040503573 -0.012050453 -0.0035546406 -0.028037872 -0.079068944 0.075103484 0.008694259 0.017216109
-0.020839363 0.117538184 0.04579955 0.029747466 0.026635129 0.11470221 -0.01705354 -0.08244351
-0.0068440195 0.048315085 0.033519745 0.090562806 0.0027604245 -0.069747485 -0.01749382 -0.11533851
-0.06698039 -0.066415034 0.13203058 0.107953504 0.057578053 0.09984361 0.020800268 -0.032733347
0.011907021 -0.043486387 -0.14861703 -0.19174245 -0.031518176 0.10255091 -0.1034047 -0.0012027384
0.023322651 0.12639453 0.034237012 -0.18765028 0.1638218 -0.050652858 -0.11472852 -0.13644023
-0.09922079 -0.04226691 -0.10250166 0.001976873 -0.18124336 0.049601704 0.067611486 -0.002336425
0.15760781 0.13686772 -0.025943603 0.1560691 0.06829568 -0.13943166 0.042888373 -0.059779726
-0.10228038 0.038078137 0.004044868 0.059747532 -0.05074209 -0.04181903 -0.056436837 0.07033251
0.012056635 -0.15023893 0.023023166 0.11644186 0.024496937 0.012402005 0.057453934 -0.093459584
0.024987606 -0.087937385 -0.03290114 -0.07164413 0.02507896 0.06437012 -0.091332406 0.06412489
0.114516206 -0.16103688 0.035726376 -0.16890478 -0.12067264 -0.026050517 -0.08250843 -0.054055728
-0.055524446 0.05843916 0.026624471 0.07902465 -0.0018793754 -0.027954444 -0.0790459 -0.0264242
0.0036522304 0.18355359 -0.0021153651 0.15527046 0.013882004 0.101978466 0.041960012 0.0804908
-0.0008831476 0.07867611 0.0025342973 0.03380218 -0.015392158 -0.04507179 0.070500225 0.059804387
0.0038053286 0.11496785 -0.106598735 0.0013130179 -0.14129534 0.011750502 0.05812159 -0.19752054
-0.15784205 0.018004224 0.09179547 0.100117736 0.09343223 0.037085097 -0.059162036 0.061766308
0.10532852 -0.06346471 -0.091336295 -0.03278353 -0.0057285377 -0.095765114 -0.10186659 0.1402852
0.14749928 -0.15960647 -0.07526416 -0.06847061 0.04573207 0.036869794 0.018130539 0.019598775
-0.19710672 0.0903316 -0.0446351 -0.043553405 -0.121091895 -0.13585739 -0.03009955 0.049269017
-0.14333953 0.041564092 0.0040831943 -0.021005612 0.14285116 0.020341339 0.18040511 0.06903411
-0.09752928 0.008933193 -0.014287662 0.11317995 0.0048406916 -0.16383484 0.1369381 0.07667076
0.059147816 0.12570964 -0.012561679 -0.16429688 -0.0532022 -0.08152 -0.06174619 -0.044679012
-0.006170429 -0.006241517 -0.019181171 0.081969745 -0.004628005 0.024201829 0.0019478998 -0.12761195
0.052605703 -0.13927148 0.14908384 -0.04088298 0.1300736 -0.023105783 -0.08596621 -0.05697548
-0.109925054 -0.008877224 0.040198665 -0.19943741 -0.028294342 0.07681144 0.10420151 0.09145942
0.0023065459 0.10200641 0.13846557 -0.055948224 -0.1708587 -0.15323998 0.14629732 -0.0072536394
-0.079740666 0.09149744 0.1945803 -0.080272324 0.029788196 0.17885073 -0.0049537127 -0.05342633
0.14194845 -0.054595172 -0.0051725316 -0.002365746 0.0035464827 -0.12376015 0.11507111 -0.026562335
0.08412162 -0.018800693 -0.11101267 -0.16466065 0.11060715 0.020001689 -0.12268993 0.03538782
0.020097125 0.14661081 -0.15364215 -0.028513964 0.1381016 -0.0865927 -0.08350147 0.10064432

lstm.bias_ih_l0 f4 [512]
00000000: b406 78bd da60 adbd 718b 72bd b6b8 ad3d
00000010: beab eabc 1094 7dbe b7f7 023e 41ca 90bd
00000020: a3c5 9cbd 7870 db3d a39b 81bd b6b7 dfbd
00000030: a4bb 40bd 71a1 1dbd b044 c33c e4df 2b3d
00000040: dee9 ea3a 5c6f 813d 7bce b3bd c1b3 8cbc
00000050: ba2c c6bd 9a2e 313d c094 d6bd 0905 0f3c
00000060: 9d64 71bc 0516 d83a 8c2a 24be adf5 94bd
00000070: 4bff a8bc 6eac aebd feac dcbb d102 223c
00000080: d310 fabd 6bf2 e4bd 36ea 88bd 06ef 64bd
00000090: 0d03 0fbe c1ca c9bd a7ca bbbc 79ab 52be
000000a0: e366 4cbd 87d5 34be aca8 c5bd aa2c 65be
000000b0: 1483 b3bd 6c47 1c3d 11c8 b6bc 5411 a0bd
000000c0: 3df5 4bbe aa15 f5bc 876a 08be 8b79 babd
000000d0: 03cf 41bd 32a6 bcbd e874 11be be8a 90bd
000000e0: ff71 e0bc ee8f 0dbe 7281 8b3c c883 5fbd
000000f0: ad8c 12bd 98ba dcbd f6c2 84bd 51f3 263d
00000100: e89b d1bd 836e febd 40e5 35be db01 d0bd
00000110: ac4c 8b39 00b0 673d b627 94bd b1b6 293d
00000120: 35c8 78bc a7f1 b0bc 180d 14be b610 2bbe
00000130: 6ed1 4bbc 9efa a4bd 0c13 31be b0c4 cebd
00000140: 06ca 39be 2bad 06be 8e43 e7bd a997 ecbd
00000150: 5fb6 e0bd a649 3cbc 710f 6dbe 729e a7bd
00000160: 22f5 93bc 06f0 743b 906d e6bd e83d 91bd
00000170: 50bc acbc a751 863d 69d9 65be 85aa debd
00000180: 551f f0ba cab8 56bc 867e e3bd 0a9c afbd
00000190: 028a debc 5fd7 fcbd ecdf 95bd 3c98 0dbd
000001a0: 2ab3 eabd a1d8 2cbe 97f2 cf3e 356b 84bd
000001b0: d045 0a3d 8129 c93c e15d f4bc 8ce4 abbe
000001c0: 6b0f bfbc 5632 5bbc 5ba9 8abc 8bf8 b2bd
000001d0: c998 91bd 5cea 0bbe 6c6d 0cbd 2c3d c83c
000001e0: 91ed dcbd 7cac 67bd 9c38 f1bb b75d 16bd
000001f0: dc9e 89bd 0728 97bd eca5 09be 71c3 8dbd
00000200: 3ecb 9cbd 10af 6e3d 851b 64bd 2374 08bd
00000210: f761 f8bd bf8b 76be 1a1d a03d 7ffe feba
00000220: 1919 1dbd 704e 4ebc 498b 65bc 67fa af3b
00000230: df95 193d 545e 9abd 3338 bdbd 65ba ab3c
00000240: 3419 38bd 9255 c2bc 3bae 86bc d1ee 06be
00000250: d451 12be 8051 aebc b296 83bd 335e 29bd
00000260: 3ab5 50be ac8a 0ebe 397c a9bd dbe6 8bbc
00000270: 0e64 81bc 4736 2bbc 8972 16bc f195 16be
00000280: c60b e9bd f14a 08be 22c9 17bd 7b26 8a3c
00000290: cac8 c2bd a120 32be 5377 32be 7c42 8ebe
000002a0: a3c7 dfbc 21b3 cebd 2265 75be 41ea a73b
000002b0: 15a3 70bd b765 e0bd 6907 65bc 51a0 b13c
000002c0: a27b e4bd 473a 5cbd a8fb 893d cdca 783c
000002d0: 6991 08bc 9f80 c4bd ed2a 3abd e41e 21bd
000002e0: f9a7 19be d594 93bc 50d0 8bbc a357 9ebd
000002f0: 30fb 903d e6a0 38bd a380 88bd 2e10 17bb
00000300: 15ef e2bd 6183 d4bd d4cf 06be 9c6d 77bd
00000310: 1718 fdbd 3f06 f9bc 91b4 9bbd 9193 01be
00000320: 1fd9 bfbd 22ba 1dbd 2da0 943b 7bce c7bd
00000330: d5ea 30bd 952b 41bd 47f9 cebc d500 0cbe
00000340: 00e7 70bd dd85 8dbd cb1e 64bc 52b2 133c
00000350: e447 b8bd 50c4 8abd 6493 9bbe dc80 32be
00000360: 8ef9 07be d232 d0bc e4b3 0fbe 22a1 19bd
00000370: a76e 04be db2f 03bd 4d48 52be 4f9f 1ebe
00000380: ec5c d73c 7c6a 033c 57ee ffbd a70a 8fbd
00000390: 9152 e03c 4db8 0dbe dc3e 0bbe ea53 66bd
000003a0: 42c3 c9bd 7ebf 29bd 8b33 bbbe bef7 fd3c
000003b0: a2bd 0bbe d5df 8bbc c65a cbbd 9899 a1b7
000003c0: 43db e7bd 8ceb c23c 3205 2abe 86f0 1bbe
000003d0: e5ec e4bd bf35 2d3c 9034 47bd 3b75 743a
000003e0: c09e 503c aa84 c23c 828c 52bd 50fc 7cbe
000003f0: 7e35 35bd ae58 1abe 02cf e6bd 692e 3dbe
-0.060553268 -0.084657386 -0.059215013 0.084824964 -0.028646346 -0.24763513 0.12789808 -0.07069827
-0.07654884 0.10714811 -0.063285135 -0.10923712 -0.047053948 -0.03848404 0.023836464 0.041961566
0.0017922481 0.06320068 -0.087796174 -0.017175557 -0.096765 0.043257333 -0.104775906 0.008729228
-0.014733461 0.0016486055 -0.16031855 -0.072734214 -0.020629546 -0.08528982 -0.0067344895 0.009888367
-0.1221024 -0.1117905 -0.06685297 -0.055892013 -0.13966008 -0.09853125 -0.02292378 -0.20573224
-0.049902808 -0.17659579 -0.09651312 -0.22380319 -0.087652355 0.03815405 -0.022312196 -0.07815805
-0.1991777 -0.029917557 -0.13321887 -0.09105214 -0.047316562 -0.09211387 -0.14204752 -0.07057713
-0.027398108 -0.13824436 0.017029498 -0.054569036 -0.03577869 -0.107777774 -0.06482498 0.04075939
-0.10234815 -0.12423422 -0.17763233 -0.10156604 0.0002656927 0.05656433 -0.07234137 0.041433994
-0.015184452 -0.021599604 -0.1445812 -0.16705593 -0.012440069 -0.08055614 -0.17292422 -0.10096109
-0.18143472 -0.13151996 -0.11292182 -0.115523644 -0.109722845 -0.0114921685 -0.23150422 -0.08184518
-0.018061224 0.003737451 -0.11251366 -0.07091886 -0.021085888 0.06558543 -0.22446217 -0.10872368
-0.0018319885 -0.013105581 -0.11108117 -0.08574684 -0.027165417 -0.12345766 -0.073181 -0.03456901
-0.11459954 -0.16879512 0.4061477 -0.064657606 0.033757985 0.024555923 -0.029829921 -0.33572805
-0.023322782 -0.0133787 -0.016926458 -0.08738812 -0.071092196 -0.1366362 -0.03428404 0.024443232
-0.107875 -0.05656098 -0.0073614847 -0.036710467 -0.06719753 -0.073806815 -0.134422 -0.06922043
-0.07655953 0.05827242 -0.055690307 -0.03331388 -0.1212806 -0.24076746 0.07818051 -0.0019454508
-0.038354013 -0.012591943 -0.014010259 0.0053704265 0.037496444 -0.07537523 -0.09239235 0.020962903
-0.04494591 -0.023722444 -0.016440501 -0.13177039 -0.14289027 -0.021279097 -0.06425227 -0.0413496
-0.20381632 -0.13920087 -0.08275647 -0.017077854 -0.01579478 -0.010449952 -0.009182581 -0.14705636
-0.11379199 -0.13309838 -0.03705705 0.016864052 -0.09510954 -0.1739526 -0.17428331 -0.277851
-0.027316874 -0.1009276 -0.2396436 0.005124361 -0.058749277 -0.109569006 -0.0139788175 0.02168289
-0.111563936 -0.053766515 0.06737453 0.01518507 -0.00833545 -0.09594845 -0.045451093 -0.0393361
-0.15005483 -0.018015305 -0.017067105 -0.07731559 0.0707916 -0.04507532 -0.066651605 -0.0023050415
-0.110807575 -0.10376621 -0.13165218 -0.060407266 -0.123581104 -0.030398486 -0.076028 -0.12653948
-0.093675844 -0.03850759 0.004535696 -0.0975618 -0.043192703 -0.047160704 -0.02526535 -0.13672192
-0.05881405 -0.06910298 -0.013923357 0.009014683 -0.08998087 -0.06775725 -0.30385888 -0.17431968
-0.13278791 -0.025414858 -0.14033467 -0.037507184 -0.12932836 -0.03202806 -0.20535393 -0.15490459
0.026289426 0.008020993 -0.124966316 -0.06984454 0.02738312 -0.13839836 -0.13598198 -0.05623237
-0.098516956 -0.041442387 -0.36562762 0.031001922 -0.13646558 -0.017074505 -0.09929423 -1.9264218e-05
-0.11321118 0.023793958 -0.16603544 -0.15228471 -0.111779965 0.010571896 -0.048634112 0.000932533
0.012733161 0.0237449 -0.05140353 -0.24705625 -0.044240467 -0.15072891 -0.11269952 -0.18474735

lstm.bias_hh_l0 f4 [512]
00000000: 6cad eabc 0740 26be 9140 c0bb 7046 0a3e
00000010: 4eed f3bc d7ad 1ebe cafd bf3d 4a5d 21bd
00000020: d118 d8bd bbed 323d 3236 8dbd 6de2 dabd
00000030: d329 bd3d 2954 c7bd 7bfc 1ebd 1019 0f3d
00000040: 1501 bc3d f1d3 2a3d bc10 24bd 2873 ab3c
00000050: 9f80 dcbd 7292 c93c b2f1 1cbe 4ee9 173d
00000060: 3079 1ebd 856c 9fbc efac 1ebe dd03 f5bd
00000070: 7b2c 0abb ecba 9ebd 331f 8ebd f2f3 9fbd
00000080: 902f 5cbd 374b 3ebe 8f69 e93c 2754 a0bc
00000090: b28d 57bd 1275 553b d82f c2bd 4220 63be
000000a0: 0beb 7fbd 3d61 6ebd 99a4 bd3c 3ba8 91bd
000000b0: 8aac 8fbd 4e8c e2bd 8b73 acbc 9c3c 4abd
000000c0: 044c 7fbd 408d 65bd 02e7 5dbd 1c46 e2bd
000000d0: 8aca efbd da41 bfbd 0c73 edbd 72fa 133d
000000e0: 7961 1abe 27c3 1abe fc6a ffbd c131 72bd
000000f0: 2bd6 113c 91da d9bc 78bb 29be 138e e8bb
00000100: 50fa a23b cace 03be 68fa 12be 3a1e 32bd
00000110: 1f2e ebbd 7e6a 8ebc a18c d9bc 52c9 513c
00000120: fab5 e2bd 5c75 503c 3d51 8abc c738 80be
00000130: b6f6 3ebd 1a77 d7bd 5c28 2cbe 910f 42bd
00000140: 1777 52bd 4828 d3bd 386e 5fbe a6e8 44bd
00000150: c500 80bd 2002 2bbb 69e8 6fbe 6c5d a6bb
00000160: dad5 35be 4898 163c bbda 48bd 7c97 813d
00000170: 06a9 d1bd fa9f c13c 189a 70be d5c7 babd
00000180: 6732 1c3c 2b2a 00bd e131 84bc ebaa 603d
00000190: 9e50 0a3d 9e50 cabd e5ac 9ebd cbe4 b0bc
000001a0: 3e59 7ebd a27f 8abd 35b6 c63e 757f 1bbb
000001b0: bba2 9c3d 9b62 5abb ea37 8dbd b207 98be
000001c0: e5dc f4bb 4b49 3fbd b5b7 b2bd 6c18 23be
000001d0: c0c9 0cbd edda 16be 047c 0bbd 750b 72bd
000001e0: 82a4 0dbe 1c95 4cbd 6f5a b13c b12d 24be
000001f0: cfa9 f8bd 889b 90bd b635 90bc 3f94 c8bd
00000200: f5a8 29be fffe 90bd b165 65bd e3e2 db3d
00000210: f334 0fbe 9fa6 10be bd66 9e3c f87c 4dbd
00000220: e1f4 1fbe 5375 64bd 9d76 acbd 577d 35bc
00000230: 5517 d53d c2f0 f03b 94f7 92bd 3e63 9dbd
00000240: 8192 b0bd ff5e b4bd 020e c7bc c6e5 89bd
00000250: c525 29be 49c2 cbbd 3e0c 9d3d a12d 4a3b
00000260: 4f59 31be 0bc8 3c3c 6319 acbd 2198 c0bd
00000270: fb7c c6bd 83df a73a 0cd3 c0bc f6cd 08be
00000280: f75c 25be 1ad6 81bc 03ad 37bd 8057 0fbe
00000290: e263 febd 723b 29be b476 adbc c799 02be
000002a0: 2d39 e8bd c1a6 16be d886 1dbe beeb 0d3d
000002b0: f964 80bc 486f 76ba c069 a3bc d477 31bd
000002c0: e98c 45be b57a 05bd ed16 d93d a436 5f3c
000002d0: 7c86 b13d 3e0a 3cbd 2894 9cbd c6fb a6bd
000002e0: 7f78 ddbc db52 e4bd d4bd febc 90f5 cdbd
000002f0: c73c 9e3d c139 42bd d749 d0bd c773 bf3d
00000300: 96d1 713b 86a8 22be c754 9fbd 86e5 39be
00000310: a22e 3ebd 4d9d c6bc e3f0 1fbd f801 7ebe
00000320: 94bd 3dbc 0cd2 2ebb 4fd4 0bbd dbcd 013d
00000330: 8208 013c 5133 15bc 7377 fdbd c85b 6fbd
00000340: 4b68 b4bd b279 a4bd 3079 8cbd 690d 6ebd
00000350: f23d bfbd 694a 72bd 4170 86be 92eb 74bd
00000360: ca15 0bbe df1c b1bb e799 23be 0d25 38bd
00000370: 2b57 e0bd edf4 4abd 0be7 75be c2a9 8cbd
00000380: 3abe b43d 261c 1cbe f8e3 08bd f66f c4bc
00000390: 8448 8d3d 07c0 06be 1d3a 2ebe 2a22 90bc
000003a0: 52b9 abbd b8cd efbd fc09 a3be 8ea1 0b3d
000003b0: 3009 3dbd a0a8 d3bd 09c1 3ebe b40c 0bbe
000003c0: daa5 63bd 08c4 9b3d ac8e 7fbc 6380 1abe
000003d0: faaa c5bc 0734 0cbe f597 c4bd a9a2 8e3d
000003e0: 8bae 9bbd 01d8 f03c 11bb 08be 6b4e 59be
000003f0: bda8 07be 1631 b5bd 5796 f1bd 3ded 14be
-0.028647147 -0.16235362 -0.005867072 0.13503432 -0.029776242 -0.15496002 0.09374578 -0.039395608
-0.10551608 0.04368375 -0.068951026 -0.106877185 0.09236493 -0.09732849 -0.038815003 0.03493601
0.09179894 0.04170603 -0.04005502 0.020928934 -0.1076672 0.024605963 -0.15326574 0.03708773
-0.038689792 -0.019460926 -0.15495656 -0.119636275 -0.0021083641 -0.07750496 -0.069395445 -0.07810201
-0.053756297 -0.1858338 0.028492717 -0.019571377 -0.052625366 0.0032571 -0.09481782 -0.22180274
-0.062480014 -0.058198202 0.023149775 -0.071121655 -0.07015331 -0.11061917 -0.021051189 -0.049374208
-0.062328354 -0.05604291 -0.054175384 -0.110485286 -0.11708553 -0.09338732 -0.11594209 0.036127515
-0.15076245 -0.15113507 -0.124715775 -0.05912948 0.008901159 -0.026593478 -0.1657542 -0.0070970147
0.004973687 -0.12871853 -0.14353335 -0.043485858 -0.11483406 -0.017384764 -0.026556315 0.012804346
-0.110698655 0.012723293 -0.01688444 -0.25043318 -0.046622 -0.10520764 -0.16812271 -0.047378127
-0.051383104 -0.103104174 -0.21819389 -0.048073433 -0.06250147 -0.0026093796 -0.23428501 -0.0050770547
-0.17757359 0.00919158 -0.049036723 0.063277215 -0.10237317 0.023635853 -0.23496282 -0.09120146
0.009533501 -0.031290215 -0.016137065 0.0548505 0.03376829 -0.09878658 -0.07747821 -0.021593472
-0.062096827 -0.06762625 0.38810888 -0.0023727093 0.07648226 -0.0033322934 -0.068954304 -0.2969337
-0.0074726217 -0.046700757 -0.087264456 -0.15927285 -0.03437209 -0.14731951 -0.034053817 -0.059092958
-0.13832286 -0.04994689 0.021649567 -0.16033055 -0.121417634 -0.07060915 -0.017603736 -0.09793901
-0.16568358 -0.07079887 -0.056005184 0.107366346 -0.13985042 -0.14126061 0.019336099 -0.050168008
-0.15620758 -0.05577595 -0.08421061 -0.011077247 0.10404841 0.0073529193 -0.07176128 -0.076849446
-0.086216934 -0.088071816 -0.024298672 -0.06733279 -0.16518314 -0.09949166 0.07668351 0.003084995
-0.17319225 0.011522303 -0.0840328 -0.09404016 -0.09691807 0.00128077 -0.023538135 -0.13359818
-0.16148745 -0.015849162 -0.04484273 -0.13998222 -0.12421395 -0.16526583 -0.021174766 -0.12753974
-0.113390304 -0.14712049 -0.1538347 0.03464865 -0.015673148 -0.00094007375 -0.019947886 -0.043327168
-0.19292034 -0.032587726 0.10600076 0.013623867 0.08668229 -0.045908205 -0.07645446 -0.08153491
-0.027034996 -0.11148616 -0.031096376 -0.10056603 0.07726436 -0.04741836 -0.10170334 0.09348255
0.0036898605 -0.15884599 -0.07779842 -0.18153962 -0.04643119 -0.024244929 -0.039048087 -0.24805439
-0.0115808435 -0.002667549 -0.03413802 0.03169046 0.007875564 -0.009106473 -0.12376299 -0.05843714
-0.08808955 -0.08031024 -0.06859052 -0.058118258 -0.09337987 -0.059152994 -0.26257518 -0.05979497
-0.1358253 -0.005405053 -0.15976678 -0.04495721 -0.10954126 -0.049549986 -0.24013917 -0.06868316
0.08825345 -0.15245113 -0.033420533 -0.023979168 0.06898597 -0.1315919 -0.17014356 -0.017594416
-0.083849564 -0.117091596 -0.31843555 0.034089617 -0.04615134 -0.10334897 -0.18628325 -0.13579065
-0.05557809 0.07605749 -0.0155979805 -0.15088038 -0.02412938 -0.13691722 -0.09599296 0.06964619
-0.07601651 0.029399874 -0.1335261 -0.2122132 -0.13247962 -0.08847253 -0.11796253 -0.14543624

lstm.weight_ih_l1 f4 [512, 128]
00000000: 525d 17bd b066 233d da38 f3ba d511 54bb
00000010: 26e7 e4bd e1af 333e 3ade 9abd 303c 1abe
00000020: b433 1bbe ae97 a53d c703 9c3d ae68 58bd
00000030: 7013 e33d 807e 543d 5bff e5b9 0bcb 453c
00000040: 2975 2b3d 27d7 6abd dad1 c53d 497d 0a3d
00000050: 0992 1ebd 1e2a f13c 299c b03c 6dc4 9b3d
00000060: 9c8e 193e 6ae3 37be 9e4e 28be 132d 3fbc
00000070: 219a 723c 7bbb 923c 44dd 0f3c a9c0 4f39
00000080: 4344 f3bd 18a0 2f3e 872c 13bd b9d8 183d
00000090: 52a3 81bd bcf0 87bd 45b1 05bd d310 963d
000000a0: 7e76 83bd a9fc 033e ea06 d13d 1d1f 943c
000000b0: 37fc 2b3d 1afc 9d3d 694d 0b3d b284 083d
000000c0: fa25 96bd d0af 9dbd ea8a c9bc e1a6 6e3d
000000d0: cc44 fd3d aeba acbd 0ba8 3a3b fad9 313d
000000e0: 2d39 4fbd a5f0 2cbd 9932 ccbd be65 70bd
000000f0: 0982 8fbd cecd 72bd 2f29 e2bd 65a6 143d
00000100: d8e3 89bd c447 523d 7f09 9cbd 1205 183e
00000110: 31e0 0e3d 1b89 51bd 38ad 97bd 1348 83bd
00000120: 4758 55bc 0a7a 133d 3283 243d 2e1c a13c
00000130: 7e64 f43d 0254 19bb d7e0 04bd 7779 433c
00000140: 2816 adbd dcac 7cbd c346 973c af97 f6bb
00000150: 8b5d 0d3d 743c f73c 0f04 bb3d c88e c53d
00000160: 55e0 fa3c 17e2 263e f4fc 1d3e dcae b43c
00000170: f683 1ebc 3c2d 09bd 4f24 5a3d f613 ffbd
00000180: 7c69 87bd fd87 4f3d 84ec 713e 17fe eebb
00000190: 4c15 41bd 7e5a 183d e80f 3abd 8448 6c3d
000001a0: cb10 84bc 8f27 9fbc db6a a7bb 69cc d13d
000001b0: dba9 f9bb 9b3d 88bd 6fcc 363d 190a 10bd
000001c0: 449c 273d 144c 463e e756 f83d f3ca df3c
000001d0: a1e4 9ebc 4a17 153d 0795 733d 04dc aa3d
000001e0: 5cd8 51bc 2ba3 3bbc 4a82 29be 819c f0bd
000001f0: 7379 6b3d ca72 6bbb 5bdd 09be df98 ca3c
00000200: 37c2 1e3b 2ac1 113e ba45 983d f096 f03d
00000210: c9c7 553d 719e e9bd 03bc 29be d296 cd3d
00000220: e563 b83d c3a7 0ebd eb6f 8f3d 3bc4 dc3c
00000230: f98e 67bc 4881 023e 23bf cc3d e4ea 793c
00000240: fcc3 bbbd c7a4 b6bd 0cab 4b3d 2b04 a63d
00000250: e61e 9c3d c772 d7bc 0bf6 123c 3261 193d
00000260: ece0 033e cccd 50bc 3306 b13d 4557 2b3d
00000270: 9744 73bc bae6 b1bd ca39 b1bd 60bc 27bd
00000280: 5f32 45bd 6bf1 a3bd 7fe5 043e 8aec 9a3c
00000290: e740 0ebd 7679 c63d ef26 bb3d d339 833c
000002a0: cd40 b63d 27bd b1bd e22a c6bd 33ce b7bd
000002b0: dc35 0bbe 8373 313d c279 8dbc 15b4 41bd
000002c0: bbe9 c6bc f323 01bd 542e 85bc 587b 04be
000002d0: 4a2c cd3d b1cf c53c c23c 3a3d 6fbb 66bd
000002e0: abaf edbd e9b3 a0bd 5d48 2f3c eff9 103d
000002f0: 7f9d 6cbd e27f b8bc e3f9 b83c 96d8 733c
00000300: 4ed0 833c 46d9 543d 44ca f5bd c91c b13c
00000310: 9177 6c3c 4e2b 9fbd d552 2d3e 29e8 6bbd
00000320: 9ae1 0e3c bd85 0cbd b2bc 8dbd 32c9 2a3c
00000330: de49 873d f013 333d 5046 9abd b121 a53d
00000340: b2ff 11be edb7 5abd 572a b63d 475d d5bc
00000350: 4d16 dc3c 7d3c c83d 8dd6 a9bc 93ae e6bd
00000360: a002 7b3d cd0d 833d 3f59 babc 3a4c c8bd
00000370: ed45 9c3d cd3a c93d ea1e a73d 4121 8c3c
00000380: 7469 47bd e8c3 8dba c877 1ebd c266 2dbd
00000390: 8701 d4bd 70e5 233d 6281 84bd 735a ed3c
000003a0: c491 b0bd c53d bcbc 6edb 4e3c 96ce 8a3d
000003b0: 1fbd 853c 75fd 223d 5718 823c 5ff0 09be
000003c0: dd0d adbc 7a80 1b3e 302d b33c faa8 6a3c
000003d0: 0695 c9bd f819 7b3c 0cc4 f93c 953c 353d
000003e0: bf05 06bd cce3 303e dec1 973d c557 e8bd
000003f0: 62e5 8abd 5aaa f03c 92bb 35bc 949e 09bd
-0.03695423 0.039892852 -0.0018556372 -0.0032359262 -0.111769006 0.17547561 -0.075619176 -0.15062022
-0.15156442 0.08085571 0.07617908 -0.052834205 0.11087692 0.051878452 -0.00043868538 0.012072335
0.04185978 -0.05733409 0.09659167 0.033810887 -0.03871349 0.029439028 0.021558838 0.076058246
0.14995807 -0.17957845 -0.1643624 -0.011668461 0.014807255 0.017911663 0.008780781 0.0001981283
-0.11878254 0.17150915 -0.035931136 0.037316058 -0.06329979 -0.06637713 -0.03263976 0.07327428
-0.06419085 0.12889351 0.10206397 0.018081242 0.041988578 0.077141 0.03400937 0.033329673
-0.07331462 -0.07699549 -0.024602372 0.058264617 0.123666376 -0.08434044 0.002848151 0.04342077
-0.050591636 -0.042221684 -0.09970588 -0.05869078 -0.07007224 -0.059278302 -0.110430114 0.0362915
-0.06732911 0.051337972 -0.07618999 0.14845684 0.034881774 -0.051156145 -0.07406086 -0.064102314
-0.013021535 0.036005057 0.04016418 0.019666757 0.1193323 -0.002339602 -0.032440986 0.011930815
-0.084514916 -0.06168829 0.018466359 -0.0075254063 0.034513038 0.030180193 0.091316335 0.09646374
0.030624548 0.16297184 0.15428525 0.022056036 -0.009675017 -0.033490404 0.053257283 -0.12454979
-0.066119164 0.050666798 0.2362538 -0.0072934735 -0.04713945 0.037195675 -0.045425326 0.057686344
-0.016121289 -0.019428043 -0.0051091737 0.10244066 -0.0076191253 -0.06652375 0.044628557 -0.03516588
0.04092051 0.19364959 0.1212595 0.027318453 -0.019396128 0.036399163 0.059468295 0.08342746
-0.012807932 -0.0114524765 -0.16553608 -0.11748601 0.05748887 -0.0035926574 -0.13463347 0.024731098
0.0024224648 0.14233842 0.07435174 0.11747539 0.052192483 -0.114071734 -0.16575627 0.10038532
0.09003428 -0.03482796 0.070037685 0.026949039 -0.014133208 0.1274463 0.09997394 0.015253756
-0.091682404 -0.089181475 0.04972367 0.08106264 0.07623081 -0.026299847 0.008969794 0.03744621
0.1287877 -0.012744378 0.086437605 0.041831274 -0.014847896 -0.08686586 -0.086536005 -0.040951133
-0.04814374 -0.08005031 0.12978171 0.018911619 -0.034729864 0.096911356 0.09138285 0.016018784
0.088990785 -0.08678656 -0.09676148 -0.08974876 -0.13594764 0.04332305 -0.017269973 -0.04729088
-0.024281373 -0.031528424 -0.016257443 -0.12937677 0.10018213 0.024146887 0.0454681 -0.056331094
-0.11605772 -0.07846815 0.010698405 0.035394605 -0.057767387 -0.022521917 0.022580093 0.014883181
0.016090538 0.05196502 -0.1200147 0.021620171 0.014432804 -0.077719316 0.16926129 -0.057594452
0.00872078 -0.03430723 -0.069207564 0.010423945 0.06605886 0.043720186 -0.07532942 0.08063067
-0.14257696 -0.05339806 0.088947944 -0.026045455 0.026866103 0.09777162 -0.020732189 -0.11263766
0.0612818 0.06399117 -0.022747634 -0.09780164 0.07630525 0.098256685 0.08160193 0.0171057
-0.048684552 -0.0010815831 -0.03868845 -0.042334326 -0.10351854 0.04001373 -0.0646999 0.028973794
-0.086215526 -0.022978673 0.012625558 0.067776844 0.016325532 0.039792497 0.015880747 -0.134706
-0.021124775 0.15185729 0.021872133 0.014322514 -0.09842877 0.015326016 0.03048899 0.04424723
-0.032720324 0.17274398 0.07410024 -0.11344866 -0.067820325 0.029378105 -0.0110920835 -0.033598498

lstm.weight_hh_l1 f4 [512, 128]
00000000: 9be4 df3d 4b18 963d 5650 173e 4e41 683e
00000010: 9def f7bc 1763 3ebd 971b 443d 4ae3 e1bc
00000020: 399f b03d e783 b9bb 1242 b8bd 422e 1fbe
00000030: 4efa 113e ab6b 373d 36ec c7bc 4150 e2bd
00000040: 8a74 523b d3f5 c9bd 5dec faba a574 a0bb
00000050: 4f30 ce3b 5b52 c83d b3d9 fcbc 23ba dfbc
00000060: 5784 d13d 3587 85bd 5f98 fdbc 45e6 8f3d
00000070: b154 67bd b9b3 2e3d 2e72 b1bd 7eed 09be
00000080: 5ac5 73bd 7c08 513d 60a6 483b 7f6a adbd
00000090: f023 0bbe 5f4c d43b b761 0bba 5561 6c3e
000000a0: 2c6e ad3d 6920 433d 907c b23c 7f9d 7bbc
000000b0: 80d4 ac3d 51c5 0cbd 701e f03d 0f3d 66bb
000000c0: 7487 1c3e d7fb 46bc 80b8 9d3d 197f e7bd
000000d0: d5f7 47be d68e 853d 2c5a 843c 4fde 5d3d
000000e0: 6b4d 803d 80dd 01bd 717c f63d a19c fabc
000000f0: dc43 0e3d 17c3 b3bd 5a50 9d3d df7e 3fbe
00000100: 885b abbd c666 cbbd a221 0b3e aa7d 0a3e
00000110: eda3 47bd 2ae2 963c a765 a33c df65 983d
00000120: 5688 25be d803 72bc 31ec f1bd 9d7e 97bd
00000130: f88d 4d3d b747 063d 5b1c 9ebc f57a a6bd
00000140: 0b90 1b3e 4eea 923d 9d3d 883c cd03 0ebe
00000150: 7951 97bd ae69 133e 1ae3 263c 2922 9bbd
00000160: f417 d33d bca4 1cbd 17f5 01be 6ad1 c8bd
00000170: 94f3 15bd abe7 c1bd 1348 663d f7e3 863c
00000180: 2883 85bd ae4f 06bc 2c88 0e3c ea60 75bd
00000190: 0b0b 7dbd f329 a6bd 6733 b0bc b164 56bd
000001a0: 1749 42bb c2a0 073e 0d30 aa3d 4d82 f8bd
000001b0: d768 0bbe b201 343d 7c0b 82bd 76d0 813a
000001c0: 1386 b53d a3a8 003e 9947 58be c7fe 103d
000001d0: 1ea5 aa3d 0303 ab3c 9ce8 8ebd a5c5 c03c
000001e0: fa98 b0bc 918f 04bc 1c28 a0ba 7668 033e
000001f0: f065 35bd 7e7e d63d 2246 823c 4780 f9bc
00000200: 0e3a 96bc 5aaf eebd f5c3 103d fdd9 d53c
00000210: b338 d83d c4f2 363c 278a d63d 5f15 b73d
00000220: deec 06bc b9ba 093e c7df fd3c bd6f e23d
00000230: 8d99 a4bd 115a 71bd 383a bb3c 95a1 963d
00000240: 0339 8b3c 6a5d 443c f2d5 ed3d 114b 2f3d
00000250: 3989 0cbe c792 033e 4b6e 763c c316 e8bd
00000260: 5e03 a6bc fe4e 04bd 9448 c3bb ce90 c33c
00000270: 1acc 3d3c cb67 51bd 85f2 bfbc 82b9 11bd
00000280: 11bb 19bc 655f 003d cb35 ca3c c7cd fbbd
00000290: 806e 8d3c 63e0 e9bd 82d6 cdbd 2b0f 9abd
000002a0: 0bdb b8b9 9aaa b2bd 40b6 0c3e 52d7 ba3d
000002b0: 0953 88bd 3940 373d b0e2 b6bd ef32 d3bd
000002c0: af5b f2bc 2e5c 08bd 1439 e23c 5342 b53d
000002d0: 5e22 7fbd d0f3 4ebd 97a4 91bd 0872 d1bd
000002e0: ea61 833c 8dc4 2fbc bb8b 87bc c5e6 08bd
000002f0: feb7 f5bc 1a09 833c 9f6a f23c 8fd6 7bbd
00000300: eb66 ee3d 5cfb 8ebc b075 9cbd 33b8 973d
00000310: 6312 623d 1526 aebd beda b23d facf 273c
00000320: 456b d7bc efdd 693d fefb fd3c 63d6 7a3d
00000330: 062c b13a a24f 9d3d 4251 12be 8d7e 1bbd
00000340: 25b7 5cbd 1152 b53d 4a2f 54bd 1a02 2abe
00000350: d862 d4bd e029 a2bd 3826 b1bd 75ce 4cbc
00000360: 7a76 57bd e5ef 63bd 4a6a e73d c767 413c
00000370: af03 1cbe 5363 393c 9228 853c 195c 12be
00000380: 38b2 e63a 3d2f 0abe 2fb9 a33b 978a 0bbd
00000390: 368f d43d cb88 babc 0bcb 4b3d 4915 b93d
000003a0: 1f7f ed3c 5199 e2bd 0e12 853c 7be7 81bd
000003b0: 31d7 ae3d c07d 893d 606f 193e f126 223d
000003c0: c074 213e 6854 113d 2b6f 15bd 35d6 9a3d
000003d0: 7355 d6bc 4800 3d3d e78e 013e 0e8a c43c
000003e0: 69b6 833c 50c8 733d bc45 b7bd 86fd cc3c
000003f0: 4c38 80bd 3b2f 8c3d 275f fabc b6b0 323d
0.10932275 0.07328852 0.1477674 0.22681162 -0.030265624 -0.04648122 0.047877874 -0.0275742
0.08624119 -0.005661476 -0.08996977 -0.1554499 0.1425564 0.044780415 -0.024404626 -0.110504635
0.003211292 -0.098613404 -0.0019143928 -0.0048967176 0.00629238 0.09781333 -0.030865526 -0.027310437
0.1023032 -0.06519929 -0.030956445 0.07026342 -0.056477252 0.042651866 -0.08664356 -0.13469502
-0.05951438 0.051033482 0.0030616745 -0.08467578 -0.13587928 0.0064788307 -0.000531699 0.23084004
0.08468279 0.04763833 0.021787912 -0.015357374 0.08438969 -0.034367863 0.117245555 -0.0035131609
0.15286046 -0.012145004 0.07701206 -0.11303539 -0.19528134 0.065213844 0.016156279 0.054167088
0.06264766 -0.03170538 0.12035454 -0.030592265 0.034732684 -0.08777445 0.076813415 -0.18700741
-0.083670676 -0.09931712 0.13587049 0.135245 -0.048740316 0.01841839 0.019945933 0.07441305
-0.1616529 -0.014771424 -0.11812628 -0.073971964 0.05018422 0.032783236 -0.01930063 -0.08128921
0.15191667 0.07173596 0.016630942 -0.13868637 -0.073885866 0.14395782 0.010185981 -0.07574875
0.10307303 -0.03824304 -0.1269115 -0.098055676 -0.036609247 -0.09468015 0.05622108 0.016466124
-0.06519157 -0.008197708 0.008699458 -0.059906878 -0.06177811 -0.0811347 -0.021508886 -0.05234212
-0.0029645616 0.13244918 0.08309946 -0.12134228 -0.13614212 0.04394693 -0.06349847 0.0009904045
0.08863463 0.1256433 -0.21121062 0.035399225 0.08332275 0.02087546 -0.069779605 0.023531744
-0.02155732 -0.0080908695 -0.0012218985 0.12832817 -0.04428667 0.10473345 0.015902583 -0.030456675
-0.01833823 -0.116545394 0.03534313 0.026104921 0.105576895 0.011166278 0.10475569 0.08939623
-0.0082351845 0.13450135 0.030990494 0.11056469 -0.080371 -0.058923785 0.02285491 0.07355038
0.016994959 0.011985162 0.116130725 0.0427962 -0.13724221 0.1284896 0.015040944 -0.113324665
-0.020265277 -0.032301895 -0.0059595797 0.02387276 0.011584306 -0.051124375 -0.023431072 -0.035577305
-0.009382979 0.031340975 0.024683854 -0.12295108 0.017264605 -0.114197515 -0.1005068 -0.07522424
-0.00035258415 -0.08723946 0.13741398 0.091231 -0.06656463 0.044738982 -0.08929956 -0.10312449
-0.029584734 -0.033291034 0.027615108 0.08850541 -0.062288634 -0.050525486 -0.07111471 -0.10226828
0.0160379 -0.010728014 -0.01654612 -0.033423204 -0.02999496 0.01599555 0.029591857 -0.061483916
0.11640724 -0.017453842 -0.076396346 0.0740818 0.055193316 -0.08503357 0.08733128 0.010242457
-0.026296267 0.057096418 0.031003948 0.06123961 0.0013517148 0.076812044 -0.1428881 -0.037962485
-0.053885598 0.088535435 -0.05180291 -0.16602364 -0.103704154 -0.07918143 -0.08649868 -0.012500395
-0.052603222 -0.055648703 0.1129957 0.011804528 -0.1523578 0.011315185 0.016254697 -0.14292945
0.0017600721 -0.13494582 0.004996441 -0.034067716 0.10378878 -0.022770306 0.049754184 0.09037263
0.02899128 -0.11064399 0.01624396 -0.063429795 0.08537138 0.06713438 0.14983892 0.03958792
0.15767193 0.035480887 -0.03648297 0.07560388 -0.026163792 0.046142846 0.12652169 0.02399161
0.01607819 0.059517205 -0.08948848 0.025023233 -0.06260738 0.06844946 -0.03056295 0.043625556

lstm.bias_ih_l1 f4 [512]
00000000: 1330 d6bd 6b63 0fbe 43ca 473d d189 06be
00000010: 5999 263d 80fc 1fbe 36ff f8bd 130c e6bb
00000020: d494 01bd 7315 0a3d feb2 64bd 82c3 e0bd
00000030: 57f9 4dbd ac89 d13c 1507 9f3c ec4f 97bd
00000040: 00b5 b4bc c5c0 273c 2389 0abe d32c 303c
00000050: 4082 9fbd 4b19 09be bffc 543b d4b9 08bd
00000060: 054d d2bd df98 b4bd a258 f7bd db2d afbd
00000070: 57a2 9fbd 2882 69bd ecb6 14be b24f e33a
00000080: d91c f93c 21cb 67bd f8aa c9bc c3ea 0c3d
00000090: 13b4 6cbc a805 a2bd 7efb c4bd 201f 02be
000000a0: 1156 cc3b 3e79 57bc 20ae de3c c36b 133d
000000b0: 2f19 8fbd c0e0 98bd 8ac1 f23c 25e8 07be
000000c0: c610 7abd 1721 44bc eb79 8dbc c239 0dbe
000000d0: eecb 44bd 9cc8 b3bd ace8 23bd 9a2f 13bd
000000e0: ebb4 3cbd 3c8c eabd 092e b1bd 45c2 5cbd
000000f0: cbb6 7cbd 1cd9 adbc 28d4 cfbc 8fc4 57bc
00000100: 605e 22bd 64b6 8ebc 16f3 15be 2cad 4dbe
00000110: 76b1 3c3c 2ba1 0bbe 436e a03c c6a3 023d
00000120: bf73 0dbe 1521 14bd e11f 28bd 5b6a a03c
00000130: 8844 97bd 1b9a 1fbe cf37 06be c520 02be
00000140: 7bbe 0a3c a3cc 8cbd 8ebc fabc bccd e4bc
00000150: 010a 08bd d245 f0bd f17b 5b3c 25f9 3dbb
00000160: b642 a7bd 37e5 c53c 3d6b d4bd 5a3c adba
00000170: 6bac 043c 9d87 0ebe b54d 983b 3ad8 4b3c
00000180: 421b dbbd 6e63 17bd cfc3 65bd d85a 52bd
00000190: 3b82 01bb f029 d7bd e803 06bd d25f 8abd
000001a0: b03c 96b9 d1d7 33bd 0c60 0cbe cd9c 84bc
000001b0: 9e78 fdbd bec5 63be 57c1 76bd 76ea 58bd
000001c0: 3e9e 2ebe b971 a338 421b 3bbc 3304 973c
000001d0: 518e 083d c789 f9bc fedb 343c 3bf5 093a
000001e0: eff7 babc 746f 85bc b422 ecbd 74c0 df3c
000001f0: 0936 23be d63d fa3c 3de1 983c 007d febb
00000200: fa41 ebbd fb6f 11be 84b5 fb3c 7bd1 55bc
00000210: 3629 a7bc 2c78 c4bd 4670 87bc 8d62 a83b
00000220: 25f0 1cbe 6144 c23c 6e50 28be bcb6 e2bd
00000230: b364 17bd aba9 17bd fad5 c2bd 8049 b9bd
00000240: 1f88 f8bc 4253 ccbd 4919 8cbd 61a1 86bd
00000250: 1129 02be ba5e 74bd ff25 e33c 4618 713c
00000260: 9408 b13c e11b 21bd d8ae 43bd caf5 13bd
00000270: 8441 aabd b2da 62bd 3aca fbbd 63ee d939
00000280: 38da 4e3d 2f76 0fbd 3cd7 82bd b7c5 4bbd
00000290: 799e 10bd 296f f93c 6677 a1bd 9662 87bd
000002a0: 0b11 07be 200d 23be 3557 03be c8e6 fe3b
000002b0: 5293 34be a901 013c 21e9 553d c2f0 83bd
000002c0: 4fd5 c2bc 6171 b7bd 177a ecbd aeb1 c1bd
000002d0: cc3b 2fbd b8ff d83c 4da8 98bd 43db 10bd
000002e0: 8d7a 00be 88ec 8bbb 44b1 d4bc 4e81 d2bd
000002f0: 4234 10bd 9a7b 7cbd 851c 4dbd 61af e5bd
00000300: 9b48 dbbc 4c11 2bbb 92bf c4bd cd7a 58be
00000310: ab4b 82bd 1617 12be c6aa ef3c d0a0 063d
00000320: 47c9 14be 30f0 b8bb 9c99 3dbd 54d2 d9ba
00000330: 09c9 9fbd 31f6 32bd b0d5 11bc 1e03 2ebe
00000340: 3c2c 2ebe 8145 5ebc f384 0abe 3564 9bbe
00000350: ca97 d7bb 4e73 24be f9dc f93c 3dd8 ccbd
00000360: de8c 0cbe 0d2a 75bd 7bff 44be ee08 f1bd
00000370: a3b4 6abd a5e6 cebd 3fdc 073c a02f 65bd
00000380: a1e4 02bd 1692 c5bd 1d3d 26be 4c63 d53c
00000390: f5c9 2cbd 1742 a3bc eed5 34bd c2c3 4cbd
000003a0: 45a7 1dbd e28d 9ebd 4851 0bbd e9cf 8dbd
000003b0: fee8 6bbd 883c 15be 41b1 25be 73a9 3bbd
000003c0: d380 93be 351b 22be 5da2 10be d19d fabd
000003d0: f49a 04be 2a19 d0bd 253a 793d 853c fbbc
000003e0: d400 3ebe 46ca 10be 8c61 cdbd 5714 d93b
000003f0: a07c 53be f0ac bbbd 527e 40bd fcb2 a03c
-0.10458388 -0.14002769 0.048776876 -0.1313851 0.040673587 -0.15623665 -0.121580526 -0.0070204823
-0.031636074 0.03371186 -0.055834763 -0.1097479 -0.050286617 0.025578342 0.019412557 -0.07388291
-0.022058964 0.010238831 -0.13528876 0.010752874 -0.07788515 -0.13388555 0.0032499281 -0.033380345
-0.102685966 -0.0881822 -0.12077452 -0.08553668 -0.07794636 -0.057008892 -0.14522904 0.0017342477
0.030409263 -0.056590203 -0.024617657 0.034403574 -0.01444723 -0.07911235 -0.09618281 -0.12707186
0.006235846 -0.013151465 0.027182639 0.03599144 -0.06987225 -0.07464743 0.029633302 -0.1327215
-0.061051153 -0.01197078 -0.01727005 -0.13791564 -0.048046045 -0.087784976 -0.040016815 -0.03593407
-0.046070974 -0.11452529 -0.08651359 -0.053896207 -0.061697762 -0.02122169 -0.025369719 -0.013169422
-0.039640784 -0.017420955 -0.14643511 -0.20085591 0.011516919 -0.136357 0.019583827 0.031894468
-0.13813685 -0.036164362 -0.041046027 0.019581964 -0.07386118 -0.1558613 -0.13107227 -0.12707813
0.008468266 -0.06874969 -0.030607488 -0.027930133 -0.033212665 -0.11732067 0.013396249 -0.0028987613
-0.08167021 0.02415715 -0.103720166 -0.0013216839 0.008097748 -0.1391892 0.0046479353 0.012441689
-0.106985584 -0.036960058 -0.05609494 -0.051356167 -0.0019761461 -0.10506046 -0.03271857 -0.067565575
-0.00028655445 -0.04390699 -0.13708514 -0.01618805 -0.123765215 -0.22243401 -0.060242977 -0.052957974
-0.17052552 7.793628e-05 -0.011420073 0.01843462 0.03333885 -0.030461205 0.011038778 0.00052626774
-0.022823302 -0.016288497 -0.115300566 0.027313448 -0.15938582 0.030547064 0.01866209 -0.007766366
-0.114871934 -0.14202873 0.030726202 -0.013050432 -0.020405393 -0.095932335 -0.016533028 0.0051387013
-0.15325983 0.023714246 -0.16436931 -0.1107001 -0.03696127 -0.037027042 -0.09513469 -0.09047222
-0.030338345 -0.09976818 -0.0684076 -0.06573749 -0.12710978 -0.05966065 0.027728079 0.01471526
0.021610536 -0.039333228 -0.047774166 -0.036123075 -0.08313277 -0.055384345 -0.12294431 0.00041567077
0.05050108 -0.035024818 -0.06388709 -0.049749102 -0.03530738 0.030448513 -0.078841016 -0.06610601
-0.13190095 -0.15922976 -0.12826236 0.007778976 -0.17634323 0.007873931 0.052224282 -0.06442405
-0.023783354 -0.08957172 -0.11546724 -0.09457718 -0.042781636 0.026489124 -0.07453976 -0.035365354
-0.1254675 -0.00427014 -0.025963433 -0.10278569 -0.035206087 -0.061641313 -0.050076026 -0.112150915
-0.02676802 -0.002610284 -0.09606852 -0.21140595 -0.06362089 -0.14266619 0.029256236 0.032868207
-0.14529906 -0.005643867 -0.04628907 -0.0016618469 -0.07802016 -0.043691818 -0.008901045 -0.16993377
-0.17009062 -0.013566376 -0.13527279 -0.3034989 -0.006579374 -0.1605961 0.030500876 -0.10002182
-0.13725612 -0.059854556 -0.19238083 -0.11769281 -0.057301175 -0.10102586 0.008292257 -0.055953622
-0.03195632 -0.09647004 -0.1623425 0.026048325 -0.04218479 -0.019928975 -0.04414933 -0.049991377
-0.0384896 -0.07741906 -0.034013063 -0.06924421 -0.057595246 -0.14573872 -0.16180898 -0.045815896
-0.28809223 -0.15830691 -0.14124437 -0.12237132 -0.12949735 -0.1016105 0.060846467 -0.030668506
-0.18555003 -0.14139661 -0.10028371 0.006624739 -0.2065301 -0.091638446 -0.04699547 0.019616596
